…
I0702 13:51:57.697337 16445 solver.cpp:81] Creating training net from train_net file: kitti/models/kitti_car/VGG16/train.prototxt
I0702 13:51:57.697805 16445 net.cpp:58] Initializing net from parameters: 
name: "VGG_ILSVRC_16_layers"
state {
  phase: TRAIN
}
layer {
  name: "data"
  type: "Python"
  top: "data"
  top: "rois"
  top: "labels"
  top: "bbox_targets"
  top: "bbox_loss_weights"
  top: "ort_targets"
  top: "ort_loss_weights"
  python_param {
    module: "roi_data_layer.layer"
    layer: "RoIDataLayer"
    param_str: "\'num_classes\': 2"
  }
}
layer {
  name: "multi_rois"
  type: "Python"
  bottom: "rois"
  top: "context"
  python_param {
    module: "roi_data_layer.layer"
    layer: "MultiRoIDataLayer"
    param_str: "\'context\': 1.5"
  }
}
layer {
  name: "conv1_1"
  type: "Convolution"
  bottom: "data"
  top: "conv1_1"
  param {
    lr_mult: 0
    decay_mult: 0
  }
  param {
    lr_mult: 0
    decay_mult: 0
  }
  convolution_param {
    num_output: 64
    pad: 1
    kernel_size: 3
  }
}
layer {
  name: "relu1_1"
  type: "ReLU"
  bottom: "conv1_1"
  top: "conv1_1"
}
layer {
  name: "conv1_2"
  type: "Convolution"
  bottom: "conv1_1"
  top: "conv1_2"
  param {
    lr_mult: 0
    decay_mult: 0
  }
  param {
    lr_mult: 0
    decay_mult: 0
  }
  convolution_param {
    num_output: 64
    pad: 1
    kernel_size: 3
  }
}
layer {
  name: "relu1_2"
  type: "ReLU"
  bottom: "conv1_2"
  top: "conv1_2"
}
layer {
  name: "pool1"
  type: "Pooling"
  bottom: "conv1_2"
  top: "pool1"
  pooling_param {
    pool: MAX
    kernel_size: 2
    stride: 2
  }
}
layer {
  name: "conv2_1"
  type: "Convolution"
  bottom: "pool1"
  top: "conv2_1"
  param {
    lr_mult: 0
    decay_mult: 0
  }
  param {
    lr_mult: 0
    decay_mult: 0
  }
  convolution_param {
    num_output: 128
    pad: 1
    kernel_size: 3
  }
}
layer {
  name: "relu2_1"
  type: "ReLU"
  bottom: "conv2_1"
  top: "conv2_1"
}
layer {
  name: "conv2_2"
  type: "Convolution"
  bottom: "conv2_1"
  top: "conv2_2"
  param {
    lr_mult: 0
    decay_mult: 0
  }
  param {
    lr_mult: 0
    decay_mult: 0
  }
  convolution_param {
    num_output: 128
    pad: 1
    kernel_size: 3
  }
}
layer {
  name: "relu2_2"
  type: "ReLU"
  bottom: "conv2_2"
  top: "conv2_2"
}
layer {
  name: "pool2"
  type: "Pooling"
  bottom: "conv2_2"
  top: "pool2"
  pooling_param {
    pool: MAX
    kernel_size: 2
    stride: 2
  }
}
layer {
  name: "conv3_1"
  type: "Convolution"
  bottom: "pool2"
  top: "conv3_1"
  param {
    lr_mult: 1
    decay_mult: 1
  }
  param {
    lr_mult: 2
    decay_mult: 0
  }
  convolution_param {
    num_output: 256
    pad: 1
    kernel_size: 3
  }
}
layer {
  name: "relu3_1"
  type: "ReLU"
  bottom: "conv3_1"
  top: "conv3_1"
}
layer {
  name: "conv3_2"
  type: "Convolution"
  bottom: "conv3_1"
  top: "conv3_2"
  param {
    lr_mult: 1
    decay_mult: 1
  }
  param {
    lr_mult: 2
    decay_mult: 0
  }
  convolution_param {
    num_output: 256
    pad: 1
    kernel_size: 3
  }
}
layer {
  name: "relu3_2"
  type: "ReLU"
  bottom: "conv3_2"
  top: "conv3_2"
}
layer {
  name: "conv3_3"
  type: "Convolution"
  bottom: "conv3_2"
  top: "conv3_3"
  param {
    lr_mult: 1
    decay_mult: 1
  }
  param {
    lr_mult: 2
    decay_mult: 0
  }
  convolution_param {
    num_output: 256
    pad: 1
    kernel_size: 3
  }
}
layer {
  name: "relu3_3"
  type: "ReLU"
  bottom: "conv3_3"
  top: "conv3_3"
}
layer {
  name: "pool3"
  type: "Pooling"
  bottom: "conv3_3"
  top: "pool3"
  pooling_param {
    pool: MAX
    kernel_size: 2
    stride: 2
  }
}
layer {
  name: "conv4_1"
  type: "Convolution"
  bottom: "pool3"
  top: "conv4_1"
  param {
    lr_mult: 1
    decay_mult: 1
  }
  param {
    lr_mult: 2
    decay_mult: 0
  }
  convolution_param {
    num_output: 512
    pad: 1
    kernel_size: 3
  }
}
layer {
  name: "relu4_1"
  type: "ReLU"
  bottom: "conv4_1"
  top: "conv4_1"
}
layer {
  name: "conv4_2"
  type: "Convolution"
  bottom: "conv4_1"
  top: "conv4_2"
  param {
    lr_mult: 1
    decay_mult: 1
  }
  param {
    lr_mult: 2
    decay_mult: 0
  }
  convolution_param {
    num_output: 512
    pad: 1
    kernel_size: 3
  }
}
layer {
  name: "relu4_2"
  type: "ReLU"
  bottom: "conv4_2"
  top: "conv4_2"
}
layer {
  name: "conv4_3"
  type: "Convolution"
  bottom: "conv4_2"
  top: "conv4_3"
  param {
    lr_mult: 1
    decay_mult: 1
  }
  param {
    lr_mult: 2
    decay_mult: 0
  }
  convolution_param {
    num_output: 512
    pad: 1
    kernel_size: 3
  }
}
layer {
  name: "relu4_3"
  type: "ReLU"
  bottom: "conv4_3"
  top: "conv4_3"
}
layer {
  name: "pool4"
  type: "Pooling"
  bottom: "conv4_3"
  top: "pool4"
  pooling_param {
    pool: MAX
    kernel_size: 2
    stride: 2
  }
}
layer {
  name: "conv5_1"
  type: "Convolution"
  bottom: "pool4"
  top: "conv5_1"
  param {
    lr_mult: 1
    decay_mult: 1
  }
  param {
    lr_mult: 2
    decay_mult: 0
  }
  convolution_param {
    num_output: 512
    pad: 1
    kernel_size: 3
  }
}
layer {
  name: "relu5_1"
  type: "ReLU"
  bottom: "conv5_1"
  top: "conv5_1"
}
layer {
  name: "conv5_2"
  type: "Convolution"
  bottom: "conv5_1"
  top: "conv5_2"
  param {
    lr_mult: 1
    decay_mult: 1
  }
  param {
    lr_mult: 2
    decay_mult: 0
  }
  convolution_param {
    num_output: 512
    pad: 1
    kernel_size: 3
  }
}
layer {
  name: "relu5_2"
  type: "ReLU"
  bottom: "conv5_2"
  top: "conv5_2"
}
layer {
  name: "conv5_3"
  type: "Convolution"
  bottom: "conv5_2"
  top: "conv5_3"
  param {
    lr_mult: 1
    decay_mult: 1
  }
  param {
    lr_mult: 2
    decay_mult: 0
  }
  convolution_param {
    num_output: 512
    pad: 1
    kernel_size: 3
  }
}
layer {
  name: "relu5_3"
  type: "ReLU"
  bottom: "conv5_3"
  top: "conv5_3"
}
layer {
  name: "roi_pool5"
  type: "ROIPooling"
  bottom: "conv5_3"
  bottom: "rois"
  top: "pool5"
  roi_pooling_param {
    pooled_h: 7
    pooled_w: 7
    spatial_scale: 0.0625
  }
}
layer {
  name: "fc6"
  type: "InnerProduct"
  bottom: "pool5"
  top: "fc6"
  param {
    lr_mult: 1
    decay_mult: 1
  }
  param {
    lr_mult: 2
    decay_mult: 0
  }
  inner_product_param {
    num_output: 4096
  }
}
layer {
  name: "relu6"
  type: "ReLU"
  bottom: "fc6"
  top: "fc6"
}
layer {
  name: "drop6"
  type: "Dropout"
  bottom: "fc6"
  top: "fc6"
  dropout_param {
    dropout_ratio: 0.5
  }
}
layer {
  name: "fc7"
  type: "InnerProduct"
  bottom: "fc6"
  top: "fc7"
  param {
    lr_mult: 1
    decay_mult: 1
  }
  param {
    lr_mult: 2
    decay_mult: 0
  }
  inner_product_param {
    num_output: 4096
  }
}
layer {
  name: "relu7"
  type: "ReLU"
  bottom: "fc7"
  top: "fc7"
}
layer {
  name: "drop7"
  type: "Dropout"
  bottom: "fc7"
  top: "fc7"
  dropout_param {
    dropout_ratio: 0.5
  }
}
layer {
  name: "roi_pool5_context"
  type: "ROIPooling"
  bottom: "conv5_3"
  bottom: "context"
  top: "pool5_context"
  roi_pooling_param {
    pooled_h: 7
    pooled_w: 7
    spatial_scale: 0.0625
  }
}
layer {
  name: "fc6_context"
  type: "InnerProduct"
  bottom: "pool5_context"
  top: "fc6_context"
  param {
    lr_mult: 1
    decay_mult: 1
  }
  param {
    lr_mult: 2
    decay_mult: 0
  }
  inner_product_param {
    num_output: 4096
  }
}
layer {
  name: "relu6_context"
  type: "ReLU"
  bottom: "fc6_context"
  top: "fc6_context"
}
layer {
  name: "drop6_context"
  type: "Dropout"
  bottom: "fc6_context"
  top: "fc6_context"
  dropout_param {
    dropout_ratio: 0.5
  }
}
layer {
  name: "fc7_context"
  type: "InnerProduct"
  bottom: "fc6_context"
  top: "fc7_context"
  param {
    lr_mult: 1
    decay_mult: 1
  }
  param {
    lr_mult: 2
    decay_mult: 0
  }
  inner_product_param {
    num_output: 4096
  }
}
layer {
  name: "relu7_context"
  type: "ReLU"
  bottom: "fc7_context"
  top: "fc7_context"
}
layer {
  name: "drop7_context"
  type: "Dropout"
  bottom: "fc7_context"
  top: "fc7_context"
  dropout_param {
    dropout_ratio: 0.5
  }
}
layer {
  name: "fc7_output"
  type: "Concat"
  bottom: "fc7"
  bottom: "fc7_context"
  top: "fc7_output"
}
layer {
  name: "cls_score"
  type: "InnerProduct"
  bottom: "fc7_output"
  top: "cls_score"
  param {
    lr_mult: 1
    decay_mult: 1
  }
  param {
    lr_mult: 2
    decay_mult: 0
  }
  inner_product_param {
    num_output: 2
    weight_filler {
      type: "gaussian"
      std: 0.01
    }
    bias_filler {
      type: "constant"
      value: 0
    }
  }
}
layer {
  name: "bbox_pred"
  type: "InnerProduct"
  bottom: "fc7_output"
  top: "bbox_pred"
  param {
    lr_mult: 1
    decay_mult: 1
  }
  param {
    lr_mult: 2
    decay_mult: 0
  }
  inner_product_param {
    num_output: 8
    weight_filler {
      type: "gaussian"
      std: 0.001
    }
    bias_filler {
      type: "constant"
      value: 0
    }
  }
}
layer {
  name: "ort_pred"
  type: "InnerProduct"
  bottom: "fc7_output"
  top: "ort_pred"
  param {
    lr_mult: 1
    decay_mult: 1
  }
  param {
    lr_mult: 2
    decay_mult: 0
  }
  inner_product_param {
    num_output: 2
    weight_filler {
      type: "gaussian"
      std: 0.001
    }
    bias_filler {
      type: "constant"
      value: 0
    }
  }
}
layer {
  name: "loss_cls"
  type: "SoftmaxWithLoss"
  bottom: "cls_score"
  bottom: "labels"
  top: "loss_cls"
  loss_weight: 1
}
layer {
  name: "loss_bbox"
  type: "SmoothL1Loss"
  bottom: "bbox_pred"
  bottom: "bbox_targets"
  bottom: "bbox_loss_weights"
  top: "loss_bbox"
  loss_weight: 1
}
layer {
  name: "loss_ort"
  type: "SmoothL1Loss"
  bottom: "ort_pred"
  bottom: "ort_targets"
  bottom: "ort_loss_weights"
  top: "loss_ort"
  loss_weight: 1
}
I0702 13:51:57.697955 16445 layer_factory.hpp:77] Creating layer data
I0702 13:51:57.698349 16445 net.cpp:100] Creating Layer data
I0702 13:51:57.698357 16445 net.cpp:408] data -> data
I0702 13:51:57.698364 16445 net.cpp:408] data -> rois
I0702 13:51:57.698369 16445 net.cpp:408] data -> labels
I0702 13:51:57.698374 16445 net.cpp:408] data -> bbox_targets
I0702 13:51:57.698379 16445 net.cpp:408] data -> bbox_loss_weights
I0702 13:51:57.698382 16445 net.cpp:408] data -> ort_targets
I0702 13:51:57.698386 16445 net.cpp:408] data -> ort_loss_weights
I0702 13:51:57.715209 16445 net.cpp:150] Setting up data
I0702 13:51:57.715245 16445 net.cpp:157] Top shape: 1 3 100 100 (30000)
I0702 13:51:57.715248 16445 net.cpp:157] Top shape: 1 5 (5)
I0702 13:51:57.715251 16445 net.cpp:157] Top shape: 1 (1)
I0702 13:51:57.715253 16445 net.cpp:157] Top shape: 1 8 (8)
I0702 13:51:57.715256 16445 net.cpp:157] Top shape: 1 8 (8)
I0702 13:51:57.715260 16445 net.cpp:157] Top shape: 1 2 (2)
I0702 13:51:57.715262 16445 net.cpp:157] Top shape: 1 2 (2)
I0702 13:51:57.715265 16445 net.cpp:165] Memory required for data: 120104
I0702 13:51:57.715270 16445 layer_factory.hpp:77] Creating layer rois_data_1_split
I0702 13:51:57.715279 16445 net.cpp:100] Creating Layer rois_data_1_split
I0702 13:51:57.715282 16445 net.cpp:434] rois_data_1_split <- rois
I0702 13:51:57.715287 16445 net.cpp:408] rois_data_1_split -> rois_data_1_split_0
I0702 13:51:57.715296 16445 net.cpp:408] rois_data_1_split -> rois_data_1_split_1
I0702 13:51:57.715332 16445 net.cpp:150] Setting up rois_data_1_split
I0702 13:51:57.715340 16445 net.cpp:157] Top shape: 1 5 (5)
I0702 13:51:57.715343 16445 net.cpp:157] Top shape: 1 5 (5)
I0702 13:51:57.715345 16445 net.cpp:165] Memory required for data: 120144
I0702 13:51:57.715348 16445 layer_factory.hpp:77] Creating layer multi_rois
I0702 13:51:57.715376 16445 net.cpp:100] Creating Layer multi_rois
I0702 13:51:57.715380 16445 net.cpp:434] multi_rois <- rois_data_1_split_0
I0702 13:51:57.715386 16445 net.cpp:408] multi_rois -> context
'context': 1.5
I0702 13:51:57.715723 16445 net.cpp:150] Setting up multi_rois
I0702 13:51:57.715731 16445 net.cpp:157] Top shape: 1 5 (5)
I0702 13:51:57.715734 16445 net.cpp:165] Memory required for data: 120164
I0702 13:51:57.715736 16445 layer_factory.hpp:77] Creating layer conv1_1
I0702 13:51:57.715744 16445 net.cpp:100] Creating Layer conv1_1
I0702 13:51:57.715746 16445 net.cpp:434] conv1_1 <- data
I0702 13:51:57.715751 16445 net.cpp:408] conv1_1 -> conv1_1
I0702 13:51:57.717850 16445 net.cpp:150] Setting up conv1_1
I0702 13:51:57.717875 16445 net.cpp:157] Top shape: 1 64 100 100 (640000)
I0702 13:51:57.717878 16445 net.cpp:165] Memory required for data: 2680164
I0702 13:51:57.717886 16445 layer_factory.hpp:77] Creating layer relu1_1
I0702 13:51:57.717892 16445 net.cpp:100] Creating Layer relu1_1
I0702 13:51:57.717895 16445 net.cpp:434] relu1_1 <- conv1_1
I0702 13:51:57.717898 16445 net.cpp:395] relu1_1 -> conv1_1 (in-place)
I0702 13:51:57.717903 16445 net.cpp:150] Setting up relu1_1
I0702 13:51:57.717907 16445 net.cpp:157] Top shape: 1 64 100 100 (640000)
I0702 13:51:57.717908 16445 net.cpp:165] Memory required for data: 5240164
I0702 13:51:57.717911 16445 layer_factory.hpp:77] Creating layer conv1_2
I0702 13:51:57.717916 16445 net.cpp:100] Creating Layer conv1_2
I0702 13:51:57.717918 16445 net.cpp:434] conv1_2 <- conv1_1
I0702 13:51:57.717921 16445 net.cpp:408] conv1_2 -> conv1_2
I0702 13:51:57.719131 16445 net.cpp:150] Setting up conv1_2
I0702 13:51:57.719142 16445 net.cpp:157] Top shape: 1 64 100 100 (640000)
I0702 13:51:57.719147 16445 net.cpp:165] Memory required for data: 7800164
I0702 13:51:57.719153 16445 layer_factory.hpp:77] Creating layer relu1_2
I0702 13:51:57.719157 16445 net.cpp:100] Creating Layer relu1_2
I0702 13:51:57.719161 16445 net.cpp:434] relu1_2 <- conv1_2
I0702 13:51:57.719164 16445 net.cpp:395] relu1_2 -> conv1_2 (in-place)
I0702 13:51:57.719169 16445 net.cpp:150] Setting up relu1_2
I0702 13:51:57.719172 16445 net.cpp:157] Top shape: 1 64 100 100 (640000)
I0702 13:51:57.719174 16445 net.cpp:165] Memory required for data: 10360164
I0702 13:51:57.719177 16445 layer_factory.hpp:77] Creating layer pool1
I0702 13:51:57.719180 16445 net.cpp:100] Creating Layer pool1
I0702 13:51:57.719182 16445 net.cpp:434] pool1 <- conv1_2
I0702 13:51:57.719185 16445 net.cpp:408] pool1 -> pool1
I0702 13:51:57.719225 16445 net.cpp:150] Setting up pool1
I0702 13:51:57.719229 16445 net.cpp:157] Top shape: 1 64 50 50 (160000)
I0702 13:51:57.719230 16445 net.cpp:165] Memory required for data: 11000164
I0702 13:51:57.719233 16445 layer_factory.hpp:77] Creating layer conv2_1
I0702 13:51:57.719239 16445 net.cpp:100] Creating Layer conv2_1
I0702 13:51:57.719241 16445 net.cpp:434] conv2_1 <- pool1
I0702 13:51:57.719245 16445 net.cpp:408] conv2_1 -> conv2_1
I0702 13:51:57.720417 16445 net.cpp:150] Setting up conv2_1
I0702 13:51:57.720427 16445 net.cpp:157] Top shape: 1 128 50 50 (320000)
I0702 13:51:57.720429 16445 net.cpp:165] Memory required for data: 12280164
I0702 13:51:57.720435 16445 layer_factory.hpp:77] Creating layer relu2_1
I0702 13:51:57.720439 16445 net.cpp:100] Creating Layer relu2_1
I0702 13:51:57.720443 16445 net.cpp:434] relu2_1 <- conv2_1
I0702 13:51:57.720445 16445 net.cpp:395] relu2_1 -> conv2_1 (in-place)
I0702 13:51:57.720449 16445 net.cpp:150] Setting up relu2_1
I0702 13:51:57.720453 16445 net.cpp:157] Top shape: 1 128 50 50 (320000)
I0702 13:51:57.720454 16445 net.cpp:165] Memory required for data: 13560164
I0702 13:51:57.720458 16445 layer_factory.hpp:77] Creating layer conv2_2
I0702 13:51:57.720463 16445 net.cpp:100] Creating Layer conv2_2
I0702 13:51:57.720464 16445 net.cpp:434] conv2_2 <- conv2_1
I0702 13:51:57.720468 16445 net.cpp:408] conv2_2 -> conv2_2
I0702 13:51:57.720816 16445 net.cpp:150] Setting up conv2_2
I0702 13:51:57.720824 16445 net.cpp:157] Top shape: 1 128 50 50 (320000)
I0702 13:51:57.720827 16445 net.cpp:165] Memory required for data: 14840164
I0702 13:51:57.720831 16445 layer_factory.hpp:77] Creating layer relu2_2
I0702 13:51:57.720835 16445 net.cpp:100] Creating Layer relu2_2
I0702 13:51:57.720837 16445 net.cpp:434] relu2_2 <- conv2_2
I0702 13:51:57.720840 16445 net.cpp:395] relu2_2 -> conv2_2 (in-place)
I0702 13:51:57.720844 16445 net.cpp:150] Setting up relu2_2
I0702 13:51:57.720847 16445 net.cpp:157] Top shape: 1 128 50 50 (320000)
I0702 13:51:57.720849 16445 net.cpp:165] Memory required for data: 16120164
I0702 13:51:57.720851 16445 layer_factory.hpp:77] Creating layer pool2
I0702 13:51:57.720856 16445 net.cpp:100] Creating Layer pool2
I0702 13:51:57.720858 16445 net.cpp:434] pool2 <- conv2_2
I0702 13:51:57.720861 16445 net.cpp:408] pool2 -> pool2
I0702 13:51:57.720898 16445 net.cpp:150] Setting up pool2
I0702 13:51:57.720902 16445 net.cpp:157] Top shape: 1 128 25 25 (80000)
I0702 13:51:57.720904 16445 net.cpp:165] Memory required for data: 16440164
I0702 13:51:57.720906 16445 layer_factory.hpp:77] Creating layer conv3_1
I0702 13:51:57.720911 16445 net.cpp:100] Creating Layer conv3_1
I0702 13:51:57.720913 16445 net.cpp:434] conv3_1 <- pool2
I0702 13:51:57.720917 16445 net.cpp:408] conv3_1 -> conv3_1
I0702 13:51:57.722200 16445 net.cpp:150] Setting up conv3_1
I0702 13:51:57.722210 16445 net.cpp:157] Top shape: 1 256 25 25 (160000)
I0702 13:51:57.722213 16445 net.cpp:165] Memory required for data: 17080164
I0702 13:51:57.722219 16445 layer_factory.hpp:77] Creating layer relu3_1
I0702 13:51:57.722224 16445 net.cpp:100] Creating Layer relu3_1
I0702 13:51:57.722226 16445 net.cpp:434] relu3_1 <- conv3_1
I0702 13:51:57.722231 16445 net.cpp:395] relu3_1 -> conv3_1 (in-place)
I0702 13:51:57.722235 16445 net.cpp:150] Setting up relu3_1
I0702 13:51:57.722239 16445 net.cpp:157] Top shape: 1 256 25 25 (160000)
I0702 13:51:57.722240 16445 net.cpp:165] Memory required for data: 17720164
I0702 13:51:57.722244 16445 layer_factory.hpp:77] Creating layer conv3_2
I0702 13:51:57.722249 16445 net.cpp:100] Creating Layer conv3_2
I0702 13:51:57.722250 16445 net.cpp:434] conv3_2 <- conv3_1
I0702 13:51:57.722254 16445 net.cpp:408] conv3_2 -> conv3_2
I0702 13:51:57.723780 16445 net.cpp:150] Setting up conv3_2
I0702 13:51:57.723805 16445 net.cpp:157] Top shape: 1 256 25 25 (160000)
I0702 13:51:57.723807 16445 net.cpp:165] Memory required for data: 18360164
I0702 13:51:57.723812 16445 layer_factory.hpp:77] Creating layer relu3_2
I0702 13:51:57.723819 16445 net.cpp:100] Creating Layer relu3_2
I0702 13:51:57.723821 16445 net.cpp:434] relu3_2 <- conv3_2
I0702 13:51:57.723825 16445 net.cpp:395] relu3_2 -> conv3_2 (in-place)
I0702 13:51:57.723829 16445 net.cpp:150] Setting up relu3_2
I0702 13:51:57.723832 16445 net.cpp:157] Top shape: 1 256 25 25 (160000)
I0702 13:51:57.723834 16445 net.cpp:165] Memory required for data: 19000164
I0702 13:51:57.723836 16445 layer_factory.hpp:77] Creating layer conv3_3
I0702 13:51:57.723841 16445 net.cpp:100] Creating Layer conv3_3
I0702 13:51:57.723843 16445 net.cpp:434] conv3_3 <- conv3_2
I0702 13:51:57.723848 16445 net.cpp:408] conv3_3 -> conv3_3
I0702 13:51:57.725431 16445 net.cpp:150] Setting up conv3_3
I0702 13:51:57.725441 16445 net.cpp:157] Top shape: 1 256 25 25 (160000)
I0702 13:51:57.725445 16445 net.cpp:165] Memory required for data: 19640164
I0702 13:51:57.725448 16445 layer_factory.hpp:77] Creating layer relu3_3
I0702 13:51:57.725453 16445 net.cpp:100] Creating Layer relu3_3
I0702 13:51:57.725456 16445 net.cpp:434] relu3_3 <- conv3_3
I0702 13:51:57.725461 16445 net.cpp:395] relu3_3 -> conv3_3 (in-place)
I0702 13:51:57.725466 16445 net.cpp:150] Setting up relu3_3
I0702 13:51:57.725473 16445 net.cpp:157] Top shape: 1 256 25 25 (160000)
I0702 13:51:57.725476 16445 net.cpp:165] Memory required for data: 20280164
I0702 13:51:57.725477 16445 layer_factory.hpp:77] Creating layer pool3
I0702 13:51:57.725481 16445 net.cpp:100] Creating Layer pool3
I0702 13:51:57.725482 16445 net.cpp:434] pool3 <- conv3_3
I0702 13:51:57.725486 16445 net.cpp:408] pool3 -> pool3
I0702 13:51:57.725528 16445 net.cpp:150] Setting up pool3
I0702 13:51:57.725531 16445 net.cpp:157] Top shape: 1 256 13 13 (43264)
I0702 13:51:57.725533 16445 net.cpp:165] Memory required for data: 20453220
I0702 13:51:57.725535 16445 layer_factory.hpp:77] Creating layer conv4_1
I0702 13:51:57.725541 16445 net.cpp:100] Creating Layer conv4_1
I0702 13:51:57.725543 16445 net.cpp:434] conv4_1 <- pool3
I0702 13:51:57.725548 16445 net.cpp:408] conv4_1 -> conv4_1
I0702 13:51:57.727869 16445 net.cpp:150] Setting up conv4_1
I0702 13:51:57.727879 16445 net.cpp:157] Top shape: 1 512 13 13 (86528)
I0702 13:51:57.727881 16445 net.cpp:165] Memory required for data: 20799332
I0702 13:51:57.727885 16445 layer_factory.hpp:77] Creating layer relu4_1
I0702 13:51:57.727890 16445 net.cpp:100] Creating Layer relu4_1
I0702 13:51:57.727892 16445 net.cpp:434] relu4_1 <- conv4_1
I0702 13:51:57.727896 16445 net.cpp:395] relu4_1 -> conv4_1 (in-place)
I0702 13:51:57.727900 16445 net.cpp:150] Setting up relu4_1
I0702 13:51:57.727903 16445 net.cpp:157] Top shape: 1 512 13 13 (86528)
I0702 13:51:57.727905 16445 net.cpp:165] Memory required for data: 21145444
I0702 13:51:57.727908 16445 layer_factory.hpp:77] Creating layer conv4_2
I0702 13:51:57.727913 16445 net.cpp:100] Creating Layer conv4_2
I0702 13:51:57.727916 16445 net.cpp:434] conv4_2 <- conv4_1
I0702 13:51:57.727919 16445 net.cpp:408] conv4_2 -> conv4_2
I0702 13:51:57.731870 16445 net.cpp:150] Setting up conv4_2
I0702 13:51:57.731901 16445 net.cpp:157] Top shape: 1 512 13 13 (86528)
I0702 13:51:57.731904 16445 net.cpp:165] Memory required for data: 21491556
I0702 13:51:57.731914 16445 layer_factory.hpp:77] Creating layer relu4_2
I0702 13:51:57.731920 16445 net.cpp:100] Creating Layer relu4_2
I0702 13:51:57.731923 16445 net.cpp:434] relu4_2 <- conv4_2
I0702 13:51:57.731928 16445 net.cpp:395] relu4_2 -> conv4_2 (in-place)
I0702 13:51:57.731933 16445 net.cpp:150] Setting up relu4_2
I0702 13:51:57.731936 16445 net.cpp:157] Top shape: 1 512 13 13 (86528)
I0702 13:51:57.731938 16445 net.cpp:165] Memory required for data: 21837668
I0702 13:51:57.731940 16445 layer_factory.hpp:77] Creating layer conv4_3
I0702 13:51:57.731946 16445 net.cpp:100] Creating Layer conv4_3
I0702 13:51:57.731948 16445 net.cpp:434] conv4_3 <- conv4_2
I0702 13:51:57.731951 16445 net.cpp:408] conv4_3 -> conv4_3
I0702 13:51:57.736099 16445 net.cpp:150] Setting up conv4_3
I0702 13:51:57.736115 16445 net.cpp:157] Top shape: 1 512 13 13 (86528)
I0702 13:51:57.736117 16445 net.cpp:165] Memory required for data: 22183780
I0702 13:51:57.736124 16445 layer_factory.hpp:77] Creating layer relu4_3
I0702 13:51:57.736129 16445 net.cpp:100] Creating Layer relu4_3
I0702 13:51:57.736132 16445 net.cpp:434] relu4_3 <- conv4_3
I0702 13:51:57.736137 16445 net.cpp:395] relu4_3 -> conv4_3 (in-place)
I0702 13:51:57.736142 16445 net.cpp:150] Setting up relu4_3
I0702 13:51:57.736145 16445 net.cpp:157] Top shape: 1 512 13 13 (86528)
I0702 13:51:57.736147 16445 net.cpp:165] Memory required for data: 22529892
I0702 13:51:57.736150 16445 layer_factory.hpp:77] Creating layer pool4
I0702 13:51:57.736153 16445 net.cpp:100] Creating Layer pool4
I0702 13:51:57.736155 16445 net.cpp:434] pool4 <- conv4_3
I0702 13:51:57.736160 16445 net.cpp:408] pool4 -> pool4
I0702 13:51:57.736220 16445 net.cpp:150] Setting up pool4
I0702 13:51:57.736230 16445 net.cpp:157] Top shape: 1 512 7 7 (25088)
I0702 13:51:57.736232 16445 net.cpp:165] Memory required for data: 22630244
I0702 13:51:57.736234 16445 layer_factory.hpp:77] Creating layer conv5_1
I0702 13:51:57.736240 16445 net.cpp:100] Creating Layer conv5_1
I0702 13:51:57.736243 16445 net.cpp:434] conv5_1 <- pool4
I0702 13:51:57.736248 16445 net.cpp:408] conv5_1 -> conv5_1
I0702 13:51:57.740159 16445 net.cpp:150] Setting up conv5_1
I0702 13:51:57.740171 16445 net.cpp:157] Top shape: 1 512 7 7 (25088)
I0702 13:51:57.740173 16445 net.cpp:165] Memory required for data: 22730596
I0702 13:51:57.740180 16445 layer_factory.hpp:77] Creating layer relu5_1
I0702 13:51:57.740185 16445 net.cpp:100] Creating Layer relu5_1
I0702 13:51:57.740187 16445 net.cpp:434] relu5_1 <- conv5_1
I0702 13:51:57.740190 16445 net.cpp:395] relu5_1 -> conv5_1 (in-place)
I0702 13:51:57.740195 16445 net.cpp:150] Setting up relu5_1
I0702 13:51:57.740198 16445 net.cpp:157] Top shape: 1 512 7 7 (25088)
I0702 13:51:57.740201 16445 net.cpp:165] Memory required for data: 22830948
I0702 13:51:57.740203 16445 layer_factory.hpp:77] Creating layer conv5_2
I0702 13:51:57.740208 16445 net.cpp:100] Creating Layer conv5_2
I0702 13:51:57.740211 16445 net.cpp:434] conv5_2 <- conv5_1
I0702 13:51:57.740214 16445 net.cpp:408] conv5_2 -> conv5_2
I0702 13:51:57.744043 16445 net.cpp:150] Setting up conv5_2
I0702 13:51:57.744056 16445 net.cpp:157] Top shape: 1 512 7 7 (25088)
I0702 13:51:57.744058 16445 net.cpp:165] Memory required for data: 22931300
I0702 13:51:57.744063 16445 layer_factory.hpp:77] Creating layer relu5_2
I0702 13:51:57.744068 16445 net.cpp:100] Creating Layer relu5_2
I0702 13:51:57.744071 16445 net.cpp:434] relu5_2 <- conv5_2
I0702 13:51:57.744074 16445 net.cpp:395] relu5_2 -> conv5_2 (in-place)
I0702 13:51:57.744079 16445 net.cpp:150] Setting up relu5_2
I0702 13:51:57.744082 16445 net.cpp:157] Top shape: 1 512 7 7 (25088)
I0702 13:51:57.744086 16445 net.cpp:165] Memory required for data: 23031652
I0702 13:51:57.744087 16445 layer_factory.hpp:77] Creating layer conv5_3
I0702 13:51:57.744092 16445 net.cpp:100] Creating Layer conv5_3
I0702 13:51:57.744094 16445 net.cpp:434] conv5_3 <- conv5_2
I0702 13:51:57.744098 16445 net.cpp:408] conv5_3 -> conv5_3
I0702 13:51:57.747905 16445 net.cpp:150] Setting up conv5_3
I0702 13:51:57.747916 16445 net.cpp:157] Top shape: 1 512 7 7 (25088)
I0702 13:51:57.747920 16445 net.cpp:165] Memory required for data: 23132004
I0702 13:51:57.747925 16445 layer_factory.hpp:77] Creating layer relu5_3
I0702 13:51:57.747933 16445 net.cpp:100] Creating Layer relu5_3
I0702 13:51:57.747936 16445 net.cpp:434] relu5_3 <- conv5_3
I0702 13:51:57.747941 16445 net.cpp:395] relu5_3 -> conv5_3 (in-place)
I0702 13:51:57.747944 16445 net.cpp:150] Setting up relu5_3
I0702 13:51:57.747947 16445 net.cpp:157] Top shape: 1 512 7 7 (25088)
I0702 13:51:57.747949 16445 net.cpp:165] Memory required for data: 23232356
I0702 13:51:57.747951 16445 layer_factory.hpp:77] Creating layer conv5_3_relu5_3_0_split
I0702 13:51:57.747954 16445 net.cpp:100] Creating Layer conv5_3_relu5_3_0_split
I0702 13:51:57.747956 16445 net.cpp:434] conv5_3_relu5_3_0_split <- conv5_3
I0702 13:51:57.747961 16445 net.cpp:408] conv5_3_relu5_3_0_split -> conv5_3_relu5_3_0_split_0
I0702 13:51:57.747980 16445 net.cpp:408] conv5_3_relu5_3_0_split -> conv5_3_relu5_3_0_split_1
I0702 13:51:57.748021 16445 net.cpp:150] Setting up conv5_3_relu5_3_0_split
I0702 13:51:57.748025 16445 net.cpp:157] Top shape: 1 512 7 7 (25088)
I0702 13:51:57.748028 16445 net.cpp:157] Top shape: 1 512 7 7 (25088)
I0702 13:51:57.748030 16445 net.cpp:165] Memory required for data: 23433060
I0702 13:51:57.748033 16445 layer_factory.hpp:77] Creating layer roi_pool5
I0702 13:51:57.748037 16445 net.cpp:100] Creating Layer roi_pool5
I0702 13:51:57.748039 16445 net.cpp:434] roi_pool5 <- conv5_3_relu5_3_0_split_0
I0702 13:51:57.748044 16445 net.cpp:434] roi_pool5 <- rois_data_1_split_1
I0702 13:51:57.748047 16445 net.cpp:408] roi_pool5 -> pool5
I0702 13:51:57.748054 16445 roi_pooling_layer.cpp:30] Spatial scale: 0.0625
I0702 13:51:57.748095 16445 net.cpp:150] Setting up roi_pool5
I0702 13:51:57.748100 16445 net.cpp:157] Top shape: 1 512 7 7 (25088)
I0702 13:51:57.748102 16445 net.cpp:165] Memory required for data: 23533412
I0702 13:51:57.748105 16445 layer_factory.hpp:77] Creating layer fc6
I0702 13:51:57.748109 16445 net.cpp:100] Creating Layer fc6
I0702 13:51:57.748111 16445 net.cpp:434] fc6 <- pool5
I0702 13:51:57.748116 16445 net.cpp:408] fc6 -> fc6
I0702 13:51:57.905797 16445 net.cpp:150] Setting up fc6
I0702 13:51:57.905822 16445 net.cpp:157] Top shape: 1 4096 (4096)
I0702 13:51:57.905824 16445 net.cpp:165] Memory required for data: 23549796
I0702 13:51:57.905833 16445 layer_factory.hpp:77] Creating layer relu6
I0702 13:51:57.905840 16445 net.cpp:100] Creating Layer relu6
I0702 13:51:57.905843 16445 net.cpp:434] relu6 <- fc6
I0702 13:51:57.905848 16445 net.cpp:395] relu6 -> fc6 (in-place)
I0702 13:51:57.905858 16445 net.cpp:150] Setting up relu6
I0702 13:51:57.905859 16445 net.cpp:157] Top shape: 1 4096 (4096)
I0702 13:51:57.905861 16445 net.cpp:165] Memory required for data: 23566180
I0702 13:51:57.905864 16445 layer_factory.hpp:77] Creating layer drop6
I0702 13:51:57.905867 16445 net.cpp:100] Creating Layer drop6
I0702 13:51:57.905869 16445 net.cpp:434] drop6 <- fc6
I0702 13:51:57.905872 16445 net.cpp:395] drop6 -> fc6 (in-place)
I0702 13:51:57.905912 16445 net.cpp:150] Setting up drop6
I0702 13:51:57.905915 16445 net.cpp:157] Top shape: 1 4096 (4096)
I0702 13:51:57.905917 16445 net.cpp:165] Memory required for data: 23582564
I0702 13:51:57.905920 16445 layer_factory.hpp:77] Creating layer fc7
I0702 13:51:57.905925 16445 net.cpp:100] Creating Layer fc7
I0702 13:51:57.905926 16445 net.cpp:434] fc7 <- fc6
I0702 13:51:57.905930 16445 net.cpp:408] fc7 -> fc7
I0702 13:51:57.932269 16445 net.cpp:150] Setting up fc7
I0702 13:51:57.932307 16445 net.cpp:157] Top shape: 1 4096 (4096)
I0702 13:51:57.932308 16445 net.cpp:165] Memory required for data: 23598948
I0702 13:51:57.932317 16445 layer_factory.hpp:77] Creating layer relu7
I0702 13:51:57.932325 16445 net.cpp:100] Creating Layer relu7
I0702 13:51:57.932329 16445 net.cpp:434] relu7 <- fc7
I0702 13:51:57.932335 16445 net.cpp:395] relu7 -> fc7 (in-place)
I0702 13:51:57.932343 16445 net.cpp:150] Setting up relu7
I0702 13:51:57.932344 16445 net.cpp:157] Top shape: 1 4096 (4096)
I0702 13:51:57.932346 16445 net.cpp:165] Memory required for data: 23615332
I0702 13:51:57.932348 16445 layer_factory.hpp:77] Creating layer drop7
I0702 13:51:57.932353 16445 net.cpp:100] Creating Layer drop7
I0702 13:51:57.932355 16445 net.cpp:434] drop7 <- fc7
I0702 13:51:57.932358 16445 net.cpp:395] drop7 -> fc7 (in-place)
I0702 13:51:57.932382 16445 net.cpp:150] Setting up drop7
I0702 13:51:57.932386 16445 net.cpp:157] Top shape: 1 4096 (4096)
I0702 13:51:57.932389 16445 net.cpp:165] Memory required for data: 23631716
I0702 13:51:57.932390 16445 layer_factory.hpp:77] Creating layer roi_pool5_context
I0702 13:51:57.932395 16445 net.cpp:100] Creating Layer roi_pool5_context
I0702 13:51:57.932399 16445 net.cpp:434] roi_pool5_context <- conv5_3_relu5_3_0_split_1
I0702 13:51:57.932401 16445 net.cpp:434] roi_pool5_context <- context
I0702 13:51:57.932406 16445 net.cpp:408] roi_pool5_context -> pool5_context
I0702 13:51:57.932415 16445 roi_pooling_layer.cpp:30] Spatial scale: 0.0625
I0702 13:51:57.932467 16445 net.cpp:150] Setting up roi_pool5_context
I0702 13:51:57.932474 16445 net.cpp:157] Top shape: 1 512 7 7 (25088)
I0702 13:51:57.932476 16445 net.cpp:165] Memory required for data: 23732068
I0702 13:51:57.932478 16445 layer_factory.hpp:77] Creating layer fc6_context
I0702 13:51:57.932482 16445 net.cpp:100] Creating Layer fc6_context
I0702 13:51:57.932493 16445 net.cpp:434] fc6_context <- pool5_context
I0702 13:51:57.932497 16445 net.cpp:408] fc6_context -> fc6_context
I0702 13:51:58.090369 16445 net.cpp:150] Setting up fc6_context
I0702 13:51:58.090396 16445 net.cpp:157] Top shape: 1 4096 (4096)
I0702 13:51:58.090399 16445 net.cpp:165] Memory required for data: 23748452
I0702 13:51:58.090406 16445 layer_factory.hpp:77] Creating layer relu6_context
I0702 13:51:58.090415 16445 net.cpp:100] Creating Layer relu6_context
I0702 13:51:58.090418 16445 net.cpp:434] relu6_context <- fc6_context
I0702 13:51:58.090425 16445 net.cpp:395] relu6_context -> fc6_context (in-place)
I0702 13:51:58.090431 16445 net.cpp:150] Setting up relu6_context
I0702 13:51:58.090433 16445 net.cpp:157] Top shape: 1 4096 (4096)
I0702 13:51:58.090435 16445 net.cpp:165] Memory required for data: 23764836
I0702 13:51:58.090437 16445 layer_factory.hpp:77] Creating layer drop6_context
I0702 13:51:58.090441 16445 net.cpp:100] Creating Layer drop6_context
I0702 13:51:58.090443 16445 net.cpp:434] drop6_context <- fc6_context
I0702 13:51:58.090446 16445 net.cpp:395] drop6_context -> fc6_context (in-place)
I0702 13:51:58.090487 16445 net.cpp:150] Setting up drop6_context
I0702 13:51:58.090489 16445 net.cpp:157] Top shape: 1 4096 (4096)
I0702 13:51:58.090492 16445 net.cpp:165] Memory required for data: 23781220
I0702 13:51:58.090493 16445 layer_factory.hpp:77] Creating layer fc7_context
I0702 13:51:58.090498 16445 net.cpp:100] Creating Layer fc7_context
I0702 13:51:58.090500 16445 net.cpp:434] fc7_context <- fc6_context
I0702 13:51:58.090503 16445 net.cpp:408] fc7_context -> fc7_context
I0702 13:51:58.116874 16445 net.cpp:150] Setting up fc7_context
I0702 13:51:58.116912 16445 net.cpp:157] Top shape: 1 4096 (4096)
I0702 13:51:58.116915 16445 net.cpp:165] Memory required for data: 23797604
I0702 13:51:58.116930 16445 layer_factory.hpp:77] Creating layer relu7_context
I0702 13:51:58.116937 16445 net.cpp:100] Creating Layer relu7_context
I0702 13:51:58.116942 16445 net.cpp:434] relu7_context <- fc7_context
I0702 13:51:58.116947 16445 net.cpp:395] relu7_context -> fc7_context (in-place)
I0702 13:51:58.116955 16445 net.cpp:150] Setting up relu7_context
I0702 13:51:58.116956 16445 net.cpp:157] Top shape: 1 4096 (4096)
I0702 13:51:58.116958 16445 net.cpp:165] Memory required for data: 23813988
I0702 13:51:58.116961 16445 layer_factory.hpp:77] Creating layer drop7_context
I0702 13:51:58.116966 16445 net.cpp:100] Creating Layer drop7_context
I0702 13:51:58.116967 16445 net.cpp:434] drop7_context <- fc7_context
I0702 13:51:58.116971 16445 net.cpp:395] drop7_context -> fc7_context (in-place)
I0702 13:51:58.116996 16445 net.cpp:150] Setting up drop7_context
I0702 13:51:58.116998 16445 net.cpp:157] Top shape: 1 4096 (4096)
I0702 13:51:58.117000 16445 net.cpp:165] Memory required for data: 23830372
I0702 13:51:58.117002 16445 layer_factory.hpp:77] Creating layer fc7_output
I0702 13:51:58.117007 16445 net.cpp:100] Creating Layer fc7_output
I0702 13:51:58.117008 16445 net.cpp:434] fc7_output <- fc7
I0702 13:51:58.117012 16445 net.cpp:434] fc7_output <- fc7_context
I0702 13:51:58.117015 16445 net.cpp:408] fc7_output -> fc7_output
I0702 13:51:58.117039 16445 net.cpp:150] Setting up fc7_output
I0702 13:51:58.117044 16445 net.cpp:157] Top shape: 1 8192 (8192)
I0702 13:51:58.117046 16445 net.cpp:165] Memory required for data: 23863140
I0702 13:51:58.117048 16445 layer_factory.hpp:77] Creating layer fc7_output_fc7_output_0_split
I0702 13:51:58.117053 16445 net.cpp:100] Creating Layer fc7_output_fc7_output_0_split
I0702 13:51:58.117055 16445 net.cpp:434] fc7_output_fc7_output_0_split <- fc7_output
I0702 13:51:58.117060 16445 net.cpp:408] fc7_output_fc7_output_0_split -> fc7_output_fc7_output_0_split_0
I0702 13:51:58.117064 16445 net.cpp:408] fc7_output_fc7_output_0_split -> fc7_output_fc7_output_0_split_1
I0702 13:51:58.117069 16445 net.cpp:408] fc7_output_fc7_output_0_split -> fc7_output_fc7_output_0_split_2
I0702 13:51:58.117116 16445 net.cpp:150] Setting up fc7_output_fc7_output_0_split
I0702 13:51:58.117121 16445 net.cpp:157] Top shape: 1 8192 (8192)
I0702 13:51:58.117123 16445 net.cpp:157] Top shape: 1 8192 (8192)
I0702 13:51:58.117125 16445 net.cpp:157] Top shape: 1 8192 (8192)
I0702 13:51:58.117127 16445 net.cpp:165] Memory required for data: 23961444
I0702 13:51:58.117130 16445 layer_factory.hpp:77] Creating layer cls_score
I0702 13:51:58.117135 16445 net.cpp:100] Creating Layer cls_score
I0702 13:51:58.117137 16445 net.cpp:434] cls_score <- fc7_output_fc7_output_0_split_0
I0702 13:51:58.117141 16445 net.cpp:408] cls_score -> cls_score
I0702 13:51:58.117390 16445 net.cpp:150] Setting up cls_score
I0702 13:51:58.117396 16445 net.cpp:157] Top shape: 1 2 (2)
I0702 13:51:58.117398 16445 net.cpp:165] Memory required for data: 23961452
I0702 13:51:58.117401 16445 layer_factory.hpp:77] Creating layer bbox_pred
I0702 13:51:58.117406 16445 net.cpp:100] Creating Layer bbox_pred
I0702 13:51:58.117408 16445 net.cpp:434] bbox_pred <- fc7_output_fc7_output_0_split_1
I0702 13:51:58.117413 16445 net.cpp:408] bbox_pred -> bbox_pred
I0702 13:51:58.118032 16445 net.cpp:150] Setting up bbox_pred
I0702 13:51:58.118038 16445 net.cpp:157] Top shape: 1 8 (8)
I0702 13:51:58.118041 16445 net.cpp:165] Memory required for data: 23961484
I0702 13:51:58.118043 16445 layer_factory.hpp:77] Creating layer ort_pred
I0702 13:51:58.118047 16445 net.cpp:100] Creating Layer ort_pred
I0702 13:51:58.118049 16445 net.cpp:434] ort_pred <- fc7_output_fc7_output_0_split_2
I0702 13:51:58.118069 16445 net.cpp:408] ort_pred -> ort_pred
I0702 13:51:58.118306 16445 net.cpp:150] Setting up ort_pred
I0702 13:51:58.118311 16445 net.cpp:157] Top shape: 1 2 (2)
I0702 13:51:58.118314 16445 net.cpp:165] Memory required for data: 23961492
I0702 13:51:58.118316 16445 layer_factory.hpp:77] Creating layer loss_cls
I0702 13:51:58.118321 16445 net.cpp:100] Creating Layer loss_cls
I0702 13:51:58.118324 16445 net.cpp:434] loss_cls <- cls_score
I0702 13:51:58.118327 16445 net.cpp:434] loss_cls <- labels
I0702 13:51:58.118330 16445 net.cpp:408] loss_cls -> loss_cls
…
