…
I0628 20:36:40.033124 28438 solver.cpp:81] Creating training net from train_net file: kitti/models/kitti_car/VGG16/train.prototxt
I0628 20:36:40.033604 28438 net.cpp:58] Initializing net from parameters: 
name: "VGG_ILSVRC_16_layers"
state {
  phase: TRAIN
}
layer {
  name: "data"
  type: "Python"
  top: "data"
  top: "rois"
  top: "labels"
  top: "bbox_targets"
  top: "bbox_loss_weights"
  top: "ort_targets"
  top: "ort_loss_weights"
  python_param {
    module: "roi_data_layer.layer"
    layer: "RoIDataLayer"
    param_str: "\'num_classes\': 2"
  }
}
layer {
  name: "multi_rois"
  type: "Python"
  bottom: "rois"
  top: "context"
  python_param {
    module: "roi_data_layer.layer"
    layer: "MultiRoIDataLayer"
    param_str: "\'context\': 1.5"
  }
}
layer {
  name: "conv1_1"
  type: "Convolution"
  bottom: "data"
  top: "conv1_1"
  param {
    lr_mult: 0
    decay_mult: 0
  }
  param {
    lr_mult: 0
    decay_mult: 0
  }
  convolution_param {
    num_output: 64
    pad: 1
    kernel_size: 3
  }
}
layer {
  name: "relu1_1"
  type: "ReLU"
  bottom: "conv1_1"
  top: "conv1_1"
}
layer {
  name: "conv1_2"
  type: "Convolution"
  bottom: "conv1_1"
  top: "conv1_2"
  param {
    lr_mult: 0
    decay_mult: 0
  }
  param {
    lr_mult: 0
    decay_mult: 0
  }
  convolution_param {
    num_output: 64
    pad: 1
    kernel_size: 3
  }
}
layer {
  name: "relu1_2"
  type: "ReLU"
  bottom: "conv1_2"
  top: "conv1_2"
}
layer {
  name: "pool1"
  type: "Pooling"
  bottom: "conv1_2"
  top: "pool1"
  pooling_param {
    pool: MAX
    kernel_size: 2
    stride: 2
  }
}
layer {
  name: "conv2_1"
  type: "Convolution"
  bottom: "pool1"
  top: "conv2_1"
  param {
    lr_mult: 0
    decay_mult: 0
  }
  param {
    lr_mult: 0
    decay_mult: 0
  }
  convolution_param {
    num_output: 128
    pad: 1
    kernel_size: 3
  }
}
layer {
  name: "relu2_1"
  type: "ReLU"
  bottom: "conv2_1"
  top: "conv2_1"
}
layer {
  name: "conv2_2"
  type: "Convolution"
  bottom: "conv2_1"
  top: "conv2_2"
  param {
    lr_mult: 0
    decay_mult: 0
  }
  param {
    lr_mult: 0
    decay_mult: 0
  }
  convolution_param {
    num_output: 128
    pad: 1
    kernel_size: 3
  }
}
layer {
  name: "relu2_2"
  type: "ReLU"
  bottom: "conv2_2"
  top: "conv2_2"
}
layer {
  name: "pool2"
  type: "Pooling"
  bottom: "conv2_2"
  top: "pool2"
  pooling_param {
    pool: MAX
    kernel_size: 2
    stride: 2
  }
}
layer {
  name: "conv3_1"
  type: "Convolution"
  bottom: "pool2"
  top: "conv3_1"
  param {
    lr_mult: 1
    decay_mult: 1
  }
  param {
    lr_mult: 2
    decay_mult: 0
  }
  convolution_param {
    num_output: 256
    pad: 1
    kernel_size: 3
  }
}
layer {
  name: "relu3_1"
  type: "ReLU"
  bottom: "conv3_1"
  top: "conv3_1"
}
layer {
  name: "conv3_2"
  type: "Convolution"
  bottom: "conv3_1"
  top: "conv3_2"
  param {
    lr_mult: 1
    decay_mult: 1
  }
  param {
    lr_mult: 2
    decay_mult: 0
  }
  convolution_param {
    num_output: 256
    pad: 1
    kernel_size: 3
  }
}
layer {
  name: "relu3_2"
  type: "ReLU"
  bottom: "conv3_2"
  top: "conv3_2"
}
layer {
  name: "conv3_3"
  type: "Convolution"
  bottom: "conv3_2"
  top: "conv3_3"
  param {
    lr_mult: 1
    decay_mult: 1
  }
  param {
    lr_mult: 2
    decay_mult: 0
  }
  convolution_param {
    num_output: 256
    pad: 1
    kernel_size: 3
  }
}
layer {
  name: "relu3_3"
  type: "ReLU"
  bottom: "conv3_3"
  top: "conv3_3"
}
layer {
  name: "pool3"
  type: "Pooling"
  bottom: "conv3_3"
  top: "pool3"
  pooling_param {
    pool: MAX
    kernel_size: 2
    stride: 2
  }
}
layer {
  name: "conv4_1"
  type: "Convolution"
  bottom: "pool3"
  top: "conv4_1"
  param {
    lr_mult: 1
    decay_mult: 1
  }
  param {
    lr_mult: 2
    decay_mult: 0
  }
  convolution_param {
    num_output: 512
    pad: 1
    kernel_size: 3
  }
}
layer {
  name: "relu4_1"
  type: "ReLU"
  bottom: "conv4_1"
  top: "conv4_1"
}
layer {
  name: "conv4_2"
  type: "Convolution"
  bottom: "conv4_1"
  top: "conv4_2"
  param {
    lr_mult: 1
    decay_mult: 1
  }
  param {
    lr_mult: 2
    decay_mult: 0
  }
  convolution_param {
    num_output: 512
    pad: 1
    kernel_size: 3
  }
}
layer {
  name: "relu4_2"
  type: "ReLU"
  bottom: "conv4_2"
  top: "conv4_2"
}
layer {
  name: "conv4_3"
  type: "Convolution"
  bottom: "conv4_2"
  top: "conv4_3"
  param {
    lr_mult: 1
    decay_mult: 1
  }
  param {
    lr_mult: 2
    decay_mult: 0
  }
  convolution_param {
    num_output: 512
    pad: 1
    kernel_size: 3
  }
}
layer {
  name: "relu4_3"
  type: "ReLU"
  bottom: "conv4_3"
  top: "conv4_3"
}
layer {
  name: "pool4"
  type: "Pooling"
  bottom: "conv4_3"
  top: "pool4"
  pooling_param {
    pool: MAX
    kernel_size: 2
    stride: 2
  }
}
layer {
  name: "conv5_1"
  type: "Convolution"
  bottom: "pool4"
  top: "conv5_1"
  param {
    lr_mult: 1
    decay_mult: 1
  }
  param {
    lr_mult: 2
    decay_mult: 0
  }
  convolution_param {
    num_output: 512
    pad: 1
    kernel_size: 3
  }
}
layer {
  name: "relu5_1"
  type: "ReLU"
  bottom: "conv5_1"
  top: "conv5_1"
}
layer {
  name: "conv5_2"
  type: "Convolution"
  bottom: "conv5_1"
  top: "conv5_2"
  param {
    lr_mult: 1
    decay_mult: 1
  }
  param {
    lr_mult: 2
    decay_mult: 0
  }
  convolution_param {
    num_output: 512
    pad: 1
    kernel_size: 3
  }
}
layer {
  name: "relu5_2"
  type: "ReLU"
  bottom: "conv5_2"
  top: "conv5_2"
}
layer {
  name: "conv5_3"
  type: "Convolution"
  bottom: "conv5_2"
  top: "conv5_3"
  param {
    lr_mult: 1
    decay_mult: 1
  }
  param {
    lr_mult: 2
    decay_mult: 0
  }
  convolution_param {
    num_output: 512
    pad: 1
    kernel_size: 3
  }
}
layer {
  name: "relu5_3"
  type: "ReLU"
  bottom: "conv5_3"
  top: "conv5_3"
}
layer {
  name: "roi_pool5"
  type: "ROIPooling"
  bottom: "conv5_3"
  bottom: "rois"
  top: "pool5"
  roi_pooling_param {
    pooled_h: 7
    pooled_w: 7
    spatial_scale: 0.0625
  }
}
layer {
  name: "fc6"
  type: "InnerProduct"
  bottom: "pool5"
  top: "fc6"
  param {
    lr_mult: 1
    decay_mult: 1
  }
  param {
    lr_mult: 2
    decay_mult: 0
  }
  inner_product_param {
    num_output: 4096
  }
}
layer {
  name: "relu6"
  type: "ReLU"
  bottom: "fc6"
  top: "fc6"
}
layer {
  name: "drop6"
  type: "Dropout"
  bottom: "fc6"
  top: "fc6"
  dropout_param {
    dropout_ratio: 0.5
  }
}
layer {
  name: "fc7"
  type: "InnerProduct"
  bottom: "fc6"
  top: "fc7"
  param {
    lr_mult: 1
    decay_mult: 1
  }
  param {
    lr_mult: 2
    decay_mult: 0
  }
  inner_product_param {
    num_output: 4096
  }
}
layer {
  name: "relu7"
  type: "ReLU"
  bottom: "fc7"
  top: "fc7"
}
layer {
  name: "drop7"
  type: "Dropout"
  bottom: "fc7"
  top: "fc7"
  dropout_param {
    dropout_ratio: 0.5
  }
}
layer {
  name: "roi_pool5_context"
  type: "ROIPooling"
  bottom: "conv5_3"
  bottom: "context"
  top: "pool5_context"
  roi_pooling_param {
    pooled_h: 7
    pooled_w: 7
    spatial_scale: 0.0625
  }
}
layer {
  name: "fc6_context"
  type: "InnerProduct"
  bottom: "pool5_context"
  top: "fc6_context"
  param {
    lr_mult: 1
    decay_mult: 1
  }
  param {
    lr_mult: 2
    decay_mult: 0
  }
  inner_product_param {
    num_output: 4096
  }
}
layer {
  name: "relu6_context"
  type: "ReLU"
  bottom: "fc6_context"
  top: "fc6_context"
}
layer {
  name: "drop6_context"
  type: "Dropout"
  bottom: "fc6_context"
  top: "fc6_context"
  dropout_param {
    dropout_ratio: 0.5
  }
}
layer {
  name: "fc7_context"
  type: "InnerProduct"
  bottom: "fc6_context"
  top: "fc7_context"
  param {
    lr_mult: 1
    decay_mult: 1
  }
  param {
    lr_mult: 2
    decay_mult: 0
  }
  inner_product_param {
    num_output: 4096
  }
}
layer {
  name: "relu7_context"
  type: "ReLU"
  bottom: "fc7_context"
  top: "fc7_context"
}
layer {
  name: "drop7_context"
  type: "Dropout"
  bottom: "fc7_context"
  top: "fc7_context"
  dropout_param {
    dropout_ratio: 0.5
  }
}
layer {
  name: "fc7_output"
  type: "Concat"
  bottom: "fc7"
  bottom: "fc7_context"
  top: "fc7_output"
}
layer {
  name: "cls_score"
  type: "InnerProduct"
  bottom: "fc7_output"
  top: "cls_score"
  param {
    lr_mult: 1
    decay_mult: 1
  }
  param {
    lr_mult: 2
    decay_mult: 0
  }
  inner_product_param {
    num_output: 2
    weight_filler {
      type: "gaussian"
      std: 0.01
    }
    bias_filler {
      type: "constant"
      value: 0
    }
  }
}
layer {
  name: "bbox_pred"
  type: "InnerProduct"
  bottom: "fc7_output"
  top: "bbox_pred"
  param {
    lr_mult: 1
    decay_mult: 1
  }
  param {
    lr_mult: 2
    decay_mult: 0
  }
  inner_product_param {
    num_output: 8
    weight_filler {
      type: "gaussian"
      std: 0.001
    }
    bias_filler {
      type: "constant"
      value: 0
    }
  }
}
layer {
  name: "ort_pred"
  type: "InnerProduct"
  bottom: "fc7_output"
  top: "ort_pred"
  param {
    lr_mult: 1
    decay_mult: 1
  }
  param {
    lr_mult: 2
    decay_mult: 0
  }
  inner_product_param {
    num_output: 2
    weight_filler {
      type: "gaussian"
      std: 0.001
    }
    bias_filler {
      type: "constant"
      value: 0
    }
  }
}
layer {
  name: "loss_cls"
  type: "SoftmaxWithLoss"
  bottom: "cls_score"
  bottom: "labels"
  top: "loss_cls"
  loss_weight: 1
}
layer {
  name: "loss_bbox"
  type: "SmoothL1Loss"
  bottom: "bbox_pred"
  bottom: "bbox_targets"
  bottom: "bbox_loss_weights"
  top: "loss_bbox"
  loss_weight: 1
}
layer {
  name: "loss_ort"
  type: "SmoothL1Loss"
  bottom: "ort_pred"
  bottom: "ort_targets"
  bottom: "ort_loss_weights"
  top: "loss_ort"
  loss_weight: 1
}
I0628 20:36:40.033771 28438 layer_factory.hpp:77] Creating layer data
I0628 20:36:40.034160 28438 net.cpp:100] Creating Layer data
I0628 20:36:40.034170 28438 net.cpp:408] data -> data
I0628 20:36:40.034178 28438 net.cpp:408] data -> rois
I0628 20:36:40.034183 28438 net.cpp:408] data -> labels
I0628 20:36:40.034188 28438 net.cpp:408] data -> bbox_targets
I0628 20:36:40.034193 28438 net.cpp:408] data -> bbox_loss_weights
I0628 20:36:40.034196 28438 net.cpp:408] data -> ort_targets
I0628 20:36:40.034201 28438 net.cpp:408] data -> ort_loss_weights
I0628 20:36:40.050031 28438 net.cpp:150] Setting up data
I0628 20:36:40.050065 28438 net.cpp:157] Top shape: 1 3 100 100 (30000)
I0628 20:36:40.050068 28438 net.cpp:157] Top shape: 1 5 (5)
I0628 20:36:40.050071 28438 net.cpp:157] Top shape: 1 (1)
I0628 20:36:40.050072 28438 net.cpp:157] Top shape: 1 8 (8)
I0628 20:36:40.050076 28438 net.cpp:157] Top shape: 1 8 (8)
I0628 20:36:40.050077 28438 net.cpp:157] Top shape: 1 2 (2)
I0628 20:36:40.050081 28438 net.cpp:157] Top shape: 1 2 (2)
I0628 20:36:40.050081 28438 net.cpp:165] Memory required for data: 120104
I0628 20:36:40.050086 28438 layer_factory.hpp:77] Creating layer rois_data_1_split
I0628 20:36:40.050096 28438 net.cpp:100] Creating Layer rois_data_1_split
I0628 20:36:40.050099 28438 net.cpp:434] rois_data_1_split <- rois
I0628 20:36:40.050104 28438 net.cpp:408] rois_data_1_split -> rois_data_1_split_0
I0628 20:36:40.050112 28438 net.cpp:408] rois_data_1_split -> rois_data_1_split_1
I0628 20:36:40.050137 28438 net.cpp:150] Setting up rois_data_1_split
I0628 20:36:40.050142 28438 net.cpp:157] Top shape: 1 5 (5)
I0628 20:36:40.050144 28438 net.cpp:157] Top shape: 1 5 (5)
I0628 20:36:40.050146 28438 net.cpp:165] Memory required for data: 120144
I0628 20:36:40.050148 28438 layer_factory.hpp:77] Creating layer multi_rois
I0628 20:36:40.050176 28438 net.cpp:100] Creating Layer multi_rois
I0628 20:36:40.050180 28438 net.cpp:434] multi_rois <- rois_data_1_split_0
I0628 20:36:40.050185 28438 net.cpp:408] multi_rois -> context
'context': 1.5
I0628 20:36:40.050554 28438 net.cpp:150] Setting up multi_rois
I0628 20:36:40.050562 28438 net.cpp:157] Top shape: 1 5 (5)
I0628 20:36:40.050565 28438 net.cpp:165] Memory required for data: 120164
I0628 20:36:40.050567 28438 layer_factory.hpp:77] Creating layer conv1_1
I0628 20:36:40.050575 28438 net.cpp:100] Creating Layer conv1_1
I0628 20:36:40.050577 28438 net.cpp:434] conv1_1 <- data
I0628 20:36:40.050581 28438 net.cpp:408] conv1_1 -> conv1_1
I0628 20:36:40.052264 28438 net.cpp:150] Setting up conv1_1
I0628 20:36:40.052290 28438 net.cpp:157] Top shape: 1 64 100 100 (640000)
I0628 20:36:40.052292 28438 net.cpp:165] Memory required for data: 2680164
I0628 20:36:40.052315 28438 layer_factory.hpp:77] Creating layer relu1_1
I0628 20:36:40.052322 28438 net.cpp:100] Creating Layer relu1_1
I0628 20:36:40.052326 28438 net.cpp:434] relu1_1 <- conv1_1
I0628 20:36:40.052330 28438 net.cpp:395] relu1_1 -> conv1_1 (in-place)
I0628 20:36:40.052336 28438 net.cpp:150] Setting up relu1_1
I0628 20:36:40.052340 28438 net.cpp:157] Top shape: 1 64 100 100 (640000)
I0628 20:36:40.052342 28438 net.cpp:165] Memory required for data: 5240164
I0628 20:36:40.052345 28438 layer_factory.hpp:77] Creating layer conv1_2
I0628 20:36:40.052350 28438 net.cpp:100] Creating Layer conv1_2
I0628 20:36:40.052352 28438 net.cpp:434] conv1_2 <- conv1_1
I0628 20:36:40.052356 28438 net.cpp:408] conv1_2 -> conv1_2
I0628 20:36:40.053247 28438 net.cpp:150] Setting up conv1_2
I0628 20:36:40.053272 28438 net.cpp:157] Top shape: 1 64 100 100 (640000)
I0628 20:36:40.053275 28438 net.cpp:165] Memory required for data: 7800164
I0628 20:36:40.053282 28438 layer_factory.hpp:77] Creating layer relu1_2
I0628 20:36:40.053287 28438 net.cpp:100] Creating Layer relu1_2
I0628 20:36:40.053288 28438 net.cpp:434] relu1_2 <- conv1_2
I0628 20:36:40.053292 28438 net.cpp:395] relu1_2 -> conv1_2 (in-place)
I0628 20:36:40.053297 28438 net.cpp:150] Setting up relu1_2
I0628 20:36:40.053299 28438 net.cpp:157] Top shape: 1 64 100 100 (640000)
I0628 20:36:40.053302 28438 net.cpp:165] Memory required for data: 10360164
I0628 20:36:40.053303 28438 layer_factory.hpp:77] Creating layer pool1
I0628 20:36:40.053308 28438 net.cpp:100] Creating Layer pool1
I0628 20:36:40.053309 28438 net.cpp:434] pool1 <- conv1_2
I0628 20:36:40.053313 28438 net.cpp:408] pool1 -> pool1
I0628 20:36:40.053339 28438 net.cpp:150] Setting up pool1
I0628 20:36:40.053344 28438 net.cpp:157] Top shape: 1 64 50 50 (160000)
I0628 20:36:40.053345 28438 net.cpp:165] Memory required for data: 11000164
I0628 20:36:40.053347 28438 layer_factory.hpp:77] Creating layer conv2_1
I0628 20:36:40.053354 28438 net.cpp:100] Creating Layer conv2_1
I0628 20:36:40.053355 28438 net.cpp:434] conv2_1 <- pool1
I0628 20:36:40.053359 28438 net.cpp:408] conv2_1 -> conv2_1
I0628 20:36:40.054250 28438 net.cpp:150] Setting up conv2_1
I0628 20:36:40.054260 28438 net.cpp:157] Top shape: 1 128 50 50 (320000)
I0628 20:36:40.054277 28438 net.cpp:165] Memory required for data: 12280164
I0628 20:36:40.054283 28438 layer_factory.hpp:77] Creating layer relu2_1
I0628 20:36:40.054287 28438 net.cpp:100] Creating Layer relu2_1
I0628 20:36:40.054291 28438 net.cpp:434] relu2_1 <- conv2_1
I0628 20:36:40.054294 28438 net.cpp:395] relu2_1 -> conv2_1 (in-place)
I0628 20:36:40.054298 28438 net.cpp:150] Setting up relu2_1
I0628 20:36:40.054301 28438 net.cpp:157] Top shape: 1 128 50 50 (320000)
I0628 20:36:40.054303 28438 net.cpp:165] Memory required for data: 13560164
I0628 20:36:40.054306 28438 layer_factory.hpp:77] Creating layer conv2_2
I0628 20:36:40.054311 28438 net.cpp:100] Creating Layer conv2_2
I0628 20:36:40.054312 28438 net.cpp:434] conv2_2 <- conv2_1
I0628 20:36:40.054316 28438 net.cpp:408] conv2_2 -> conv2_2
I0628 20:36:40.054543 28438 net.cpp:150] Setting up conv2_2
I0628 20:36:40.054548 28438 net.cpp:157] Top shape: 1 128 50 50 (320000)
I0628 20:36:40.054551 28438 net.cpp:165] Memory required for data: 14840164
I0628 20:36:40.054555 28438 layer_factory.hpp:77] Creating layer relu2_2
I0628 20:36:40.054559 28438 net.cpp:100] Creating Layer relu2_2
I0628 20:36:40.054561 28438 net.cpp:434] relu2_2 <- conv2_2
I0628 20:36:40.054564 28438 net.cpp:395] relu2_2 -> conv2_2 (in-place)
I0628 20:36:40.054569 28438 net.cpp:150] Setting up relu2_2
I0628 20:36:40.054571 28438 net.cpp:157] Top shape: 1 128 50 50 (320000)
I0628 20:36:40.054572 28438 net.cpp:165] Memory required for data: 16120164
I0628 20:36:40.054574 28438 layer_factory.hpp:77] Creating layer pool2
I0628 20:36:40.054579 28438 net.cpp:100] Creating Layer pool2
I0628 20:36:40.054580 28438 net.cpp:434] pool2 <- conv2_2
I0628 20:36:40.054584 28438 net.cpp:408] pool2 -> pool2
I0628 20:36:40.054606 28438 net.cpp:150] Setting up pool2
I0628 20:36:40.054610 28438 net.cpp:157] Top shape: 1 128 25 25 (80000)
I0628 20:36:40.054613 28438 net.cpp:165] Memory required for data: 16440164
I0628 20:36:40.054615 28438 layer_factory.hpp:77] Creating layer conv3_1
I0628 20:36:40.054620 28438 net.cpp:100] Creating Layer conv3_1
I0628 20:36:40.054622 28438 net.cpp:434] conv3_1 <- pool2
I0628 20:36:40.054625 28438 net.cpp:408] conv3_1 -> conv3_1
I0628 20:36:40.055644 28438 net.cpp:150] Setting up conv3_1
I0628 20:36:40.055655 28438 net.cpp:157] Top shape: 1 256 25 25 (160000)
I0628 20:36:40.055657 28438 net.cpp:165] Memory required for data: 17080164
I0628 20:36:40.055663 28438 layer_factory.hpp:77] Creating layer relu3_1
I0628 20:36:40.055668 28438 net.cpp:100] Creating Layer relu3_1
I0628 20:36:40.055670 28438 net.cpp:434] relu3_1 <- conv3_1
I0628 20:36:40.055675 28438 net.cpp:395] relu3_1 -> conv3_1 (in-place)
I0628 20:36:40.055680 28438 net.cpp:150] Setting up relu3_1
I0628 20:36:40.055682 28438 net.cpp:157] Top shape: 1 256 25 25 (160000)
I0628 20:36:40.055683 28438 net.cpp:165] Memory required for data: 17720164
I0628 20:36:40.055686 28438 layer_factory.hpp:77] Creating layer conv3_2
I0628 20:36:40.055691 28438 net.cpp:100] Creating Layer conv3_2
I0628 20:36:40.055693 28438 net.cpp:434] conv3_2 <- conv3_1
I0628 20:36:40.055696 28438 net.cpp:408] conv3_2 -> conv3_2
I0628 20:36:40.056937 28438 net.cpp:150] Setting up conv3_2
I0628 20:36:40.056948 28438 net.cpp:157] Top shape: 1 256 25 25 (160000)
I0628 20:36:40.056951 28438 net.cpp:165] Memory required for data: 18360164
I0628 20:36:40.056954 28438 layer_factory.hpp:77] Creating layer relu3_2
I0628 20:36:40.056962 28438 net.cpp:100] Creating Layer relu3_2
I0628 20:36:40.056963 28438 net.cpp:434] relu3_2 <- conv3_2
I0628 20:36:40.056967 28438 net.cpp:395] relu3_2 -> conv3_2 (in-place)
I0628 20:36:40.056972 28438 net.cpp:150] Setting up relu3_2
I0628 20:36:40.056975 28438 net.cpp:157] Top shape: 1 256 25 25 (160000)
I0628 20:36:40.056977 28438 net.cpp:165] Memory required for data: 19000164
I0628 20:36:40.056979 28438 layer_factory.hpp:77] Creating layer conv3_3
I0628 20:36:40.056983 28438 net.cpp:100] Creating Layer conv3_3
I0628 20:36:40.056987 28438 net.cpp:434] conv3_3 <- conv3_2
I0628 20:36:40.056990 28438 net.cpp:408] conv3_3 -> conv3_3
I0628 20:36:40.058166 28438 net.cpp:150] Setting up conv3_3
I0628 20:36:40.058176 28438 net.cpp:157] Top shape: 1 256 25 25 (160000)
I0628 20:36:40.058190 28438 net.cpp:165] Memory required for data: 19640164
I0628 20:36:40.058194 28438 layer_factory.hpp:77] Creating layer relu3_3
I0628 20:36:40.058198 28438 net.cpp:100] Creating Layer relu3_3
I0628 20:36:40.058202 28438 net.cpp:434] relu3_3 <- conv3_3
I0628 20:36:40.058205 28438 net.cpp:395] relu3_3 -> conv3_3 (in-place)
I0628 20:36:40.058209 28438 net.cpp:150] Setting up relu3_3
I0628 20:36:40.058212 28438 net.cpp:157] Top shape: 1 256 25 25 (160000)
I0628 20:36:40.058214 28438 net.cpp:165] Memory required for data: 20280164
I0628 20:36:40.058217 28438 layer_factory.hpp:77] Creating layer pool3
I0628 20:36:40.058220 28438 net.cpp:100] Creating Layer pool3
I0628 20:36:40.058223 28438 net.cpp:434] pool3 <- conv3_3
I0628 20:36:40.058226 28438 net.cpp:408] pool3 -> pool3
I0628 20:36:40.058251 28438 net.cpp:150] Setting up pool3
I0628 20:36:40.058255 28438 net.cpp:157] Top shape: 1 256 13 13 (43264)
I0628 20:36:40.058257 28438 net.cpp:165] Memory required for data: 20453220
I0628 20:36:40.058259 28438 layer_factory.hpp:77] Creating layer conv4_1
I0628 20:36:40.058264 28438 net.cpp:100] Creating Layer conv4_1
I0628 20:36:40.058266 28438 net.cpp:434] conv4_1 <- pool3
I0628 20:36:40.058270 28438 net.cpp:408] conv4_1 -> conv4_1
I0628 20:36:40.060489 28438 net.cpp:150] Setting up conv4_1
I0628 20:36:40.060503 28438 net.cpp:157] Top shape: 1 512 13 13 (86528)
I0628 20:36:40.060506 28438 net.cpp:165] Memory required for data: 20799332
I0628 20:36:40.060510 28438 layer_factory.hpp:77] Creating layer relu4_1
I0628 20:36:40.060515 28438 net.cpp:100] Creating Layer relu4_1
I0628 20:36:40.060518 28438 net.cpp:434] relu4_1 <- conv4_1
I0628 20:36:40.060523 28438 net.cpp:395] relu4_1 -> conv4_1 (in-place)
I0628 20:36:40.060528 28438 net.cpp:150] Setting up relu4_1
I0628 20:36:40.060530 28438 net.cpp:157] Top shape: 1 512 13 13 (86528)
I0628 20:36:40.060533 28438 net.cpp:165] Memory required for data: 21145444
I0628 20:36:40.060534 28438 layer_factory.hpp:77] Creating layer conv4_2
I0628 20:36:40.060540 28438 net.cpp:100] Creating Layer conv4_2
I0628 20:36:40.060542 28438 net.cpp:434] conv4_2 <- conv4_1
I0628 20:36:40.060546 28438 net.cpp:408] conv4_2 -> conv4_2
I0628 20:36:40.064698 28438 net.cpp:150] Setting up conv4_2
I0628 20:36:40.064714 28438 net.cpp:157] Top shape: 1 512 13 13 (86528)
I0628 20:36:40.064716 28438 net.cpp:165] Memory required for data: 21491556
I0628 20:36:40.064723 28438 layer_factory.hpp:77] Creating layer relu4_2
I0628 20:36:40.064729 28438 net.cpp:100] Creating Layer relu4_2
I0628 20:36:40.064731 28438 net.cpp:434] relu4_2 <- conv4_2
I0628 20:36:40.064735 28438 net.cpp:395] relu4_2 -> conv4_2 (in-place)
I0628 20:36:40.064740 28438 net.cpp:150] Setting up relu4_2
I0628 20:36:40.064744 28438 net.cpp:157] Top shape: 1 512 13 13 (86528)
I0628 20:36:40.064746 28438 net.cpp:165] Memory required for data: 21837668
I0628 20:36:40.064749 28438 layer_factory.hpp:77] Creating layer conv4_3
I0628 20:36:40.064754 28438 net.cpp:100] Creating Layer conv4_3
I0628 20:36:40.064755 28438 net.cpp:434] conv4_3 <- conv4_2
I0628 20:36:40.064759 28438 net.cpp:408] conv4_3 -> conv4_3
I0628 20:36:40.068397 28438 net.cpp:150] Setting up conv4_3
I0628 20:36:40.068414 28438 net.cpp:157] Top shape: 1 512 13 13 (86528)
I0628 20:36:40.068418 28438 net.cpp:165] Memory required for data: 22183780
I0628 20:36:40.068423 28438 layer_factory.hpp:77] Creating layer relu4_3
I0628 20:36:40.068429 28438 net.cpp:100] Creating Layer relu4_3
I0628 20:36:40.068433 28438 net.cpp:434] relu4_3 <- conv4_3
I0628 20:36:40.068437 28438 net.cpp:395] relu4_3 -> conv4_3 (in-place)
I0628 20:36:40.068442 28438 net.cpp:150] Setting up relu4_3
I0628 20:36:40.068445 28438 net.cpp:157] Top shape: 1 512 13 13 (86528)
I0628 20:36:40.068447 28438 net.cpp:165] Memory required for data: 22529892
I0628 20:36:40.068449 28438 layer_factory.hpp:77] Creating layer pool4
I0628 20:36:40.068452 28438 net.cpp:100] Creating Layer pool4
I0628 20:36:40.068454 28438 net.cpp:434] pool4 <- conv4_3
I0628 20:36:40.068459 28438 net.cpp:408] pool4 -> pool4
I0628 20:36:40.068502 28438 net.cpp:150] Setting up pool4
I0628 20:36:40.068506 28438 net.cpp:157] Top shape: 1 512 7 7 (25088)
I0628 20:36:40.068507 28438 net.cpp:165] Memory required for data: 22630244
I0628 20:36:40.068509 28438 layer_factory.hpp:77] Creating layer conv5_1
I0628 20:36:40.068516 28438 net.cpp:100] Creating Layer conv5_1
I0628 20:36:40.068517 28438 net.cpp:434] conv5_1 <- pool4
I0628 20:36:40.068521 28438 net.cpp:408] conv5_1 -> conv5_1
I0628 20:36:40.072428 28438 net.cpp:150] Setting up conv5_1
I0628 20:36:40.072448 28438 net.cpp:157] Top shape: 1 512 7 7 (25088)
I0628 20:36:40.072450 28438 net.cpp:165] Memory required for data: 22730596
I0628 20:36:40.072455 28438 layer_factory.hpp:77] Creating layer relu5_1
I0628 20:36:40.072461 28438 net.cpp:100] Creating Layer relu5_1
I0628 20:36:40.072464 28438 net.cpp:434] relu5_1 <- conv5_1
I0628 20:36:40.072468 28438 net.cpp:395] relu5_1 -> conv5_1 (in-place)
I0628 20:36:40.072474 28438 net.cpp:150] Setting up relu5_1
I0628 20:36:40.072477 28438 net.cpp:157] Top shape: 1 512 7 7 (25088)
I0628 20:36:40.072479 28438 net.cpp:165] Memory required for data: 22830948
I0628 20:36:40.072480 28438 layer_factory.hpp:77] Creating layer conv5_2
I0628 20:36:40.072486 28438 net.cpp:100] Creating Layer conv5_2
I0628 20:36:40.072489 28438 net.cpp:434] conv5_2 <- conv5_1
I0628 20:36:40.072491 28438 net.cpp:408] conv5_2 -> conv5_2
I0628 20:36:40.076455 28438 net.cpp:150] Setting up conv5_2
I0628 20:36:40.076472 28438 net.cpp:157] Top shape: 1 512 7 7 (25088)
I0628 20:36:40.076473 28438 net.cpp:165] Memory required for data: 22931300
I0628 20:36:40.076478 28438 layer_factory.hpp:77] Creating layer relu5_2
I0628 20:36:40.076483 28438 net.cpp:100] Creating Layer relu5_2
I0628 20:36:40.076485 28438 net.cpp:434] relu5_2 <- conv5_2
I0628 20:36:40.076489 28438 net.cpp:395] relu5_2 -> conv5_2 (in-place)
I0628 20:36:40.076495 28438 net.cpp:150] Setting up relu5_2
I0628 20:36:40.076498 28438 net.cpp:157] Top shape: 1 512 7 7 (25088)
I0628 20:36:40.076501 28438 net.cpp:165] Memory required for data: 23031652
I0628 20:36:40.076503 28438 layer_factory.hpp:77] Creating layer conv5_3
I0628 20:36:40.076509 28438 net.cpp:100] Creating Layer conv5_3
I0628 20:36:40.076511 28438 net.cpp:434] conv5_3 <- conv5_2
I0628 20:36:40.076514 28438 net.cpp:408] conv5_3 -> conv5_3
I0628 20:36:40.080462 28438 net.cpp:150] Setting up conv5_3
I0628 20:36:40.080493 28438 net.cpp:157] Top shape: 1 512 7 7 (25088)
I0628 20:36:40.080495 28438 net.cpp:165] Memory required for data: 23132004
I0628 20:36:40.080502 28438 layer_factory.hpp:77] Creating layer relu5_3
I0628 20:36:40.080510 28438 net.cpp:100] Creating Layer relu5_3
I0628 20:36:40.080513 28438 net.cpp:434] relu5_3 <- conv5_3
I0628 20:36:40.080518 28438 net.cpp:395] relu5_3 -> conv5_3 (in-place)
I0628 20:36:40.080523 28438 net.cpp:150] Setting up relu5_3
I0628 20:36:40.080528 28438 net.cpp:157] Top shape: 1 512 7 7 (25088)
I0628 20:36:40.080528 28438 net.cpp:165] Memory required for data: 23232356
I0628 20:36:40.080530 28438 layer_factory.hpp:77] Creating layer conv5_3_relu5_3_0_split
I0628 20:36:40.080534 28438 net.cpp:100] Creating Layer conv5_3_relu5_3_0_split
I0628 20:36:40.080538 28438 net.cpp:434] conv5_3_relu5_3_0_split <- conv5_3
I0628 20:36:40.080540 28438 net.cpp:408] conv5_3_relu5_3_0_split -> conv5_3_relu5_3_0_split_0
I0628 20:36:40.080545 28438 net.cpp:408] conv5_3_relu5_3_0_split -> conv5_3_relu5_3_0_split_1
I0628 20:36:40.080571 28438 net.cpp:150] Setting up conv5_3_relu5_3_0_split
I0628 20:36:40.080575 28438 net.cpp:157] Top shape: 1 512 7 7 (25088)
I0628 20:36:40.080579 28438 net.cpp:157] Top shape: 1 512 7 7 (25088)
I0628 20:36:40.080579 28438 net.cpp:165] Memory required for data: 23433060
I0628 20:36:40.080581 28438 layer_factory.hpp:77] Creating layer roi_pool5
I0628 20:36:40.080587 28438 net.cpp:100] Creating Layer roi_pool5
I0628 20:36:40.080590 28438 net.cpp:434] roi_pool5 <- conv5_3_relu5_3_0_split_0
I0628 20:36:40.080593 28438 net.cpp:434] roi_pool5 <- rois_data_1_split_1
I0628 20:36:40.080596 28438 net.cpp:408] roi_pool5 -> pool5
I0628 20:36:40.080601 28438 roi_pooling_layer.cpp:30] Spatial scale: 0.0625
I0628 20:36:40.080631 28438 net.cpp:150] Setting up roi_pool5
I0628 20:36:40.080636 28438 net.cpp:157] Top shape: 1 512 7 7 (25088)
I0628 20:36:40.080637 28438 net.cpp:165] Memory required for data: 23533412
I0628 20:36:40.080639 28438 layer_factory.hpp:77] Creating layer fc6
I0628 20:36:40.080644 28438 net.cpp:100] Creating Layer fc6
I0628 20:36:40.080646 28438 net.cpp:434] fc6 <- pool5
I0628 20:36:40.080651 28438 net.cpp:408] fc6 -> fc6
I0628 20:36:40.237638 28438 net.cpp:150] Setting up fc6
I0628 20:36:40.237663 28438 net.cpp:157] Top shape: 1 4096 (4096)
I0628 20:36:40.237664 28438 net.cpp:165] Memory required for data: 23549796
I0628 20:36:40.237673 28438 layer_factory.hpp:77] Creating layer relu6
I0628 20:36:40.237679 28438 net.cpp:100] Creating Layer relu6
I0628 20:36:40.237684 28438 net.cpp:434] relu6 <- fc6
I0628 20:36:40.237689 28438 net.cpp:395] relu6 -> fc6 (in-place)
I0628 20:36:40.237695 28438 net.cpp:150] Setting up relu6
I0628 20:36:40.237699 28438 net.cpp:157] Top shape: 1 4096 (4096)
I0628 20:36:40.237699 28438 net.cpp:165] Memory required for data: 23566180
I0628 20:36:40.237701 28438 layer_factory.hpp:77] Creating layer drop6
I0628 20:36:40.237705 28438 net.cpp:100] Creating Layer drop6
I0628 20:36:40.237707 28438 net.cpp:434] drop6 <- fc6
I0628 20:36:40.237710 28438 net.cpp:395] drop6 -> fc6 (in-place)
I0628 20:36:40.237741 28438 net.cpp:150] Setting up drop6
I0628 20:36:40.237745 28438 net.cpp:157] Top shape: 1 4096 (4096)
I0628 20:36:40.237746 28438 net.cpp:165] Memory required for data: 23582564
I0628 20:36:40.237748 28438 layer_factory.hpp:77] Creating layer fc7
I0628 20:36:40.237753 28438 net.cpp:100] Creating Layer fc7
I0628 20:36:40.237754 28438 net.cpp:434] fc7 <- fc6
I0628 20:36:40.237758 28438 net.cpp:408] fc7 -> fc7
I0628 20:36:40.263922 28438 net.cpp:150] Setting up fc7
I0628 20:36:40.263943 28438 net.cpp:157] Top shape: 1 4096 (4096)
I0628 20:36:40.263945 28438 net.cpp:165] Memory required for data: 23598948
I0628 20:36:40.263953 28438 layer_factory.hpp:77] Creating layer relu7
I0628 20:36:40.263962 28438 net.cpp:100] Creating Layer relu7
I0628 20:36:40.263964 28438 net.cpp:434] relu7 <- fc7
I0628 20:36:40.263969 28438 net.cpp:395] relu7 -> fc7 (in-place)
I0628 20:36:40.263978 28438 net.cpp:150] Setting up relu7
I0628 20:36:40.263979 28438 net.cpp:157] Top shape: 1 4096 (4096)
I0628 20:36:40.263980 28438 net.cpp:165] Memory required for data: 23615332
I0628 20:36:40.263983 28438 layer_factory.hpp:77] Creating layer drop7
I0628 20:36:40.263988 28438 net.cpp:100] Creating Layer drop7
I0628 20:36:40.263989 28438 net.cpp:434] drop7 <- fc7
I0628 20:36:40.263993 28438 net.cpp:395] drop7 -> fc7 (in-place)
I0628 20:36:40.264022 28438 net.cpp:150] Setting up drop7
I0628 20:36:40.264025 28438 net.cpp:157] Top shape: 1 4096 (4096)
I0628 20:36:40.264027 28438 net.cpp:165] Memory required for data: 23631716
I0628 20:36:40.264029 28438 layer_factory.hpp:77] Creating layer roi_pool5_context
I0628 20:36:40.264034 28438 net.cpp:100] Creating Layer roi_pool5_context
I0628 20:36:40.264037 28438 net.cpp:434] roi_pool5_context <- conv5_3_relu5_3_0_split_1
I0628 20:36:40.264040 28438 net.cpp:434] roi_pool5_context <- context
I0628 20:36:40.264045 28438 net.cpp:408] roi_pool5_context -> pool5_context
I0628 20:36:40.264055 28438 roi_pooling_layer.cpp:30] Spatial scale: 0.0625
I0628 20:36:40.264093 28438 net.cpp:150] Setting up roi_pool5_context
I0628 20:36:40.264097 28438 net.cpp:157] Top shape: 1 512 7 7 (25088)
I0628 20:36:40.264099 28438 net.cpp:165] Memory required for data: 23732068
I0628 20:36:40.264101 28438 layer_factory.hpp:77] Creating layer fc6_context
I0628 20:36:40.264107 28438 net.cpp:100] Creating Layer fc6_context
I0628 20:36:40.264109 28438 net.cpp:434] fc6_context <- pool5_context
I0628 20:36:40.264113 28438 net.cpp:408] fc6_context -> fc6_context
I0628 20:36:40.421425 28438 net.cpp:150] Setting up fc6_context
I0628 20:36:40.421448 28438 net.cpp:157] Top shape: 1 4096 (4096)
I0628 20:36:40.421450 28438 net.cpp:165] Memory required for data: 23748452
I0628 20:36:40.421458 28438 layer_factory.hpp:77] Creating layer relu6_context
I0628 20:36:40.421465 28438 net.cpp:100] Creating Layer relu6_context
I0628 20:36:40.421469 28438 net.cpp:434] relu6_context <- fc6_context
I0628 20:36:40.421474 28438 net.cpp:395] relu6_context -> fc6_context (in-place)
I0628 20:36:40.421481 28438 net.cpp:150] Setting up relu6_context
I0628 20:36:40.421484 28438 net.cpp:157] Top shape: 1 4096 (4096)
I0628 20:36:40.421486 28438 net.cpp:165] Memory required for data: 23764836
I0628 20:36:40.421488 28438 layer_factory.hpp:77] Creating layer drop6_context
I0628 20:36:40.421497 28438 net.cpp:100] Creating Layer drop6_context
I0628 20:36:40.421515 28438 net.cpp:434] drop6_context <- fc6_context
I0628 20:36:40.421519 28438 net.cpp:395] drop6_context -> fc6_context (in-place)
I0628 20:36:40.421535 28438 net.cpp:150] Setting up drop6_context
I0628 20:36:40.421537 28438 net.cpp:157] Top shape: 1 4096 (4096)
I0628 20:36:40.421540 28438 net.cpp:165] Memory required for data: 23781220
I0628 20:36:40.421541 28438 layer_factory.hpp:77] Creating layer fc7_context
I0628 20:36:40.421546 28438 net.cpp:100] Creating Layer fc7_context
I0628 20:36:40.421548 28438 net.cpp:434] fc7_context <- fc6_context
I0628 20:36:40.421552 28438 net.cpp:408] fc7_context -> fc7_context
I0628 20:36:40.447610 28438 net.cpp:150] Setting up fc7_context
I0628 20:36:40.447633 28438 net.cpp:157] Top shape: 1 4096 (4096)
I0628 20:36:40.447634 28438 net.cpp:165] Memory required for data: 23797604
I0628 20:36:40.447648 28438 layer_factory.hpp:77] Creating layer relu7_context
I0628 20:36:40.447655 28438 net.cpp:100] Creating Layer relu7_context
I0628 20:36:40.447659 28438 net.cpp:434] relu7_context <- fc7_context
I0628 20:36:40.447664 28438 net.cpp:395] relu7_context -> fc7_context (in-place)
I0628 20:36:40.447671 28438 net.cpp:150] Setting up relu7_context
I0628 20:36:40.447674 28438 net.cpp:157] Top shape: 1 4096 (4096)
I0628 20:36:40.447675 28438 net.cpp:165] Memory required for data: 23813988
I0628 20:36:40.447677 28438 layer_factory.hpp:77] Creating layer drop7_context
I0628 20:36:40.447681 28438 net.cpp:100] Creating Layer drop7_context
I0628 20:36:40.447700 28438 net.cpp:434] drop7_context <- fc7_context
I0628 20:36:40.447702 28438 net.cpp:395] drop7_context -> fc7_context (in-place)
I0628 20:36:40.447718 28438 net.cpp:150] Setting up drop7_context
I0628 20:36:40.447721 28438 net.cpp:157] Top shape: 1 4096 (4096)
I0628 20:36:40.447723 28438 net.cpp:165] Memory required for data: 23830372
I0628 20:36:40.447726 28438 layer_factory.hpp:77] Creating layer fc7_output
I0628 20:36:40.447729 28438 net.cpp:100] Creating Layer fc7_output
I0628 20:36:40.447731 28438 net.cpp:434] fc7_output <- fc7
I0628 20:36:40.447734 28438 net.cpp:434] fc7_output <- fc7_context
I0628 20:36:40.447738 28438 net.cpp:408] fc7_output -> fc7_output
I0628 20:36:40.447754 28438 net.cpp:150] Setting up fc7_output
I0628 20:36:40.447757 28438 net.cpp:157] Top shape: 1 8192 (8192)
I0628 20:36:40.447758 28438 net.cpp:165] Memory required for data: 23863140
I0628 20:36:40.447760 28438 layer_factory.hpp:77] Creating layer fc7_output_fc7_output_0_split
I0628 20:36:40.447765 28438 net.cpp:100] Creating Layer fc7_output_fc7_output_0_split
I0628 20:36:40.447767 28438 net.cpp:434] fc7_output_fc7_output_0_split <- fc7_output
I0628 20:36:40.447772 28438 net.cpp:408] fc7_output_fc7_output_0_split -> fc7_output_fc7_output_0_split_0
I0628 20:36:40.447775 28438 net.cpp:408] fc7_output_fc7_output_0_split -> fc7_output_fc7_output_0_split_1
I0628 20:36:40.447779 28438 net.cpp:408] fc7_output_fc7_output_0_split -> fc7_output_fc7_output_0_split_2
I0628 20:36:40.447808 28438 net.cpp:150] Setting up fc7_output_fc7_output_0_split
I0628 20:36:40.447810 28438 net.cpp:157] Top shape: 1 8192 (8192)
I0628 20:36:40.447813 28438 net.cpp:157] Top shape: 1 8192 (8192)
I0628 20:36:40.447815 28438 net.cpp:157] Top shape: 1 8192 (8192)
I0628 20:36:40.447816 28438 net.cpp:165] Memory required for data: 23961444
I0628 20:36:40.447818 28438 layer_factory.hpp:77] Creating layer cls_score
I0628 20:36:40.447824 28438 net.cpp:100] Creating Layer cls_score
I0628 20:36:40.447826 28438 net.cpp:434] cls_score <- fc7_output_fc7_output_0_split_0
I0628 20:36:40.447830 28438 net.cpp:408] cls_score -> cls_score
I0628 20:36:40.448040 28438 net.cpp:150] Setting up cls_score
I0628 20:36:40.448046 28438 net.cpp:157] Top shape: 1 2 (2)
I0628 20:36:40.448048 28438 net.cpp:165] Memory required for data: 23961452
I0628 20:36:40.448051 28438 layer_factory.hpp:77] Creating layer bbox_pred
I0628 20:36:40.448056 28438 net.cpp:100] Creating Layer bbox_pred
I0628 20:36:40.448058 28438 net.cpp:434] bbox_pred <- fc7_output_fc7_output_0_split_1
I0628 20:36:40.448062 28438 net.cpp:408] bbox_pred -> bbox_pred
I0628 20:36:40.448640 28438 net.cpp:150] Setting up bbox_pred
I0628 20:36:40.448647 28438 net.cpp:157] Top shape: 1 8 (8)
I0628 20:36:40.448648 28438 net.cpp:165] Memory required for data: 23961484
I0628 20:36:40.448652 28438 layer_factory.hpp:77] Creating layer ort_pred
I0628 20:36:40.448657 28438 net.cpp:100] Creating Layer ort_pred
I0628 20:36:40.448659 28438 net.cpp:434] ort_pred <- fc7_output_fc7_output_0_split_2
I0628 20:36:40.448663 28438 net.cpp:408] ort_pred -> ort_pred
I0628 20:36:40.448863 28438 net.cpp:150] Setting up ort_pred
I0628 20:36:40.448868 28438 net.cpp:157] Top shape: 1 2 (2)
I0628 20:36:40.448869 28438 net.cpp:165] Memory required for data: 23961492
I0628 20:36:40.448873 28438 layer_factory.hpp:77] Creating layer loss_cls
I0628 20:36:40.448878 28438 net.cpp:100] Creating Layer loss_cls
I0628 20:36:40.448879 28438 net.cpp:434] loss_cls <- cls_score
I0628 20:36:40.448882 28438 net.cpp:434] loss_cls <- labels
I0628 20:36:40.448885 28438 net.cpp:408] loss_cls -> loss_cls
…
