…
I0222 18:15:34.951248 11305 upgrade_proto.cpp:69] Successfully upgraded file specified using deprecated input fields.
W0222 18:15:34.951251 11305 upgrade_proto.cpp:71] Note that future Caffe releases will only support input layers and not input fields.
I0222 18:15:34.951506 11305 net.cpp:58] Initializing net from parameters: 
name: "VGG_ILSVRC_16_layers"
state {
  phase: TEST
  level: 0
}
layer {
  name: "input"
  type: "Input"
  top: "data"
  top: "rois"
  input_param {
    shape {
      dim: 1
      dim: 3
      dim: 224
      dim: 224
    }
    shape {
      dim: 1
      dim: 5
    }
  }
}
layer {
  name: "multi_rois"
  type: "Python"
  bottom: "rois"
  top: "context"
  python_param {
    module: "roi_data_layer.layer"
    layer: "MultiRoIDataLayer"
    param_str: "\'context\': 1.5"
  }
}
layer {
  name: "conv1_1"
  type: "Convolution"
  bottom: "data"
  top: "conv1_1"
  param {
    lr_mult: 0
    decay_mult: 0
  }
  param {
    lr_mult: 0
    decay_mult: 0
  }
  convolution_param {
    num_output: 64
    pad: 1
    kernel_size: 3
  }
}
layer {
  name: "relu1_1"
  type: "ReLU"
  bottom: "conv1_1"
  top: "conv1_1"
}
layer {
  name: "conv1_2"
  type: "Convolution"
  bottom: "conv1_1"
  top: "conv1_2"
  param {
    lr_mult: 0
    decay_mult: 0
  }
  param {
    lr_mult: 0
    decay_mult: 0
  }
  convolution_param {
    num_output: 64
    pad: 1
    kernel_size: 3
  }
}
layer {
  name: "relu1_2"
  type: "ReLU"
  bottom: "conv1_2"
  top: "conv1_2"
}
layer {
  name: "pool1"
  type: "Pooling"
  bottom: "conv1_2"
  top: "pool1"
  pooling_param {
    pool: MAX
    kernel_size: 2
    stride: 2
  }
}
layer {
  name: "conv2_1"
  type: "Convolution"
  bottom: "pool1"
  top: "conv2_1"
  param {
    lr_mult: 0
    decay_mult: 0
  }
  param {
    lr_mult: 0
    decay_mult: 0
  }
  convolution_param {
    num_output: 128
    pad: 1
    kernel_size: 3
  }
}
layer {
  name: "relu2_1"
  type: "ReLU"
  bottom: "conv2_1"
  top: "conv2_1"
}
layer {
  name: "conv2_2"
  type: "Convolution"
  bottom: "conv2_1"
  top: "conv2_2"
  param {
    lr_mult: 0
    decay_mult: 0
  }
  param {
    lr_mult: 0
    decay_mult: 0
  }
  convolution_param {
    num_output: 128
    pad: 1
    kernel_size: 3
  }
}
layer {
  name: "relu2_2"
  type: "ReLU"
  bottom: "conv2_2"
  top: "conv2_2"
}
layer {
  name: "pool2"
  type: "Pooling"
  bottom: "conv2_2"
  top: "pool2"
  pooling_param {
    pool: MAX
    kernel_size: 2
    stride: 2
  }
}
layer {
  name: "conv3_1"
  type: "Convolution"
  bottom: "pool2"
  top: "conv3_1"
  param {
    lr_mult: 1
    decay_mult: 1
  }
  param {
    lr_mult: 2
    decay_mult: 0
  }
  convolution_param {
    num_output: 256
    pad: 1
    kernel_size: 3
  }
}
layer {
  name: "relu3_1"
  type: "ReLU"
  bottom: "conv3_1"
  top: "conv3_1"
}
layer {
  name: "conv3_2"
  type: "Convolution"
  bottom: "conv3_1"
  top: "conv3_2"
  param {
    lr_mult: 1
    decay_mult: 1
  }
  param {
    lr_mult: 2
    decay_mult: 0
  }
  convolution_param {
    num_output: 256
    pad: 1
    kernel_size: 3
  }
}
layer {
  name: "relu3_2"
  type: "ReLU"
  bottom: "conv3_2"
  top: "conv3_2"
}
layer {
  name: "conv3_3"
  type: "Convolution"
  bottom: "conv3_2"
  top: "conv3_3"
  param {
    lr_mult: 1
    decay_mult: 1
  }
  param {
    lr_mult: 2
    decay_mult: 0
  }
  convolution_param {
    num_output: 256
    pad: 1
    kernel_size: 3
  }
}
layer {
  name: "relu3_3"
  type: "ReLU"
  bottom: "conv3_3"
  top: "conv3_3"
}
layer {
  name: "pool3"
  type: "Pooling"
  bottom: "conv3_3"
  top: "pool3"
  pooling_param {
    pool: MAX
    kernel_size: 2
    stride: 2
  }
}
layer {
  name: "conv4_1"
  type: "Convolution"
  bottom: "pool3"
  top: "conv4_1"
  param {
    lr_mult: 1
    decay_mult: 1
  }
  param {
    lr_mult: 2
    decay_mult: 0
  }
  convolution_param {
    num_output: 512
    pad: 1
    kernel_size: 3
  }
}
layer {
  name: "relu4_1"
  type: "ReLU"
  bottom: "conv4_1"
  top: "conv4_1"
}
layer {
  name: "conv4_2"
  type: "Convolution"
  bottom: "conv4_1"
  top: "conv4_2"
  param {
    lr_mult: 1
    decay_mult: 1
  }
  param {
    lr_mult: 2
    decay_mult: 0
  }
  convolution_param {
    num_output: 512
    pad: 1
    kernel_size: 3
  }
}
layer {
  name: "relu4_2"
  type: "ReLU"
  bottom: "conv4_2"
  top: "conv4_2"
}
layer {
  name: "conv4_3"
  type: "Convolution"
  bottom: "conv4_2"
  top: "conv4_3"
  param {
    lr_mult: 1
    decay_mult: 1
  }
  param {
    lr_mult: 2
    decay_mult: 0
  }
  convolution_param {
    num_output: 512
    pad: 1
    kernel_size: 3
  }
}
layer {
  name: "relu4_3"
  type: "ReLU"
  bottom: "conv4_3"
  top: "conv4_3"
}
layer {
  name: "pool4"
  type: "Pooling"
  bottom: "conv4_3"
  top: "pool4"
  pooling_param {
    pool: MAX
    kernel_size: 2
    stride: 2
  }
}
layer {
  name: "conv5_1"
  type: "Convolution"
  bottom: "pool4"
  top: "conv5_1"
  param {
    lr_mult: 1
    decay_mult: 1
  }
  param {
    lr_mult: 2
    decay_mult: 0
  }
  convolution_param {
    num_output: 512
    pad: 1
    kernel_size: 3
  }
}
layer {
  name: "relu5_1"
  type: "ReLU"
  bottom: "conv5_1"
  top: "conv5_1"
}
layer {
  name: "conv5_2"
  type: "Convolution"
  bottom: "conv5_1"
  top: "conv5_2"
  param {
    lr_mult: 1
    decay_mult: 1
  }
  param {
    lr_mult: 2
    decay_mult: 0
  }
  convolution_param {
    num_output: 512
    pad: 1
    kernel_size: 3
  }
}
layer {
  name: "relu5_2"
  type: "ReLU"
  bottom: "conv5_2"
  top: "conv5_2"
}
layer {
  name: "conv5_3"
  type: "Convolution"
  bottom: "conv5_2"
  top: "conv5_3"
  param {
    lr_mult: 1
    decay_mult: 1
  }
  param {
    lr_mult: 2
    decay_mult: 0
  }
  convolution_param {
    num_output: 512
    pad: 1
    kernel_size: 3
  }
}
layer {
  name: "relu5_3"
  type: "ReLU"
  bottom: "conv5_3"
  top: "conv5_3"
}
layer {
  name: "roi_pool5"
  type: "ROIPooling"
  bottom: "conv5_3"
  bottom: "rois"
  top: "pool5"
  roi_pooling_param {
    pooled_h: 7
    pooled_w: 7
    spatial_scale: 0.0625
  }
}
layer {
  name: "fc6"
  type: "InnerProduct"
  bottom: "pool5"
  top: "fc6"
  param {
    lr_mult: 1
    decay_mult: 1
  }
  param {
    lr_mult: 2
    decay_mult: 0
  }
  inner_product_param {
    num_output: 4096
  }
}
layer {
  name: "relu6"
  type: "ReLU"
  bottom: "fc6"
  top: "fc6"
}
layer {
  name: "drop6"
  type: "Dropout"
  bottom: "fc6"
  top: "fc6"
  dropout_param {
    dropout_ratio: 0.5
  }
}
layer {
  name: "fc7"
  type: "InnerProduct"
  bottom: "fc6"
  top: "fc7"
  param {
    lr_mult: 1
    decay_mult: 1
  }
  param {
    lr_mult: 2
    decay_mult: 0
  }
  inner_product_param {
    num_output: 4096
  }
}
layer {
  name: "relu7"
  type: "ReLU"
  bottom: "fc7"
  top: "fc7"
}
layer {
  name: "drop7"
  type: "Dropout"
  bottom: "fc7"
  top: "fc7"
  dropout_param {
    dropout_ratio: 0.5
  }
}
layer {
  name: "roi_pool5_context"
  type: "ROIPooling"
  bottom: "conv5_3"
  bottom: "context"
  top: "pool5_context"
  roi_pooling_param {
    pooled_h: 7
    pooled_w: 7
    spatial_scale: 0.0625
  }
}
layer {
  name: "fc6_context"
  type: "InnerProduct"
  bottom: "pool5_context"
  top: "fc6_context"
  param {
    lr_mult: 1
    decay_mult: 1
  }
  param {
    lr_mult: 2
    decay_mult: 0
  }
  inner_product_param {
    num_output: 4096
  }
}
layer {
  name: "relu6_context"
  type: "ReLU"
  bottom: "fc6_context"
  top: "fc6_context"
}
layer {
  name: "drop6_context"
  type: "Dropout"
  bottom: "fc6_context"
  top: "fc6_context"
  dropout_param {
    dropout_ratio: 0.5
  }
}
layer {
  name: "fc7_context"
  type: "InnerProduct"
  bottom: "fc6_context"
  top: "fc7_context"
  param {
    lr_mult: 1
    decay_mult: 1
  }
  param {
    lr_mult: 2
    decay_mult: 0
  }
  inner_product_param {
    num_output: 4096
  }
}
layer {
  name: "relu7_context"
  type: "ReLU"
  bottom: "fc7_context"
  top: "fc7_context"
}
layer {
  name: "drop7_context"
  type: "Dropout"
  bottom: "fc7_context"
  top: "fc7_context"
  dropout_param {
    dropout_ratio: 0.5
  }
}
layer {
  name: "fc7_output"
  type: "Concat"
  bottom: "fc7"
  bottom: "fc7_context"
  top: "fc7_output"
}
layer {
  name: "cls_score"
  type: "InnerProduct"
  bottom: "fc7_output"
  top: "cls_score"
  param {
    lr_mult: 1
    decay_mult: 1
  }
  param {
    lr_mult: 2
    decay_mult: 0
  }
  inner_product_param {
    num_output: 2
    weight_filler {
      type: "gaussian"
      std: 0.01
    }
    bias_filler {
      type: "constant"
      value: 0
    }
  }
}
layer {
  name: "bbox_pred"
  type: "InnerProduct"
  bottom: "fc7_output"
  top: "bbox_pred"
  param {
    lr_mult: 1
    decay_mult: 1
  }
  param {
    lr_mult: 2
    decay_mult: 0
  }
  inner_product_param {
    num_output: 8
    weight_filler {
      type: "gaussian"
      std: 0.001
    }
    bias_filler {
      type: "constant"
      value: 0
    }
  }
}
layer {
  name: "ort_pred"
  type: "InnerProduct"
  bottom: "fc7_output"
  top: "ort_pred"
  param {
    lr_mult: 1
    decay_mult: 1
  }
  param {
    lr_mult: 2
    decay_mult: 0
  }
  inner_product_param {
    num_output: 2
    weight_filler {
      type: "gaussian"
      std: 0.001
    }
    bias_filler {
      type: "constant"
      value: 0
    }
  }
}
layer {
  name: "cls_prob"
  type: "Softmax"
  bottom: "cls_score"
  top: "cls_prob"
}
I0222 18:15:34.951640 11305 layer_factory.hpp:77] Creating layer input
I0222 18:15:34.951648 11305 net.cpp:100] Creating Layer input
I0222 18:15:34.951653 11305 net.cpp:408] input -> data
I0222 18:15:34.951659 11305 net.cpp:408] input -> rois
I0222 18:15:34.968176 11305 net.cpp:150] Setting up input
I0222 18:15:34.968197 11305 net.cpp:157] Top shape: 1 3 224 224 (150528)
I0222 18:15:34.968201 11305 net.cpp:157] Top shape: 1 5 (5)
I0222 18:15:34.968204 11305 net.cpp:165] Memory required for data: 602132
I0222 18:15:34.968209 11305 layer_factory.hpp:77] Creating layer rois_input_1_split
I0222 18:15:34.968219 11305 net.cpp:100] Creating Layer rois_input_1_split
I0222 18:15:34.968222 11305 net.cpp:434] rois_input_1_split <- rois
I0222 18:15:34.968227 11305 net.cpp:408] rois_input_1_split -> rois_input_1_split_0
I0222 18:15:34.968235 11305 net.cpp:408] rois_input_1_split -> rois_input_1_split_1
I0222 18:15:34.968258 11305 net.cpp:150] Setting up rois_input_1_split
I0222 18:15:34.968263 11305 net.cpp:157] Top shape: 1 5 (5)
I0222 18:15:34.968266 11305 net.cpp:157] Top shape: 1 5 (5)
I0222 18:15:34.968268 11305 net.cpp:165] Memory required for data: 602172
I0222 18:15:34.968271 11305 layer_factory.hpp:77] Creating layer multi_rois
I0222 18:15:34.968688 11305 net.cpp:100] Creating Layer multi_rois
I0222 18:15:34.968696 11305 net.cpp:434] multi_rois <- rois_input_1_split_0
I0222 18:15:34.968703 11305 net.cpp:408] multi_rois -> context
'context': 1.5
I0222 18:15:34.969054 11305 net.cpp:150] Setting up multi_rois
I0222 18:15:34.969063 11305 net.cpp:157] Top shape: 1 5 (5)
I0222 18:15:34.969065 11305 net.cpp:165] Memory required for data: 602192
I0222 18:15:34.969069 11305 layer_factory.hpp:77] Creating layer conv1_1
I0222 18:15:34.969076 11305 net.cpp:100] Creating Layer conv1_1
I0222 18:15:34.969081 11305 net.cpp:434] conv1_1 <- data
I0222 18:15:34.969085 11305 net.cpp:408] conv1_1 -> conv1_1
I0222 18:15:34.970942 11305 net.cpp:150] Setting up conv1_1
I0222 18:15:34.970954 11305 net.cpp:157] Top shape: 1 64 224 224 (3211264)
I0222 18:15:34.970957 11305 net.cpp:165] Memory required for data: 13447248
I0222 18:15:34.970981 11305 layer_factory.hpp:77] Creating layer relu1_1
I0222 18:15:34.970990 11305 net.cpp:100] Creating Layer relu1_1
I0222 18:15:34.970993 11305 net.cpp:434] relu1_1 <- conv1_1
I0222 18:15:34.970998 11305 net.cpp:395] relu1_1 -> conv1_1 (in-place)
I0222 18:15:34.971002 11305 net.cpp:150] Setting up relu1_1
I0222 18:15:34.971005 11305 net.cpp:157] Top shape: 1 64 224 224 (3211264)
I0222 18:15:34.971007 11305 net.cpp:165] Memory required for data: 26292304
I0222 18:15:34.971010 11305 layer_factory.hpp:77] Creating layer conv1_2
I0222 18:15:34.971017 11305 net.cpp:100] Creating Layer conv1_2
I0222 18:15:34.971019 11305 net.cpp:434] conv1_2 <- conv1_1
I0222 18:15:34.971022 11305 net.cpp:408] conv1_2 -> conv1_2
I0222 18:15:34.971216 11305 net.cpp:150] Setting up conv1_2
I0222 18:15:34.971223 11305 net.cpp:157] Top shape: 1 64 224 224 (3211264)
I0222 18:15:34.971225 11305 net.cpp:165] Memory required for data: 39137360
I0222 18:15:34.971231 11305 layer_factory.hpp:77] Creating layer relu1_2
I0222 18:15:34.971235 11305 net.cpp:100] Creating Layer relu1_2
I0222 18:15:34.971237 11305 net.cpp:434] relu1_2 <- conv1_2
I0222 18:15:34.971241 11305 net.cpp:395] relu1_2 -> conv1_2 (in-place)
I0222 18:15:34.971246 11305 net.cpp:150] Setting up relu1_2
I0222 18:15:34.971248 11305 net.cpp:157] Top shape: 1 64 224 224 (3211264)
I0222 18:15:34.971251 11305 net.cpp:165] Memory required for data: 51982416
I0222 18:15:34.971252 11305 layer_factory.hpp:77] Creating layer pool1
I0222 18:15:34.971256 11305 net.cpp:100] Creating Layer pool1
I0222 18:15:34.971258 11305 net.cpp:434] pool1 <- conv1_2
I0222 18:15:34.971262 11305 net.cpp:408] pool1 -> pool1
I0222 18:15:34.971288 11305 net.cpp:150] Setting up pool1
I0222 18:15:34.971293 11305 net.cpp:157] Top shape: 1 64 112 112 (802816)
I0222 18:15:34.971295 11305 net.cpp:165] Memory required for data: 55193680
I0222 18:15:34.971297 11305 layer_factory.hpp:77] Creating layer conv2_1
I0222 18:15:34.971303 11305 net.cpp:100] Creating Layer conv2_1
I0222 18:15:34.971307 11305 net.cpp:434] conv2_1 <- pool1
I0222 18:15:34.971309 11305 net.cpp:408] conv2_1 -> conv2_1
I0222 18:15:34.972880 11305 net.cpp:150] Setting up conv2_1
I0222 18:15:34.972892 11305 net.cpp:157] Top shape: 1 128 112 112 (1605632)
I0222 18:15:34.972893 11305 net.cpp:165] Memory required for data: 61616208
I0222 18:15:34.972901 11305 layer_factory.hpp:77] Creating layer relu2_1
I0222 18:15:34.972906 11305 net.cpp:100] Creating Layer relu2_1
I0222 18:15:34.972909 11305 net.cpp:434] relu2_1 <- conv2_1
I0222 18:15:34.972914 11305 net.cpp:395] relu2_1 -> conv2_1 (in-place)
I0222 18:15:34.972921 11305 net.cpp:150] Setting up relu2_1
I0222 18:15:34.972924 11305 net.cpp:157] Top shape: 1 128 112 112 (1605632)
I0222 18:15:34.972926 11305 net.cpp:165] Memory required for data: 68038736
I0222 18:15:34.972929 11305 layer_factory.hpp:77] Creating layer conv2_2
I0222 18:15:34.972935 11305 net.cpp:100] Creating Layer conv2_2
I0222 18:15:34.972937 11305 net.cpp:434] conv2_2 <- conv2_1
I0222 18:15:34.972940 11305 net.cpp:408] conv2_2 -> conv2_2
I0222 18:15:34.973165 11305 net.cpp:150] Setting up conv2_2
I0222 18:15:34.973170 11305 net.cpp:157] Top shape: 1 128 112 112 (1605632)
I0222 18:15:34.973172 11305 net.cpp:165] Memory required for data: 74461264
I0222 18:15:34.973176 11305 layer_factory.hpp:77] Creating layer relu2_2
I0222 18:15:34.973181 11305 net.cpp:100] Creating Layer relu2_2
I0222 18:15:34.973182 11305 net.cpp:434] relu2_2 <- conv2_2
I0222 18:15:34.973186 11305 net.cpp:395] relu2_2 -> conv2_2 (in-place)
I0222 18:15:34.973191 11305 net.cpp:150] Setting up relu2_2
I0222 18:15:34.973193 11305 net.cpp:157] Top shape: 1 128 112 112 (1605632)
I0222 18:15:34.973196 11305 net.cpp:165] Memory required for data: 80883792
I0222 18:15:34.973197 11305 layer_factory.hpp:77] Creating layer pool2
I0222 18:15:34.973202 11305 net.cpp:100] Creating Layer pool2
I0222 18:15:34.973203 11305 net.cpp:434] pool2 <- conv2_2
I0222 18:15:34.973207 11305 net.cpp:408] pool2 -> pool2
I0222 18:15:34.973232 11305 net.cpp:150] Setting up pool2
I0222 18:15:34.973237 11305 net.cpp:157] Top shape: 1 128 56 56 (401408)
I0222 18:15:34.973238 11305 net.cpp:165] Memory required for data: 82489424
I0222 18:15:34.973240 11305 layer_factory.hpp:77] Creating layer conv3_1
I0222 18:15:34.973246 11305 net.cpp:100] Creating Layer conv3_1
I0222 18:15:34.973248 11305 net.cpp:434] conv3_1 <- pool2
I0222 18:15:34.973253 11305 net.cpp:408] conv3_1 -> conv3_1
I0222 18:15:34.973539 11305 net.cpp:150] Setting up conv3_1
I0222 18:15:34.973546 11305 net.cpp:157] Top shape: 1 256 56 56 (802816)
I0222 18:15:34.973547 11305 net.cpp:165] Memory required for data: 85700688
I0222 18:15:34.973553 11305 layer_factory.hpp:77] Creating layer relu3_1
I0222 18:15:34.973558 11305 net.cpp:100] Creating Layer relu3_1
I0222 18:15:34.973562 11305 net.cpp:434] relu3_1 <- conv3_1
I0222 18:15:34.973565 11305 net.cpp:395] relu3_1 -> conv3_1 (in-place)
I0222 18:15:34.973568 11305 net.cpp:150] Setting up relu3_1
I0222 18:15:34.973572 11305 net.cpp:157] Top shape: 1 256 56 56 (802816)
I0222 18:15:34.973574 11305 net.cpp:165] Memory required for data: 88911952
I0222 18:15:34.973575 11305 layer_factory.hpp:77] Creating layer conv3_2
I0222 18:15:34.973580 11305 net.cpp:100] Creating Layer conv3_2
I0222 18:15:34.973582 11305 net.cpp:434] conv3_2 <- conv3_1
I0222 18:15:34.973587 11305 net.cpp:408] conv3_2 -> conv3_2
I0222 18:15:34.974807 11305 net.cpp:150] Setting up conv3_2
I0222 18:15:34.974817 11305 net.cpp:157] Top shape: 1 256 56 56 (802816)
I0222 18:15:34.974819 11305 net.cpp:165] Memory required for data: 92123216
I0222 18:15:34.974824 11305 layer_factory.hpp:77] Creating layer relu3_2
I0222 18:15:34.974831 11305 net.cpp:100] Creating Layer relu3_2
I0222 18:15:34.974835 11305 net.cpp:434] relu3_2 <- conv3_2
I0222 18:15:34.974839 11305 net.cpp:395] relu3_2 -> conv3_2 (in-place)
I0222 18:15:34.974843 11305 net.cpp:150] Setting up relu3_2
I0222 18:15:34.974848 11305 net.cpp:157] Top shape: 1 256 56 56 (802816)
I0222 18:15:34.974850 11305 net.cpp:165] Memory required for data: 95334480
I0222 18:15:34.974853 11305 layer_factory.hpp:77] Creating layer conv3_3
I0222 18:15:34.974858 11305 net.cpp:100] Creating Layer conv3_3
I0222 18:15:34.974862 11305 net.cpp:434] conv3_3 <- conv3_2
I0222 18:15:34.974866 11305 net.cpp:408] conv3_3 -> conv3_3
I0222 18:15:34.976079 11305 net.cpp:150] Setting up conv3_3
I0222 18:15:34.976089 11305 net.cpp:157] Top shape: 1 256 56 56 (802816)
I0222 18:15:34.976091 11305 net.cpp:165] Memory required for data: 98545744
I0222 18:15:34.976096 11305 layer_factory.hpp:77] Creating layer relu3_3
I0222 18:15:34.976101 11305 net.cpp:100] Creating Layer relu3_3
I0222 18:15:34.976115 11305 net.cpp:434] relu3_3 <- conv3_3
I0222 18:15:34.976119 11305 net.cpp:395] relu3_3 -> conv3_3 (in-place)
I0222 18:15:34.976125 11305 net.cpp:150] Setting up relu3_3
I0222 18:15:34.976128 11305 net.cpp:157] Top shape: 1 256 56 56 (802816)
I0222 18:15:34.976130 11305 net.cpp:165] Memory required for data: 101757008
I0222 18:15:34.976131 11305 layer_factory.hpp:77] Creating layer pool3
I0222 18:15:34.976135 11305 net.cpp:100] Creating Layer pool3
I0222 18:15:34.976138 11305 net.cpp:434] pool3 <- conv3_3
I0222 18:15:34.976142 11305 net.cpp:408] pool3 -> pool3
I0222 18:15:34.976168 11305 net.cpp:150] Setting up pool3
I0222 18:15:34.976172 11305 net.cpp:157] Top shape: 1 256 28 28 (200704)
I0222 18:15:34.976176 11305 net.cpp:165] Memory required for data: 102559824
I0222 18:15:34.976176 11305 layer_factory.hpp:77] Creating layer conv4_1
I0222 18:15:34.976182 11305 net.cpp:100] Creating Layer conv4_1
I0222 18:15:34.976186 11305 net.cpp:434] conv4_1 <- pool3
I0222 18:15:34.976191 11305 net.cpp:408] conv4_1 -> conv4_1
I0222 18:15:34.978953 11305 net.cpp:150] Setting up conv4_1
I0222 18:15:34.978971 11305 net.cpp:157] Top shape: 1 512 28 28 (401408)
I0222 18:15:34.978973 11305 net.cpp:165] Memory required for data: 104165456
I0222 18:15:34.978981 11305 layer_factory.hpp:77] Creating layer relu4_1
I0222 18:15:34.978988 11305 net.cpp:100] Creating Layer relu4_1
I0222 18:15:34.978991 11305 net.cpp:434] relu4_1 <- conv4_1
I0222 18:15:34.978997 11305 net.cpp:395] relu4_1 -> conv4_1 (in-place)
I0222 18:15:34.979004 11305 net.cpp:150] Setting up relu4_1
I0222 18:15:34.979007 11305 net.cpp:157] Top shape: 1 512 28 28 (401408)
I0222 18:15:34.979009 11305 net.cpp:165] Memory required for data: 105771088
I0222 18:15:34.979012 11305 layer_factory.hpp:77] Creating layer conv4_2
I0222 18:15:34.979019 11305 net.cpp:100] Creating Layer conv4_2
I0222 18:15:34.979022 11305 net.cpp:434] conv4_2 <- conv4_1
I0222 18:15:34.979027 11305 net.cpp:408] conv4_2 -> conv4_2
I0222 18:15:34.982936 11305 net.cpp:150] Setting up conv4_2
I0222 18:15:34.982961 11305 net.cpp:157] Top shape: 1 512 28 28 (401408)
I0222 18:15:34.982964 11305 net.cpp:165] Memory required for data: 107376720
I0222 18:15:34.982976 11305 layer_factory.hpp:77] Creating layer relu4_2
I0222 18:15:34.982985 11305 net.cpp:100] Creating Layer relu4_2
I0222 18:15:34.982987 11305 net.cpp:434] relu4_2 <- conv4_2
I0222 18:15:34.982992 11305 net.cpp:395] relu4_2 -> conv4_2 (in-place)
I0222 18:15:34.982998 11305 net.cpp:150] Setting up relu4_2
I0222 18:15:34.983001 11305 net.cpp:157] Top shape: 1 512 28 28 (401408)
I0222 18:15:34.983003 11305 net.cpp:165] Memory required for data: 108982352
I0222 18:15:34.983006 11305 layer_factory.hpp:77] Creating layer conv4_3
I0222 18:15:34.983014 11305 net.cpp:100] Creating Layer conv4_3
I0222 18:15:34.983018 11305 net.cpp:434] conv4_3 <- conv4_2
I0222 18:15:34.983022 11305 net.cpp:408] conv4_3 -> conv4_3
I0222 18:15:34.986835 11305 net.cpp:150] Setting up conv4_3
I0222 18:15:34.986856 11305 net.cpp:157] Top shape: 1 512 28 28 (401408)
I0222 18:15:34.986858 11305 net.cpp:165] Memory required for data: 110587984
I0222 18:15:34.986866 11305 layer_factory.hpp:77] Creating layer relu4_3
I0222 18:15:34.986873 11305 net.cpp:100] Creating Layer relu4_3
I0222 18:15:34.986876 11305 net.cpp:434] relu4_3 <- conv4_3
I0222 18:15:34.986881 11305 net.cpp:395] relu4_3 -> conv4_3 (in-place)
I0222 18:15:34.986889 11305 net.cpp:150] Setting up relu4_3
I0222 18:15:34.986892 11305 net.cpp:157] Top shape: 1 512 28 28 (401408)
I0222 18:15:34.986893 11305 net.cpp:165] Memory required for data: 112193616
I0222 18:15:34.986896 11305 layer_factory.hpp:77] Creating layer pool4
I0222 18:15:34.986902 11305 net.cpp:100] Creating Layer pool4
I0222 18:15:34.986904 11305 net.cpp:434] pool4 <- conv4_3
I0222 18:15:34.986907 11305 net.cpp:408] pool4 -> pool4
I0222 18:15:34.986937 11305 net.cpp:150] Setting up pool4
I0222 18:15:34.986941 11305 net.cpp:157] Top shape: 1 512 14 14 (100352)
I0222 18:15:34.986943 11305 net.cpp:165] Memory required for data: 112595024
I0222 18:15:34.986945 11305 layer_factory.hpp:77] Creating layer conv5_1
I0222 18:15:34.986955 11305 net.cpp:100] Creating Layer conv5_1
I0222 18:15:34.986958 11305 net.cpp:434] conv5_1 <- pool4
I0222 18:15:34.986963 11305 net.cpp:408] conv5_1 -> conv5_1
I0222 18:15:34.990766 11305 net.cpp:150] Setting up conv5_1
I0222 18:15:34.990787 11305 net.cpp:157] Top shape: 1 512 14 14 (100352)
I0222 18:15:34.990789 11305 net.cpp:165] Memory required for data: 112996432
I0222 18:15:34.990797 11305 layer_factory.hpp:77] Creating layer relu5_1
I0222 18:15:34.990803 11305 net.cpp:100] Creating Layer relu5_1
I0222 18:15:34.990806 11305 net.cpp:434] relu5_1 <- conv5_1
I0222 18:15:34.990813 11305 net.cpp:395] relu5_1 -> conv5_1 (in-place)
I0222 18:15:34.990820 11305 net.cpp:150] Setting up relu5_1
I0222 18:15:34.990823 11305 net.cpp:157] Top shape: 1 512 14 14 (100352)
I0222 18:15:34.990825 11305 net.cpp:165] Memory required for data: 113397840
I0222 18:15:34.990828 11305 layer_factory.hpp:77] Creating layer conv5_2
I0222 18:15:34.990834 11305 net.cpp:100] Creating Layer conv5_2
I0222 18:15:34.990836 11305 net.cpp:434] conv5_2 <- conv5_1
I0222 18:15:34.990840 11305 net.cpp:408] conv5_2 -> conv5_2
I0222 18:15:34.994659 11305 net.cpp:150] Setting up conv5_2
I0222 18:15:34.994683 11305 net.cpp:157] Top shape: 1 512 14 14 (100352)
I0222 18:15:34.994684 11305 net.cpp:165] Memory required for data: 113799248
I0222 18:15:34.994691 11305 layer_factory.hpp:77] Creating layer relu5_2
I0222 18:15:34.994715 11305 net.cpp:100] Creating Layer relu5_2
I0222 18:15:34.994719 11305 net.cpp:434] relu5_2 <- conv5_2
I0222 18:15:34.994724 11305 net.cpp:395] relu5_2 -> conv5_2 (in-place)
I0222 18:15:34.994730 11305 net.cpp:150] Setting up relu5_2
I0222 18:15:34.994734 11305 net.cpp:157] Top shape: 1 512 14 14 (100352)
I0222 18:15:34.994735 11305 net.cpp:165] Memory required for data: 114200656
I0222 18:15:34.994737 11305 layer_factory.hpp:77] Creating layer conv5_3
I0222 18:15:34.994745 11305 net.cpp:100] Creating Layer conv5_3
I0222 18:15:34.994750 11305 net.cpp:434] conv5_3 <- conv5_2
I0222 18:15:34.994753 11305 net.cpp:408] conv5_3 -> conv5_3
I0222 18:15:34.998751 11305 net.cpp:150] Setting up conv5_3
I0222 18:15:34.998773 11305 net.cpp:157] Top shape: 1 512 14 14 (100352)
I0222 18:15:34.998775 11305 net.cpp:165] Memory required for data: 114602064
I0222 18:15:34.998782 11305 layer_factory.hpp:77] Creating layer relu5_3
I0222 18:15:34.998809 11305 net.cpp:100] Creating Layer relu5_3
I0222 18:15:34.998813 11305 net.cpp:434] relu5_3 <- conv5_3
I0222 18:15:34.998819 11305 net.cpp:395] relu5_3 -> conv5_3 (in-place)
I0222 18:15:34.998826 11305 net.cpp:150] Setting up relu5_3
I0222 18:15:34.998829 11305 net.cpp:157] Top shape: 1 512 14 14 (100352)
I0222 18:15:34.998831 11305 net.cpp:165] Memory required for data: 115003472
I0222 18:15:34.998833 11305 layer_factory.hpp:77] Creating layer conv5_3_relu5_3_0_split
I0222 18:15:34.998837 11305 net.cpp:100] Creating Layer conv5_3_relu5_3_0_split
I0222 18:15:34.998839 11305 net.cpp:434] conv5_3_relu5_3_0_split <- conv5_3
I0222 18:15:34.998843 11305 net.cpp:408] conv5_3_relu5_3_0_split -> conv5_3_relu5_3_0_split_0
I0222 18:15:34.998848 11305 net.cpp:408] conv5_3_relu5_3_0_split -> conv5_3_relu5_3_0_split_1
I0222 18:15:34.998883 11305 net.cpp:150] Setting up conv5_3_relu5_3_0_split
I0222 18:15:34.998888 11305 net.cpp:157] Top shape: 1 512 14 14 (100352)
I0222 18:15:34.998891 11305 net.cpp:157] Top shape: 1 512 14 14 (100352)
I0222 18:15:34.998893 11305 net.cpp:165] Memory required for data: 115806288
I0222 18:15:34.998895 11305 layer_factory.hpp:77] Creating layer roi_pool5
I0222 18:15:34.998900 11305 net.cpp:100] Creating Layer roi_pool5
I0222 18:15:34.998903 11305 net.cpp:434] roi_pool5 <- conv5_3_relu5_3_0_split_0
I0222 18:15:34.998905 11305 net.cpp:434] roi_pool5 <- rois_input_1_split_1
I0222 18:15:34.998910 11305 net.cpp:408] roi_pool5 -> pool5
I0222 18:15:34.998915 11305 roi_pooling_layer.cpp:30] Spatial scale: 0.0625
I0222 18:15:34.998947 11305 net.cpp:150] Setting up roi_pool5
I0222 18:15:34.998958 11305 net.cpp:157] Top shape: 1 512 7 7 (25088)
I0222 18:15:34.998961 11305 net.cpp:165] Memory required for data: 115906640
I0222 18:15:34.998963 11305 layer_factory.hpp:77] Creating layer fc6
I0222 18:15:34.998968 11305 net.cpp:100] Creating Layer fc6
I0222 18:15:34.998971 11305 net.cpp:434] fc6 <- pool5
I0222 18:15:34.998975 11305 net.cpp:408] fc6 -> fc6
I0222 18:15:35.164813 11305 net.cpp:150] Setting up fc6
I0222 18:15:35.164834 11305 net.cpp:157] Top shape: 1 4096 (4096)
I0222 18:15:35.164836 11305 net.cpp:165] Memory required for data: 115923024
I0222 18:15:35.164845 11305 layer_factory.hpp:77] Creating layer relu6
I0222 18:15:35.164855 11305 net.cpp:100] Creating Layer relu6
I0222 18:15:35.164857 11305 net.cpp:434] relu6 <- fc6
I0222 18:15:35.164863 11305 net.cpp:395] relu6 -> fc6 (in-place)
I0222 18:15:35.164870 11305 net.cpp:150] Setting up relu6
I0222 18:15:35.164873 11305 net.cpp:157] Top shape: 1 4096 (4096)
I0222 18:15:35.164875 11305 net.cpp:165] Memory required for data: 115939408
I0222 18:15:35.164877 11305 layer_factory.hpp:77] Creating layer drop6
I0222 18:15:35.164882 11305 net.cpp:100] Creating Layer drop6
I0222 18:15:35.164885 11305 net.cpp:434] drop6 <- fc6
I0222 18:15:35.164886 11305 net.cpp:395] drop6 -> fc6 (in-place)
I0222 18:15:35.164904 11305 net.cpp:150] Setting up drop6
I0222 18:15:35.164908 11305 net.cpp:157] Top shape: 1 4096 (4096)
I0222 18:15:35.164911 11305 net.cpp:165] Memory required for data: 115955792
I0222 18:15:35.164912 11305 layer_factory.hpp:77] Creating layer fc7
I0222 18:15:35.164918 11305 net.cpp:100] Creating Layer fc7
I0222 18:15:35.164921 11305 net.cpp:434] fc7 <- fc6
I0222 18:15:35.164923 11305 net.cpp:408] fc7 -> fc7
I0222 18:15:35.192391 11305 net.cpp:150] Setting up fc7
I0222 18:15:35.192414 11305 net.cpp:157] Top shape: 1 4096 (4096)
I0222 18:15:35.192416 11305 net.cpp:165] Memory required for data: 115972176
I0222 18:15:35.192425 11305 layer_factory.hpp:77] Creating layer relu7
I0222 18:15:35.192435 11305 net.cpp:100] Creating Layer relu7
I0222 18:15:35.192437 11305 net.cpp:434] relu7 <- fc7
I0222 18:15:35.192442 11305 net.cpp:395] relu7 -> fc7 (in-place)
I0222 18:15:35.192450 11305 net.cpp:150] Setting up relu7
I0222 18:15:35.192452 11305 net.cpp:157] Top shape: 1 4096 (4096)
I0222 18:15:35.192454 11305 net.cpp:165] Memory required for data: 115988560
I0222 18:15:35.192456 11305 layer_factory.hpp:77] Creating layer drop7
I0222 18:15:35.192461 11305 net.cpp:100] Creating Layer drop7
I0222 18:15:35.192463 11305 net.cpp:434] drop7 <- fc7
I0222 18:15:35.192466 11305 net.cpp:395] drop7 -> fc7 (in-place)
I0222 18:15:35.192482 11305 net.cpp:150] Setting up drop7
I0222 18:15:35.192487 11305 net.cpp:157] Top shape: 1 4096 (4096)
I0222 18:15:35.192488 11305 net.cpp:165] Memory required for data: 116004944
I0222 18:15:35.192490 11305 layer_factory.hpp:77] Creating layer roi_pool5_context
I0222 18:15:35.192497 11305 net.cpp:100] Creating Layer roi_pool5_context
I0222 18:15:35.192499 11305 net.cpp:434] roi_pool5_context <- conv5_3_relu5_3_0_split_1
I0222 18:15:35.192502 11305 net.cpp:434] roi_pool5_context <- context
I0222 18:15:35.192507 11305 net.cpp:408] roi_pool5_context -> pool5_context
I0222 18:15:35.192512 11305 roi_pooling_layer.cpp:30] Spatial scale: 0.0625
I0222 18:15:35.192549 11305 net.cpp:150] Setting up roi_pool5_context
I0222 18:15:35.192554 11305 net.cpp:157] Top shape: 1 512 7 7 (25088)
I0222 18:15:35.192556 11305 net.cpp:165] Memory required for data: 116105296
I0222 18:15:35.192559 11305 layer_factory.hpp:77] Creating layer fc6_context
I0222 18:15:35.192564 11305 net.cpp:100] Creating Layer fc6_context
I0222 18:15:35.192566 11305 net.cpp:434] fc6_context <- pool5_context
I0222 18:15:35.192569 11305 net.cpp:408] fc6_context -> fc6_context
I0222 18:15:35.357291 11305 net.cpp:150] Setting up fc6_context
I0222 18:15:35.357316 11305 net.cpp:157] Top shape: 1 4096 (4096)
I0222 18:15:35.357317 11305 net.cpp:165] Memory required for data: 116121680
I0222 18:15:35.357326 11305 layer_factory.hpp:77] Creating layer relu6_context
I0222 18:15:35.357350 11305 net.cpp:100] Creating Layer relu6_context
I0222 18:15:35.357353 11305 net.cpp:434] relu6_context <- fc6_context
I0222 18:15:35.357358 11305 net.cpp:395] relu6_context -> fc6_context (in-place)
I0222 18:15:35.357367 11305 net.cpp:150] Setting up relu6_context
I0222 18:15:35.357368 11305 net.cpp:157] Top shape: 1 4096 (4096)
I0222 18:15:35.357370 11305 net.cpp:165] Memory required for data: 116138064
I0222 18:15:35.357372 11305 layer_factory.hpp:77] Creating layer drop6_context
I0222 18:15:35.357378 11305 net.cpp:100] Creating Layer drop6_context
I0222 18:15:35.357379 11305 net.cpp:434] drop6_context <- fc6_context
I0222 18:15:35.357383 11305 net.cpp:395] drop6_context -> fc6_context (in-place)
I0222 18:15:35.357399 11305 net.cpp:150] Setting up drop6_context
I0222 18:15:35.357404 11305 net.cpp:157] Top shape: 1 4096 (4096)
I0222 18:15:35.357406 11305 net.cpp:165] Memory required for data: 116154448
I0222 18:15:35.357409 11305 layer_factory.hpp:77] Creating layer fc7_context
I0222 18:15:35.357414 11305 net.cpp:100] Creating Layer fc7_context
I0222 18:15:35.357415 11305 net.cpp:434] fc7_context <- fc6_context
I0222 18:15:35.357419 11305 net.cpp:408] fc7_context -> fc7_context
I0222 18:15:35.384613 11305 net.cpp:150] Setting up fc7_context
I0222 18:15:35.384635 11305 net.cpp:157] Top shape: 1 4096 (4096)
I0222 18:15:35.384637 11305 net.cpp:165] Memory required for data: 116170832
I0222 18:15:35.384654 11305 layer_factory.hpp:77] Creating layer relu7_context
I0222 18:15:35.384661 11305 net.cpp:100] Creating Layer relu7_context
I0222 18:15:35.384665 11305 net.cpp:434] relu7_context <- fc7_context
I0222 18:15:35.384671 11305 net.cpp:395] relu7_context -> fc7_context (in-place)
I0222 18:15:35.384678 11305 net.cpp:150] Setting up relu7_context
I0222 18:15:35.384682 11305 net.cpp:157] Top shape: 1 4096 (4096)
I0222 18:15:35.384685 11305 net.cpp:165] Memory required for data: 116187216
I0222 18:15:35.384686 11305 layer_factory.hpp:77] Creating layer drop7_context
I0222 18:15:35.384691 11305 net.cpp:100] Creating Layer drop7_context
I0222 18:15:35.384693 11305 net.cpp:434] drop7_context <- fc7_context
I0222 18:15:35.384696 11305 net.cpp:395] drop7_context -> fc7_context (in-place)
I0222 18:15:35.384712 11305 net.cpp:150] Setting up drop7_context
I0222 18:15:35.384716 11305 net.cpp:157] Top shape: 1 4096 (4096)
I0222 18:15:35.384718 11305 net.cpp:165] Memory required for data: 116203600
I0222 18:15:35.384721 11305 layer_factory.hpp:77] Creating layer fc7_output
I0222 18:15:35.384724 11305 net.cpp:100] Creating Layer fc7_output
I0222 18:15:35.384727 11305 net.cpp:434] fc7_output <- fc7
I0222 18:15:35.384729 11305 net.cpp:434] fc7_output <- fc7_context
I0222 18:15:35.384737 11305 net.cpp:408] fc7_output -> fc7_output
I0222 18:15:35.384754 11305 net.cpp:150] Setting up fc7_output
I0222 18:15:35.384758 11305 net.cpp:157] Top shape: 1 8192 (8192)
I0222 18:15:35.384759 11305 net.cpp:165] Memory required for data: 116236368
I0222 18:15:35.384763 11305 layer_factory.hpp:77] Creating layer fc7_output_fc7_output_0_split
I0222 18:15:35.384766 11305 net.cpp:100] Creating Layer fc7_output_fc7_output_0_split
I0222 18:15:35.384768 11305 net.cpp:434] fc7_output_fc7_output_0_split <- fc7_output
I0222 18:15:35.384773 11305 net.cpp:408] fc7_output_fc7_output_0_split -> fc7_output_fc7_output_0_split_0
I0222 18:15:35.384778 11305 net.cpp:408] fc7_output_fc7_output_0_split -> fc7_output_fc7_output_0_split_1
I0222 18:15:35.384785 11305 net.cpp:408] fc7_output_fc7_output_0_split -> fc7_output_fc7_output_0_split_2
I0222 18:15:35.384816 11305 net.cpp:150] Setting up fc7_output_fc7_output_0_split
I0222 18:15:35.384821 11305 net.cpp:157] Top shape: 1 8192 (8192)
I0222 18:15:35.384826 11305 net.cpp:157] Top shape: 1 8192 (8192)
I0222 18:15:35.384829 11305 net.cpp:157] Top shape: 1 8192 (8192)
I0222 18:15:35.384831 11305 net.cpp:165] Memory required for data: 116334672
I0222 18:15:35.384833 11305 layer_factory.hpp:77] Creating layer cls_score
I0222 18:15:35.384838 11305 net.cpp:100] Creating Layer cls_score
I0222 18:15:35.384841 11305 net.cpp:434] cls_score <- fc7_output_fc7_output_0_split_0
I0222 18:15:35.384846 11305 net.cpp:408] cls_score -> cls_score
I0222 18:15:35.385080 11305 net.cpp:150] Setting up cls_score
I0222 18:15:35.385085 11305 net.cpp:157] Top shape: 1 2 (2)
I0222 18:15:35.385088 11305 net.cpp:165] Memory required for data: 116334680
I0222 18:15:35.385092 11305 layer_factory.hpp:77] Creating layer bbox_pred
I0222 18:15:35.385097 11305 net.cpp:100] Creating Layer bbox_pred
I0222 18:15:35.385099 11305 net.cpp:434] bbox_pred <- fc7_output_fc7_output_0_split_1
I0222 18:15:35.385103 11305 net.cpp:408] bbox_pred -> bbox_pred
I0222 18:15:35.385676 11305 net.cpp:150] Setting up bbox_pred
I0222 18:15:35.385682 11305 net.cpp:157] Top shape: 1 8 (8)
I0222 18:15:35.385684 11305 net.cpp:165] Memory required for data: 116334712
I0222 18:15:35.385689 11305 layer_factory.hpp:77] Creating layer ort_pred
I0222 18:15:35.385699 11305 net.cpp:100] Creating Layer ort_pred
I0222 18:15:35.385701 11305 net.cpp:434] ort_pred <- fc7_output_fc7_output_0_split_2
I0222 18:15:35.385705 11305 net.cpp:408] ort_pred -> ort_pred
I0222 18:15:35.385895 11305 net.cpp:150] Setting up ort_pred
I0222 18:15:35.385900 11305 net.cpp:157] Top shape: 1 2 (2)
I0222 18:15:35.385901 11305 net.cpp:165] Memory required for data: 116334720
I0222 18:15:35.385905 11305 layer_factory.hpp:77] Creating layer cls_prob
I0222 18:15:35.385910 11305 net.cpp:100] Creating Layer cls_prob
I0222 18:15:35.385911 11305 net.cpp:434] cls_prob <- cls_score
I0222 18:15:35.385915 11305 net.cpp:408] cls_prob -> cls_prob
I0222 18:15:35.385952 11305 net.cpp:150] Setting up cls_prob
I0222 18:15:35.385957 11305 net.cpp:157] Top shape: 1 2 (2)
I0222 18:15:35.385958 11305 net.cpp:165] Memory required for data: 116334728
I0222 18:15:35.385960 11305 net.cpp:228] cls_prob does not need backward computation.
I0222 18:15:35.385963 11305 net.cpp:228] ort_pred does not need backward computation.
I0222 18:15:35.385965 11305 net.cpp:228] bbox_pred does not need backward computation.
I0222 18:15:35.385967 11305 net.cpp:228] cls_score does not need backward computation.
…
