…
I0702 23:12:08.128135  3815 solver.cpp:81] Creating training net from train_net file: kitti/models/kitti_car/VGG16/train.prototxt
I0702 23:12:08.128621  3815 net.cpp:58] Initializing net from parameters: 
name: "VGG_ILSVRC_16_layers"
state {
  phase: TRAIN
}
layer {
  name: "data"
  type: "Python"
  top: "data"
  top: "rois"
  top: "labels"
  top: "bbox_targets"
  top: "bbox_loss_weights"
  top: "ort_targets"
  top: "ort_loss_weights"
  python_param {
    module: "roi_data_layer.layer"
    layer: "RoIDataLayer"
    param_str: "\'num_classes\': 2"
  }
}
layer {
  name: "multi_rois"
  type: "Python"
  bottom: "rois"
  top: "context"
  python_param {
    module: "roi_data_layer.layer"
    layer: "MultiRoIDataLayer"
    param_str: "\'context\': 1.5"
  }
}
layer {
  name: "conv1_1"
  type: "Convolution"
  bottom: "data"
  top: "conv1_1"
  param {
    lr_mult: 0
    decay_mult: 0
  }
  param {
    lr_mult: 0
    decay_mult: 0
  }
  convolution_param {
    num_output: 64
    pad: 1
    kernel_size: 3
  }
}
layer {
  name: "relu1_1"
  type: "ReLU"
  bottom: "conv1_1"
  top: "conv1_1"
}
layer {
  name: "conv1_2"
  type: "Convolution"
  bottom: "conv1_1"
  top: "conv1_2"
  param {
    lr_mult: 0
    decay_mult: 0
  }
  param {
    lr_mult: 0
    decay_mult: 0
  }
  convolution_param {
    num_output: 64
    pad: 1
    kernel_size: 3
  }
}
layer {
  name: "relu1_2"
  type: "ReLU"
  bottom: "conv1_2"
  top: "conv1_2"
}
layer {
  name: "pool1"
  type: "Pooling"
  bottom: "conv1_2"
  top: "pool1"
  pooling_param {
    pool: MAX
    kernel_size: 2
    stride: 2
  }
}
layer {
  name: "conv2_1"
  type: "Convolution"
  bottom: "pool1"
  top: "conv2_1"
  param {
    lr_mult: 0
    decay_mult: 0
  }
  param {
    lr_mult: 0
    decay_mult: 0
  }
  convolution_param {
    num_output: 128
    pad: 1
    kernel_size: 3
  }
}
layer {
  name: "relu2_1"
  type: "ReLU"
  bottom: "conv2_1"
  top: "conv2_1"
}
layer {
  name: "conv2_2"
  type: "Convolution"
  bottom: "conv2_1"
  top: "conv2_2"
  param {
    lr_mult: 0
    decay_mult: 0
  }
  param {
    lr_mult: 0
    decay_mult: 0
  }
  convolution_param {
    num_output: 128
    pad: 1
    kernel_size: 3
  }
}
layer {
  name: "relu2_2"
  type: "ReLU"
  bottom: "conv2_2"
  top: "conv2_2"
}
layer {
  name: "pool2"
  type: "Pooling"
  bottom: "conv2_2"
  top: "pool2"
  pooling_param {
    pool: MAX
    kernel_size: 2
    stride: 2
  }
}
layer {
  name: "conv3_1"
  type: "Convolution"
  bottom: "pool2"
  top: "conv3_1"
  param {
    lr_mult: 1
    decay_mult: 1
  }
  param {
    lr_mult: 2
    decay_mult: 0
  }
  convolution_param {
    num_output: 256
    pad: 1
    kernel_size: 3
  }
}
layer {
  name: "relu3_1"
  type: "ReLU"
  bottom: "conv3_1"
  top: "conv3_1"
}
layer {
  name: "conv3_2"
  type: "Convolution"
  bottom: "conv3_1"
  top: "conv3_2"
  param {
    lr_mult: 1
    decay_mult: 1
  }
  param {
    lr_mult: 2
    decay_mult: 0
  }
  convolution_param {
    num_output: 256
    pad: 1
    kernel_size: 3
  }
}
layer {
  name: "relu3_2"
  type: "ReLU"
  bottom: "conv3_2"
  top: "conv3_2"
}
layer {
  name: "conv3_3"
  type: "Convolution"
  bottom: "conv3_2"
  top: "conv3_3"
  param {
    lr_mult: 1
    decay_mult: 1
  }
  param {
    lr_mult: 2
    decay_mult: 0
  }
  convolution_param {
    num_output: 256
    pad: 1
    kernel_size: 3
  }
}
layer {
  name: "relu3_3"
  type: "ReLU"
  bottom: "conv3_3"
  top: "conv3_3"
}
layer {
  name: "pool3"
  type: "Pooling"
  bottom: "conv3_3"
  top: "pool3"
  pooling_param {
    pool: MAX
    kernel_size: 2
    stride: 2
  }
}
layer {
  name: "conv4_1"
  type: "Convolution"
  bottom: "pool3"
  top: "conv4_1"
  param {
    lr_mult: 1
    decay_mult: 1
  }
  param {
    lr_mult: 2
    decay_mult: 0
  }
  convolution_param {
    num_output: 512
    pad: 1
    kernel_size: 3
  }
}
layer {
  name: "relu4_1"
  type: "ReLU"
  bottom: "conv4_1"
  top: "conv4_1"
}
layer {
  name: "conv4_2"
  type: "Convolution"
  bottom: "conv4_1"
  top: "conv4_2"
  param {
    lr_mult: 1
    decay_mult: 1
  }
  param {
    lr_mult: 2
    decay_mult: 0
  }
  convolution_param {
    num_output: 512
    pad: 1
    kernel_size: 3
  }
}
layer {
  name: "relu4_2"
  type: "ReLU"
  bottom: "conv4_2"
  top: "conv4_2"
}
layer {
  name: "conv4_3"
  type: "Convolution"
  bottom: "conv4_2"
  top: "conv4_3"
  param {
    lr_mult: 1
    decay_mult: 1
  }
  param {
    lr_mult: 2
    decay_mult: 0
  }
  convolution_param {
    num_output: 512
    pad: 1
    kernel_size: 3
  }
}
layer {
  name: "relu4_3"
  type: "ReLU"
  bottom: "conv4_3"
  top: "conv4_3"
}
layer {
  name: "pool4"
  type: "Pooling"
  bottom: "conv4_3"
  top: "pool4"
  pooling_param {
    pool: MAX
    kernel_size: 2
    stride: 2
  }
}
layer {
  name: "conv5_1"
  type: "Convolution"
  bottom: "pool4"
  top: "conv5_1"
  param {
    lr_mult: 1
    decay_mult: 1
  }
  param {
    lr_mult: 2
    decay_mult: 0
  }
  convolution_param {
    num_output: 512
    pad: 1
    kernel_size: 3
  }
}
layer {
  name: "relu5_1"
  type: "ReLU"
  bottom: "conv5_1"
  top: "conv5_1"
}
layer {
  name: "conv5_2"
  type: "Convolution"
  bottom: "conv5_1"
  top: "conv5_2"
  param {
    lr_mult: 1
    decay_mult: 1
  }
  param {
    lr_mult: 2
    decay_mult: 0
  }
  convolution_param {
    num_output: 512
    pad: 1
    kernel_size: 3
  }
}
layer {
  name: "relu5_2"
  type: "ReLU"
  bottom: "conv5_2"
  top: "conv5_2"
}
layer {
  name: "conv5_3"
  type: "Convolution"
  bottom: "conv5_2"
  top: "conv5_3"
  param {
    lr_mult: 1
    decay_mult: 1
  }
  param {
    lr_mult: 2
    decay_mult: 0
  }
  convolution_param {
    num_output: 512
    pad: 1
    kernel_size: 3
  }
}
layer {
  name: "relu5_3"
  type: "ReLU"
  bottom: "conv5_3"
  top: "conv5_3"
}
layer {
  name: "roi_pool5"
  type: "ROIPooling"
  bottom: "conv5_3"
  bottom: "rois"
  top: "pool5"
  roi_pooling_param {
    pooled_h: 7
    pooled_w: 7
    spatial_scale: 0.0625
  }
}
layer {
  name: "fc6"
  type: "InnerProduct"
  bottom: "pool5"
  top: "fc6"
  param {
    lr_mult: 1
    decay_mult: 1
  }
  param {
    lr_mult: 2
    decay_mult: 0
  }
  inner_product_param {
    num_output: 4096
  }
}
layer {
  name: "relu6"
  type: "ReLU"
  bottom: "fc6"
  top: "fc6"
}
layer {
  name: "drop6"
  type: "Dropout"
  bottom: "fc6"
  top: "fc6"
  dropout_param {
    dropout_ratio: 0.5
  }
}
layer {
  name: "fc7"
  type: "InnerProduct"
  bottom: "fc6"
  top: "fc7"
  param {
    lr_mult: 1
    decay_mult: 1
  }
  param {
    lr_mult: 2
    decay_mult: 0
  }
  inner_product_param {
    num_output: 4096
  }
}
layer {
  name: "relu7"
  type: "ReLU"
  bottom: "fc7"
  top: "fc7"
}
layer {
  name: "drop7"
  type: "Dropout"
  bottom: "fc7"
  top: "fc7"
  dropout_param {
    dropout_ratio: 0.5
  }
}
layer {
  name: "roi_pool5_context"
  type: "ROIPooling"
  bottom: "conv5_3"
  bottom: "context"
  top: "pool5_context"
  roi_pooling_param {
    pooled_h: 7
    pooled_w: 7
    spatial_scale: 0.0625
  }
}
layer {
  name: "fc6_context"
  type: "InnerProduct"
  bottom: "pool5_context"
  top: "fc6_context"
  param {
    lr_mult: 1
    decay_mult: 1
  }
  param {
    lr_mult: 2
    decay_mult: 0
  }
  inner_product_param {
    num_output: 4096
  }
}
layer {
  name: "relu6_context"
  type: "ReLU"
  bottom: "fc6_context"
  top: "fc6_context"
}
layer {
  name: "drop6_context"
  type: "Dropout"
  bottom: "fc6_context"
  top: "fc6_context"
  dropout_param {
    dropout_ratio: 0.5
  }
}
layer {
  name: "fc7_context"
  type: "InnerProduct"
  bottom: "fc6_context"
  top: "fc7_context"
  param {
    lr_mult: 1
    decay_mult: 1
  }
  param {
    lr_mult: 2
    decay_mult: 0
  }
  inner_product_param {
    num_output: 4096
  }
}
layer {
  name: "relu7_context"
  type: "ReLU"
  bottom: "fc7_context"
  top: "fc7_context"
}
layer {
  name: "drop7_context"
  type: "Dropout"
  bottom: "fc7_context"
  top: "fc7_context"
  dropout_param {
    dropout_ratio: 0.5
  }
}
layer {
  name: "fc7_output"
  type: "Concat"
  bottom: "fc7"
  bottom: "fc7_context"
  top: "fc7_output"
}
layer {
  name: "cls_score"
  type: "InnerProduct"
  bottom: "fc7_output"
  top: "cls_score"
  param {
    lr_mult: 1
    decay_mult: 1
  }
  param {
    lr_mult: 2
    decay_mult: 0
  }
  inner_product_param {
    num_output: 2
    weight_filler {
      type: "gaussian"
      std: 0.01
    }
    bias_filler {
      type: "constant"
      value: 0
    }
  }
}
layer {
  name: "bbox_pred"
  type: "InnerProduct"
  bottom: "fc7_output"
  top: "bbox_pred"
  param {
    lr_mult: 1
    decay_mult: 1
  }
  param {
    lr_mult: 2
    decay_mult: 0
  }
  inner_product_param {
    num_output: 8
    weight_filler {
      type: "gaussian"
      std: 0.001
    }
    bias_filler {
      type: "constant"
      value: 0
    }
  }
}
layer {
  name: "ort_pred"
  type: "InnerProduct"
  bottom: "fc7_output"
  top: "ort_pred"
  param {
    lr_mult: 1
    decay_mult: 1
  }
  param {
    lr_mult: 2
    decay_mult: 0
  }
  inner_product_param {
    num_output: 2
    weight_filler {
      type: "gaussian"
      std: 0.001
    }
    bias_filler {
      type: "constant"
      value: 0
    }
  }
}
layer {
  name: "loss_cls"
  type: "SoftmaxWithLoss"
  bottom: "cls_score"
  bottom: "labels"
  top: "loss_cls"
  loss_weight: 1
}
layer {
  name: "loss_bbox"
  type: "SmoothL1Loss"
  bottom: "bbox_pred"
  bottom: "bbox_targets"
  bottom: "bbox_loss_weights"
  top: "loss_bbox"
  loss_weight: 1
}
layer {
  name: "loss_ort"
  type: "SmoothL1Loss"
  bottom: "ort_pred"
  bottom: "ort_targets"
  bottom: "ort_loss_weights"
  top: "loss_ort"
  loss_weight: 1
}
I0702 23:12:08.128823  3815 layer_factory.hpp:77] Creating layer data
I0702 23:12:08.129258  3815 net.cpp:100] Creating Layer data
I0702 23:12:08.129267  3815 net.cpp:408] data -> data
I0702 23:12:08.129278  3815 net.cpp:408] data -> rois
I0702 23:12:08.129285  3815 net.cpp:408] data -> labels
I0702 23:12:08.129292  3815 net.cpp:408] data -> bbox_targets
I0702 23:12:08.129298  3815 net.cpp:408] data -> bbox_loss_weights
I0702 23:12:08.129307  3815 net.cpp:408] data -> ort_targets
I0702 23:12:08.129312  3815 net.cpp:408] data -> ort_loss_weights
I0702 23:12:08.145829  3815 net.cpp:150] Setting up data
I0702 23:12:08.145853  3815 net.cpp:157] Top shape: 1 3 100 100 (30000)
I0702 23:12:08.145856  3815 net.cpp:157] Top shape: 1 5 (5)
I0702 23:12:08.145859  3815 net.cpp:157] Top shape: 1 (1)
I0702 23:12:08.145864  3815 net.cpp:157] Top shape: 1 8 (8)
I0702 23:12:08.145869  3815 net.cpp:157] Top shape: 1 8 (8)
I0702 23:12:08.145871  3815 net.cpp:157] Top shape: 1 2 (2)
I0702 23:12:08.145874  3815 net.cpp:157] Top shape: 1 2 (2)
I0702 23:12:08.145875  3815 net.cpp:165] Memory required for data: 120104
I0702 23:12:08.145880  3815 layer_factory.hpp:77] Creating layer rois_data_1_split
I0702 23:12:08.145891  3815 net.cpp:100] Creating Layer rois_data_1_split
I0702 23:12:08.145896  3815 net.cpp:434] rois_data_1_split <- rois
I0702 23:12:08.145903  3815 net.cpp:408] rois_data_1_split -> rois_data_1_split_0
I0702 23:12:08.145912  3815 net.cpp:408] rois_data_1_split -> rois_data_1_split_1
I0702 23:12:08.145951  3815 net.cpp:150] Setting up rois_data_1_split
I0702 23:12:08.145956  3815 net.cpp:157] Top shape: 1 5 (5)
I0702 23:12:08.145959  3815 net.cpp:157] Top shape: 1 5 (5)
I0702 23:12:08.145961  3815 net.cpp:165] Memory required for data: 120144
I0702 23:12:08.145963  3815 layer_factory.hpp:77] Creating layer multi_rois
I0702 23:12:08.145992  3815 net.cpp:100] Creating Layer multi_rois
I0702 23:12:08.145997  3815 net.cpp:434] multi_rois <- rois_data_1_split_0
I0702 23:12:08.146001  3815 net.cpp:408] multi_rois -> context
'context': 1.5
I0702 23:12:08.146330  3815 net.cpp:150] Setting up multi_rois
I0702 23:12:08.146338  3815 net.cpp:157] Top shape: 1 5 (5)
I0702 23:12:08.146340  3815 net.cpp:165] Memory required for data: 120164
I0702 23:12:08.146343  3815 layer_factory.hpp:77] Creating layer conv1_1
I0702 23:12:08.146351  3815 net.cpp:100] Creating Layer conv1_1
I0702 23:12:08.146353  3815 net.cpp:434] conv1_1 <- data
I0702 23:12:08.146358  3815 net.cpp:408] conv1_1 -> conv1_1
I0702 23:12:08.148463  3815 net.cpp:150] Setting up conv1_1
I0702 23:12:08.148474  3815 net.cpp:157] Top shape: 1 64 100 100 (640000)
I0702 23:12:08.148478  3815 net.cpp:165] Memory required for data: 2680164
I0702 23:12:08.148485  3815 layer_factory.hpp:77] Creating layer relu1_1
I0702 23:12:08.148491  3815 net.cpp:100] Creating Layer relu1_1
I0702 23:12:08.148494  3815 net.cpp:434] relu1_1 <- conv1_1
I0702 23:12:08.148497  3815 net.cpp:395] relu1_1 -> conv1_1 (in-place)
I0702 23:12:08.148502  3815 net.cpp:150] Setting up relu1_1
I0702 23:12:08.148505  3815 net.cpp:157] Top shape: 1 64 100 100 (640000)
I0702 23:12:08.148507  3815 net.cpp:165] Memory required for data: 5240164
I0702 23:12:08.148510  3815 layer_factory.hpp:77] Creating layer conv1_2
I0702 23:12:08.148515  3815 net.cpp:100] Creating Layer conv1_2
I0702 23:12:08.148519  3815 net.cpp:434] conv1_2 <- conv1_1
I0702 23:12:08.148521  3815 net.cpp:408] conv1_2 -> conv1_2
I0702 23:12:08.149740  3815 net.cpp:150] Setting up conv1_2
I0702 23:12:08.149751  3815 net.cpp:157] Top shape: 1 64 100 100 (640000)
I0702 23:12:08.149755  3815 net.cpp:165] Memory required for data: 7800164
I0702 23:12:08.149762  3815 layer_factory.hpp:77] Creating layer relu1_2
I0702 23:12:08.149770  3815 net.cpp:100] Creating Layer relu1_2
I0702 23:12:08.149773  3815 net.cpp:434] relu1_2 <- conv1_2
I0702 23:12:08.149777  3815 net.cpp:395] relu1_2 -> conv1_2 (in-place)
I0702 23:12:08.149781  3815 net.cpp:150] Setting up relu1_2
I0702 23:12:08.149785  3815 net.cpp:157] Top shape: 1 64 100 100 (640000)
I0702 23:12:08.149786  3815 net.cpp:165] Memory required for data: 10360164
I0702 23:12:08.149788  3815 layer_factory.hpp:77] Creating layer pool1
I0702 23:12:08.149793  3815 net.cpp:100] Creating Layer pool1
I0702 23:12:08.149794  3815 net.cpp:434] pool1 <- conv1_2
I0702 23:12:08.149799  3815 net.cpp:408] pool1 -> pool1
I0702 23:12:08.149844  3815 net.cpp:150] Setting up pool1
I0702 23:12:08.149850  3815 net.cpp:157] Top shape: 1 64 50 50 (160000)
I0702 23:12:08.149852  3815 net.cpp:165] Memory required for data: 11000164
I0702 23:12:08.149854  3815 layer_factory.hpp:77] Creating layer conv2_1
I0702 23:12:08.149863  3815 net.cpp:100] Creating Layer conv2_1
I0702 23:12:08.149866  3815 net.cpp:434] conv2_1 <- pool1
I0702 23:12:08.149871  3815 net.cpp:408] conv2_1 -> conv2_1
I0702 23:12:08.151078  3815 net.cpp:150] Setting up conv2_1
I0702 23:12:08.151089  3815 net.cpp:157] Top shape: 1 128 50 50 (320000)
I0702 23:12:08.151091  3815 net.cpp:165] Memory required for data: 12280164
I0702 23:12:08.151098  3815 layer_factory.hpp:77] Creating layer relu2_1
I0702 23:12:08.151103  3815 net.cpp:100] Creating Layer relu2_1
I0702 23:12:08.151105  3815 net.cpp:434] relu2_1 <- conv2_1
I0702 23:12:08.151108  3815 net.cpp:395] relu2_1 -> conv2_1 (in-place)
I0702 23:12:08.151113  3815 net.cpp:150] Setting up relu2_1
I0702 23:12:08.151116  3815 net.cpp:157] Top shape: 1 128 50 50 (320000)
I0702 23:12:08.151118  3815 net.cpp:165] Memory required for data: 13560164
I0702 23:12:08.151120  3815 layer_factory.hpp:77] Creating layer conv2_2
I0702 23:12:08.151125  3815 net.cpp:100] Creating Layer conv2_2
I0702 23:12:08.151127  3815 net.cpp:434] conv2_2 <- conv2_1
I0702 23:12:08.151131  3815 net.cpp:408] conv2_2 -> conv2_2
I0702 23:12:08.151463  3815 net.cpp:150] Setting up conv2_2
I0702 23:12:08.151470  3815 net.cpp:157] Top shape: 1 128 50 50 (320000)
I0702 23:12:08.151473  3815 net.cpp:165] Memory required for data: 14840164
I0702 23:12:08.151477  3815 layer_factory.hpp:77] Creating layer relu2_2
I0702 23:12:08.151484  3815 net.cpp:100] Creating Layer relu2_2
I0702 23:12:08.151485  3815 net.cpp:434] relu2_2 <- conv2_2
I0702 23:12:08.151490  3815 net.cpp:395] relu2_2 -> conv2_2 (in-place)
I0702 23:12:08.151495  3815 net.cpp:150] Setting up relu2_2
I0702 23:12:08.151499  3815 net.cpp:157] Top shape: 1 128 50 50 (320000)
I0702 23:12:08.151500  3815 net.cpp:165] Memory required for data: 16120164
I0702 23:12:08.151502  3815 layer_factory.hpp:77] Creating layer pool2
I0702 23:12:08.151507  3815 net.cpp:100] Creating Layer pool2
I0702 23:12:08.151510  3815 net.cpp:434] pool2 <- conv2_2
I0702 23:12:08.151512  3815 net.cpp:408] pool2 -> pool2
I0702 23:12:08.151553  3815 net.cpp:150] Setting up pool2
I0702 23:12:08.151559  3815 net.cpp:157] Top shape: 1 128 25 25 (80000)
I0702 23:12:08.151561  3815 net.cpp:165] Memory required for data: 16440164
I0702 23:12:08.151563  3815 layer_factory.hpp:77] Creating layer conv3_1
I0702 23:12:08.151567  3815 net.cpp:100] Creating Layer conv3_1
I0702 23:12:08.151571  3815 net.cpp:434] conv3_1 <- pool2
I0702 23:12:08.151574  3815 net.cpp:408] conv3_1 -> conv3_1
I0702 23:12:08.152878  3815 net.cpp:150] Setting up conv3_1
I0702 23:12:08.152887  3815 net.cpp:157] Top shape: 1 256 25 25 (160000)
I0702 23:12:08.152890  3815 net.cpp:165] Memory required for data: 17080164
I0702 23:12:08.152896  3815 layer_factory.hpp:77] Creating layer relu3_1
I0702 23:12:08.152900  3815 net.cpp:100] Creating Layer relu3_1
I0702 23:12:08.152904  3815 net.cpp:434] relu3_1 <- conv3_1
I0702 23:12:08.152909  3815 net.cpp:395] relu3_1 -> conv3_1 (in-place)
I0702 23:12:08.152912  3815 net.cpp:150] Setting up relu3_1
I0702 23:12:08.152915  3815 net.cpp:157] Top shape: 1 256 25 25 (160000)
I0702 23:12:08.152917  3815 net.cpp:165] Memory required for data: 17720164
I0702 23:12:08.152920  3815 layer_factory.hpp:77] Creating layer conv3_2
I0702 23:12:08.152925  3815 net.cpp:100] Creating Layer conv3_2
I0702 23:12:08.152927  3815 net.cpp:434] conv3_2 <- conv3_1
I0702 23:12:08.152931  3815 net.cpp:408] conv3_2 -> conv3_2
I0702 23:12:08.154487  3815 net.cpp:150] Setting up conv3_2
I0702 23:12:08.154498  3815 net.cpp:157] Top shape: 1 256 25 25 (160000)
I0702 23:12:08.154501  3815 net.cpp:165] Memory required for data: 18360164
I0702 23:12:08.154505  3815 layer_factory.hpp:77] Creating layer relu3_2
I0702 23:12:08.154511  3815 net.cpp:100] Creating Layer relu3_2
I0702 23:12:08.154515  3815 net.cpp:434] relu3_2 <- conv3_2
I0702 23:12:08.154518  3815 net.cpp:395] relu3_2 -> conv3_2 (in-place)
I0702 23:12:08.154522  3815 net.cpp:150] Setting up relu3_2
I0702 23:12:08.154525  3815 net.cpp:157] Top shape: 1 256 25 25 (160000)
I0702 23:12:08.154527  3815 net.cpp:165] Memory required for data: 19000164
I0702 23:12:08.154530  3815 layer_factory.hpp:77] Creating layer conv3_3
I0702 23:12:08.154534  3815 net.cpp:100] Creating Layer conv3_3
I0702 23:12:08.154536  3815 net.cpp:434] conv3_3 <- conv3_2
I0702 23:12:08.154541  3815 net.cpp:408] conv3_3 -> conv3_3
I0702 23:12:08.156123  3815 net.cpp:150] Setting up conv3_3
I0702 23:12:08.156133  3815 net.cpp:157] Top shape: 1 256 25 25 (160000)
I0702 23:12:08.156136  3815 net.cpp:165] Memory required for data: 19640164
I0702 23:12:08.156141  3815 layer_factory.hpp:77] Creating layer relu3_3
I0702 23:12:08.156146  3815 net.cpp:100] Creating Layer relu3_3
I0702 23:12:08.156148  3815 net.cpp:434] relu3_3 <- conv3_3
I0702 23:12:08.156153  3815 net.cpp:395] relu3_3 -> conv3_3 (in-place)
I0702 23:12:08.156159  3815 net.cpp:150] Setting up relu3_3
I0702 23:12:08.156162  3815 net.cpp:157] Top shape: 1 256 25 25 (160000)
I0702 23:12:08.156164  3815 net.cpp:165] Memory required for data: 20280164
I0702 23:12:08.156167  3815 layer_factory.hpp:77] Creating layer pool3
I0702 23:12:08.156170  3815 net.cpp:100] Creating Layer pool3
I0702 23:12:08.156172  3815 net.cpp:434] pool3 <- conv3_3
I0702 23:12:08.156177  3815 net.cpp:408] pool3 -> pool3
I0702 23:12:08.156224  3815 net.cpp:150] Setting up pool3
I0702 23:12:08.156229  3815 net.cpp:157] Top shape: 1 256 13 13 (43264)
I0702 23:12:08.156231  3815 net.cpp:165] Memory required for data: 20453220
I0702 23:12:08.156234  3815 layer_factory.hpp:77] Creating layer conv4_1
I0702 23:12:08.156239  3815 net.cpp:100] Creating Layer conv4_1
I0702 23:12:08.156241  3815 net.cpp:434] conv4_1 <- pool3
I0702 23:12:08.156245  3815 net.cpp:408] conv4_1 -> conv4_1
I0702 23:12:08.158576  3815 net.cpp:150] Setting up conv4_1
I0702 23:12:08.158601  3815 net.cpp:157] Top shape: 1 512 13 13 (86528)
I0702 23:12:08.158604  3815 net.cpp:165] Memory required for data: 20799332
I0702 23:12:08.158608  3815 layer_factory.hpp:77] Creating layer relu4_1
I0702 23:12:08.158612  3815 net.cpp:100] Creating Layer relu4_1
I0702 23:12:08.158615  3815 net.cpp:434] relu4_1 <- conv4_1
I0702 23:12:08.158619  3815 net.cpp:395] relu4_1 -> conv4_1 (in-place)
I0702 23:12:08.158624  3815 net.cpp:150] Setting up relu4_1
I0702 23:12:08.158627  3815 net.cpp:157] Top shape: 1 512 13 13 (86528)
I0702 23:12:08.158629  3815 net.cpp:165] Memory required for data: 21145444
I0702 23:12:08.158632  3815 layer_factory.hpp:77] Creating layer conv4_2
I0702 23:12:08.158638  3815 net.cpp:100] Creating Layer conv4_2
I0702 23:12:08.158641  3815 net.cpp:434] conv4_2 <- conv4_1
I0702 23:12:08.158646  3815 net.cpp:408] conv4_2 -> conv4_2
I0702 23:12:08.162675  3815 net.cpp:150] Setting up conv4_2
I0702 23:12:08.162693  3815 net.cpp:157] Top shape: 1 512 13 13 (86528)
I0702 23:12:08.162696  3815 net.cpp:165] Memory required for data: 21491556
I0702 23:12:08.162706  3815 layer_factory.hpp:77] Creating layer relu4_2
I0702 23:12:08.162714  3815 net.cpp:100] Creating Layer relu4_2
I0702 23:12:08.162716  3815 net.cpp:434] relu4_2 <- conv4_2
I0702 23:12:08.162721  3815 net.cpp:395] relu4_2 -> conv4_2 (in-place)
I0702 23:12:08.162729  3815 net.cpp:150] Setting up relu4_2
I0702 23:12:08.162731  3815 net.cpp:157] Top shape: 1 512 13 13 (86528)
I0702 23:12:08.162732  3815 net.cpp:165] Memory required for data: 21837668
I0702 23:12:08.162735  3815 layer_factory.hpp:77] Creating layer conv4_3
I0702 23:12:08.162740  3815 net.cpp:100] Creating Layer conv4_3
I0702 23:12:08.162742  3815 net.cpp:434] conv4_3 <- conv4_2
I0702 23:12:08.162746  3815 net.cpp:408] conv4_3 -> conv4_3
I0702 23:12:08.166721  3815 net.cpp:150] Setting up conv4_3
I0702 23:12:08.166751  3815 net.cpp:157] Top shape: 1 512 13 13 (86528)
I0702 23:12:08.166754  3815 net.cpp:165] Memory required for data: 22183780
I0702 23:12:08.166759  3815 layer_factory.hpp:77] Creating layer relu4_3
I0702 23:12:08.166765  3815 net.cpp:100] Creating Layer relu4_3
I0702 23:12:08.166769  3815 net.cpp:434] relu4_3 <- conv4_3
I0702 23:12:08.166774  3815 net.cpp:395] relu4_3 -> conv4_3 (in-place)
I0702 23:12:08.166779  3815 net.cpp:150] Setting up relu4_3
I0702 23:12:08.166782  3815 net.cpp:157] Top shape: 1 512 13 13 (86528)
I0702 23:12:08.166785  3815 net.cpp:165] Memory required for data: 22529892
I0702 23:12:08.166786  3815 layer_factory.hpp:77] Creating layer pool4
I0702 23:12:08.166791  3815 net.cpp:100] Creating Layer pool4
I0702 23:12:08.166793  3815 net.cpp:434] pool4 <- conv4_3
I0702 23:12:08.166797  3815 net.cpp:408] pool4 -> pool4
I0702 23:12:08.166844  3815 net.cpp:150] Setting up pool4
I0702 23:12:08.166851  3815 net.cpp:157] Top shape: 1 512 7 7 (25088)
I0702 23:12:08.166853  3815 net.cpp:165] Memory required for data: 22630244
I0702 23:12:08.166855  3815 layer_factory.hpp:77] Creating layer conv5_1
I0702 23:12:08.166862  3815 net.cpp:100] Creating Layer conv5_1
I0702 23:12:08.166864  3815 net.cpp:434] conv5_1 <- pool4
I0702 23:12:08.166868  3815 net.cpp:408] conv5_1 -> conv5_1
I0702 23:12:08.170713  3815 net.cpp:150] Setting up conv5_1
I0702 23:12:08.170747  3815 net.cpp:157] Top shape: 1 512 7 7 (25088)
I0702 23:12:08.170749  3815 net.cpp:165] Memory required for data: 22730596
I0702 23:12:08.170754  3815 layer_factory.hpp:77] Creating layer relu5_1
I0702 23:12:08.170760  3815 net.cpp:100] Creating Layer relu5_1
I0702 23:12:08.170763  3815 net.cpp:434] relu5_1 <- conv5_1
I0702 23:12:08.170768  3815 net.cpp:395] relu5_1 -> conv5_1 (in-place)
I0702 23:12:08.170771  3815 net.cpp:150] Setting up relu5_1
I0702 23:12:08.170776  3815 net.cpp:157] Top shape: 1 512 7 7 (25088)
I0702 23:12:08.170779  3815 net.cpp:165] Memory required for data: 22830948
I0702 23:12:08.170783  3815 layer_factory.hpp:77] Creating layer conv5_2
I0702 23:12:08.170789  3815 net.cpp:100] Creating Layer conv5_2
I0702 23:12:08.170791  3815 net.cpp:434] conv5_2 <- conv5_1
I0702 23:12:08.170795  3815 net.cpp:408] conv5_2 -> conv5_2
I0702 23:12:08.174657  3815 net.cpp:150] Setting up conv5_2
I0702 23:12:08.174685  3815 net.cpp:157] Top shape: 1 512 7 7 (25088)
I0702 23:12:08.174688  3815 net.cpp:165] Memory required for data: 22931300
I0702 23:12:08.174693  3815 layer_factory.hpp:77] Creating layer relu5_2
I0702 23:12:08.174700  3815 net.cpp:100] Creating Layer relu5_2
I0702 23:12:08.174702  3815 net.cpp:434] relu5_2 <- conv5_2
I0702 23:12:08.174706  3815 net.cpp:395] relu5_2 -> conv5_2 (in-place)
I0702 23:12:08.174711  3815 net.cpp:150] Setting up relu5_2
I0702 23:12:08.174715  3815 net.cpp:157] Top shape: 1 512 7 7 (25088)
I0702 23:12:08.174716  3815 net.cpp:165] Memory required for data: 23031652
I0702 23:12:08.174718  3815 layer_factory.hpp:77] Creating layer conv5_3
I0702 23:12:08.174724  3815 net.cpp:100] Creating Layer conv5_3
I0702 23:12:08.174726  3815 net.cpp:434] conv5_3 <- conv5_2
I0702 23:12:08.174731  3815 net.cpp:408] conv5_3 -> conv5_3
I0702 23:12:08.178561  3815 net.cpp:150] Setting up conv5_3
I0702 23:12:08.178589  3815 net.cpp:157] Top shape: 1 512 7 7 (25088)
I0702 23:12:08.178591  3815 net.cpp:165] Memory required for data: 23132004
I0702 23:12:08.178596  3815 layer_factory.hpp:77] Creating layer relu5_3
I0702 23:12:08.178606  3815 net.cpp:100] Creating Layer relu5_3
I0702 23:12:08.178609  3815 net.cpp:434] relu5_3 <- conv5_3
I0702 23:12:08.178613  3815 net.cpp:395] relu5_3 -> conv5_3 (in-place)
I0702 23:12:08.178618  3815 net.cpp:150] Setting up relu5_3
I0702 23:12:08.178622  3815 net.cpp:157] Top shape: 1 512 7 7 (25088)
I0702 23:12:08.178623  3815 net.cpp:165] Memory required for data: 23232356
I0702 23:12:08.178625  3815 layer_factory.hpp:77] Creating layer conv5_3_relu5_3_0_split
I0702 23:12:08.178628  3815 net.cpp:100] Creating Layer conv5_3_relu5_3_0_split
I0702 23:12:08.178632  3815 net.cpp:434] conv5_3_relu5_3_0_split <- conv5_3
I0702 23:12:08.178634  3815 net.cpp:408] conv5_3_relu5_3_0_split -> conv5_3_relu5_3_0_split_0
I0702 23:12:08.178639  3815 net.cpp:408] conv5_3_relu5_3_0_split -> conv5_3_relu5_3_0_split_1
I0702 23:12:08.178684  3815 net.cpp:150] Setting up conv5_3_relu5_3_0_split
I0702 23:12:08.178694  3815 net.cpp:157] Top shape: 1 512 7 7 (25088)
I0702 23:12:08.178697  3815 net.cpp:157] Top shape: 1 512 7 7 (25088)
I0702 23:12:08.178699  3815 net.cpp:165] Memory required for data: 23433060
I0702 23:12:08.178701  3815 layer_factory.hpp:77] Creating layer roi_pool5
I0702 23:12:08.178706  3815 net.cpp:100] Creating Layer roi_pool5
I0702 23:12:08.178709  3815 net.cpp:434] roi_pool5 <- conv5_3_relu5_3_0_split_0
I0702 23:12:08.178712  3815 net.cpp:434] roi_pool5 <- rois_data_1_split_1
I0702 23:12:08.178716  3815 net.cpp:408] roi_pool5 -> pool5
I0702 23:12:08.178721  3815 roi_pooling_layer.cpp:30] Spatial scale: 0.0625
I0702 23:12:08.178768  3815 net.cpp:150] Setting up roi_pool5
I0702 23:12:08.178774  3815 net.cpp:157] Top shape: 1 512 7 7 (25088)
I0702 23:12:08.178776  3815 net.cpp:165] Memory required for data: 23533412
I0702 23:12:08.178778  3815 layer_factory.hpp:77] Creating layer fc6
I0702 23:12:08.178786  3815 net.cpp:100] Creating Layer fc6
I0702 23:12:08.178787  3815 net.cpp:434] fc6 <- pool5
I0702 23:12:08.178792  3815 net.cpp:408] fc6 -> fc6
I0702 23:12:08.337172  3815 net.cpp:150] Setting up fc6
I0702 23:12:08.337213  3815 net.cpp:157] Top shape: 1 4096 (4096)
I0702 23:12:08.337214  3815 net.cpp:165] Memory required for data: 23549796
I0702 23:12:08.337224  3815 layer_factory.hpp:77] Creating layer relu6
I0702 23:12:08.337232  3815 net.cpp:100] Creating Layer relu6
I0702 23:12:08.337236  3815 net.cpp:434] relu6 <- fc6
I0702 23:12:08.337242  3815 net.cpp:395] relu6 -> fc6 (in-place)
I0702 23:12:08.337249  3815 net.cpp:150] Setting up relu6
I0702 23:12:08.337251  3815 net.cpp:157] Top shape: 1 4096 (4096)
I0702 23:12:08.337254  3815 net.cpp:165] Memory required for data: 23566180
I0702 23:12:08.337255  3815 layer_factory.hpp:77] Creating layer drop6
I0702 23:12:08.337260  3815 net.cpp:100] Creating Layer drop6
I0702 23:12:08.337262  3815 net.cpp:434] drop6 <- fc6
I0702 23:12:08.337265  3815 net.cpp:395] drop6 -> fc6 (in-place)
I0702 23:12:08.337290  3815 net.cpp:150] Setting up drop6
I0702 23:12:08.337293  3815 net.cpp:157] Top shape: 1 4096 (4096)
I0702 23:12:08.337296  3815 net.cpp:165] Memory required for data: 23582564
I0702 23:12:08.337299  3815 layer_factory.hpp:77] Creating layer fc7
I0702 23:12:08.337306  3815 net.cpp:100] Creating Layer fc7
I0702 23:12:08.337308  3815 net.cpp:434] fc7 <- fc6
I0702 23:12:08.337312  3815 net.cpp:408] fc7 -> fc7
I0702 23:12:08.364208  3815 net.cpp:150] Setting up fc7
I0702 23:12:08.364231  3815 net.cpp:157] Top shape: 1 4096 (4096)
I0702 23:12:08.364233  3815 net.cpp:165] Memory required for data: 23598948
I0702 23:12:08.364243  3815 layer_factory.hpp:77] Creating layer relu7
I0702 23:12:08.364250  3815 net.cpp:100] Creating Layer relu7
I0702 23:12:08.364253  3815 net.cpp:434] relu7 <- fc7
I0702 23:12:08.364259  3815 net.cpp:395] relu7 -> fc7 (in-place)
I0702 23:12:08.364267  3815 net.cpp:150] Setting up relu7
I0702 23:12:08.364270  3815 net.cpp:157] Top shape: 1 4096 (4096)
I0702 23:12:08.364271  3815 net.cpp:165] Memory required for data: 23615332
I0702 23:12:08.364274  3815 layer_factory.hpp:77] Creating layer drop7
I0702 23:12:08.364279  3815 net.cpp:100] Creating Layer drop7
I0702 23:12:08.364280  3815 net.cpp:434] drop7 <- fc7
I0702 23:12:08.364284  3815 net.cpp:395] drop7 -> fc7 (in-place)
I0702 23:12:08.364307  3815 net.cpp:150] Setting up drop7
I0702 23:12:08.364310  3815 net.cpp:157] Top shape: 1 4096 (4096)
I0702 23:12:08.364312  3815 net.cpp:165] Memory required for data: 23631716
I0702 23:12:08.364315  3815 layer_factory.hpp:77] Creating layer roi_pool5_context
I0702 23:12:08.364320  3815 net.cpp:100] Creating Layer roi_pool5_context
I0702 23:12:08.364322  3815 net.cpp:434] roi_pool5_context <- conv5_3_relu5_3_0_split_1
I0702 23:12:08.364326  3815 net.cpp:434] roi_pool5_context <- context
I0702 23:12:08.364332  3815 net.cpp:408] roi_pool5_context -> pool5_context
I0702 23:12:08.364346  3815 roi_pooling_layer.cpp:30] Spatial scale: 0.0625
I0702 23:12:08.364404  3815 net.cpp:150] Setting up roi_pool5_context
I0702 23:12:08.364410  3815 net.cpp:157] Top shape: 1 512 7 7 (25088)
I0702 23:12:08.364413  3815 net.cpp:165] Memory required for data: 23732068
I0702 23:12:08.364414  3815 layer_factory.hpp:77] Creating layer fc6_context
I0702 23:12:08.364421  3815 net.cpp:100] Creating Layer fc6_context
I0702 23:12:08.364424  3815 net.cpp:434] fc6_context <- pool5_context
I0702 23:12:08.364429  3815 net.cpp:408] fc6_context -> fc6_context
I0702 23:12:08.523334  3815 net.cpp:150] Setting up fc6_context
I0702 23:12:08.523355  3815 net.cpp:157] Top shape: 1 4096 (4096)
I0702 23:12:08.523356  3815 net.cpp:165] Memory required for data: 23748452
I0702 23:12:08.523365  3815 layer_factory.hpp:77] Creating layer relu6_context
I0702 23:12:08.523372  3815 net.cpp:100] Creating Layer relu6_context
I0702 23:12:08.523376  3815 net.cpp:434] relu6_context <- fc6_context
I0702 23:12:08.523381  3815 net.cpp:395] relu6_context -> fc6_context (in-place)
I0702 23:12:08.523389  3815 net.cpp:150] Setting up relu6_context
I0702 23:12:08.523391  3815 net.cpp:157] Top shape: 1 4096 (4096)
I0702 23:12:08.523393  3815 net.cpp:165] Memory required for data: 23764836
I0702 23:12:08.523396  3815 layer_factory.hpp:77] Creating layer drop6_context
I0702 23:12:08.523401  3815 net.cpp:100] Creating Layer drop6_context
I0702 23:12:08.523401  3815 net.cpp:434] drop6_context <- fc6_context
I0702 23:12:08.523406  3815 net.cpp:395] drop6_context -> fc6_context (in-place)
I0702 23:12:08.523445  3815 net.cpp:150] Setting up drop6_context
I0702 23:12:08.523448  3815 net.cpp:157] Top shape: 1 4096 (4096)
I0702 23:12:08.523450  3815 net.cpp:165] Memory required for data: 23781220
I0702 23:12:08.523452  3815 layer_factory.hpp:77] Creating layer fc7_context
I0702 23:12:08.523458  3815 net.cpp:100] Creating Layer fc7_context
I0702 23:12:08.523458  3815 net.cpp:434] fc7_context <- fc6_context
I0702 23:12:08.523463  3815 net.cpp:408] fc7_context -> fc7_context
I0702 23:12:08.550287  3815 net.cpp:150] Setting up fc7_context
I0702 23:12:08.550324  3815 net.cpp:157] Top shape: 1 4096 (4096)
I0702 23:12:08.550328  3815 net.cpp:165] Memory required for data: 23797604
I0702 23:12:08.550340  3815 layer_factory.hpp:77] Creating layer relu7_context
I0702 23:12:08.550349  3815 net.cpp:100] Creating Layer relu7_context
I0702 23:12:08.550354  3815 net.cpp:434] relu7_context <- fc7_context
I0702 23:12:08.550359  3815 net.cpp:395] relu7_context -> fc7_context (in-place)
I0702 23:12:08.550365  3815 net.cpp:150] Setting up relu7_context
I0702 23:12:08.550369  3815 net.cpp:157] Top shape: 1 4096 (4096)
I0702 23:12:08.550369  3815 net.cpp:165] Memory required for data: 23813988
I0702 23:12:08.550371  3815 layer_factory.hpp:77] Creating layer drop7_context
I0702 23:12:08.550376  3815 net.cpp:100] Creating Layer drop7_context
I0702 23:12:08.550379  3815 net.cpp:434] drop7_context <- fc7_context
I0702 23:12:08.550381  3815 net.cpp:395] drop7_context -> fc7_context (in-place)
I0702 23:12:08.550408  3815 net.cpp:150] Setting up drop7_context
I0702 23:12:08.550413  3815 net.cpp:157] Top shape: 1 4096 (4096)
I0702 23:12:08.550416  3815 net.cpp:165] Memory required for data: 23830372
I0702 23:12:08.550420  3815 layer_factory.hpp:77] Creating layer fc7_output
I0702 23:12:08.550424  3815 net.cpp:100] Creating Layer fc7_output
I0702 23:12:08.550427  3815 net.cpp:434] fc7_output <- fc7
I0702 23:12:08.550431  3815 net.cpp:434] fc7_output <- fc7_context
I0702 23:12:08.550436  3815 net.cpp:408] fc7_output -> fc7_output
I0702 23:12:08.550463  3815 net.cpp:150] Setting up fc7_output
I0702 23:12:08.550467  3815 net.cpp:157] Top shape: 1 8192 (8192)
I0702 23:12:08.550468  3815 net.cpp:165] Memory required for data: 23863140
I0702 23:12:08.550470  3815 layer_factory.hpp:77] Creating layer fc7_output_fc7_output_0_split
I0702 23:12:08.550474  3815 net.cpp:100] Creating Layer fc7_output_fc7_output_0_split
I0702 23:12:08.550477  3815 net.cpp:434] fc7_output_fc7_output_0_split <- fc7_output
I0702 23:12:08.550482  3815 net.cpp:408] fc7_output_fc7_output_0_split -> fc7_output_fc7_output_0_split_0
I0702 23:12:08.550488  3815 net.cpp:408] fc7_output_fc7_output_0_split -> fc7_output_fc7_output_0_split_1
I0702 23:12:08.550494  3815 net.cpp:408] fc7_output_fc7_output_0_split -> fc7_output_fc7_output_0_split_2
I0702 23:12:08.550545  3815 net.cpp:150] Setting up fc7_output_fc7_output_0_split
I0702 23:12:08.550550  3815 net.cpp:157] Top shape: 1 8192 (8192)
I0702 23:12:08.550552  3815 net.cpp:157] Top shape: 1 8192 (8192)
I0702 23:12:08.550554  3815 net.cpp:157] Top shape: 1 8192 (8192)
I0702 23:12:08.550556  3815 net.cpp:165] Memory required for data: 23961444
I0702 23:12:08.550559  3815 layer_factory.hpp:77] Creating layer cls_score
I0702 23:12:08.550565  3815 net.cpp:100] Creating Layer cls_score
I0702 23:12:08.550567  3815 net.cpp:434] cls_score <- fc7_output_fc7_output_0_split_0
I0702 23:12:08.550571  3815 net.cpp:408] cls_score -> cls_score
I0702 23:12:08.550823  3815 net.cpp:150] Setting up cls_score
I0702 23:12:08.550832  3815 net.cpp:157] Top shape: 1 2 (2)
I0702 23:12:08.550833  3815 net.cpp:165] Memory required for data: 23961452
I0702 23:12:08.550837  3815 layer_factory.hpp:77] Creating layer bbox_pred
I0702 23:12:08.550843  3815 net.cpp:100] Creating Layer bbox_pred
I0702 23:12:08.550844  3815 net.cpp:434] bbox_pred <- fc7_output_fc7_output_0_split_1
I0702 23:12:08.550848  3815 net.cpp:408] bbox_pred -> bbox_pred
I0702 23:12:08.551481  3815 net.cpp:150] Setting up bbox_pred
I0702 23:12:08.551486  3815 net.cpp:157] Top shape: 1 8 (8)
I0702 23:12:08.551488  3815 net.cpp:165] Memory required for data: 23961484
I0702 23:12:08.551492  3815 layer_factory.hpp:77] Creating layer ort_pred
I0702 23:12:08.551496  3815 net.cpp:100] Creating Layer ort_pred
I0702 23:12:08.551499  3815 net.cpp:434] ort_pred <- fc7_output_fc7_output_0_split_2
I0702 23:12:08.551503  3815 net.cpp:408] ort_pred -> ort_pred
I0702 23:12:08.551743  3815 net.cpp:150] Setting up ort_pred
I0702 23:12:08.551748  3815 net.cpp:157] Top shape: 1 2 (2)
I0702 23:12:08.551750  3815 net.cpp:165] Memory required for data: 23961492
I0702 23:12:08.551755  3815 layer_factory.hpp:77] Creating layer loss_cls
I0702 23:12:08.551761  3815 net.cpp:100] Creating Layer loss_cls
I0702 23:12:08.551764  3815 net.cpp:434] loss_cls <- cls_score
I0702 23:12:08.551769  3815 net.cpp:434] loss_cls <- labels
I0702 23:12:08.551774  3815 net.cpp:408] loss_cls -> loss_cls
…
