…
I0511 17:42:13.315405 16272 solver.cpp:81] Creating training net from train_net file: kitti/models/kitti_car/VGG16/train.prototxt
I0511 17:42:13.327440 16272 net.cpp:58] Initializing net from parameters: 
name: "VGG_ILSVRC_16_layers"
state {
  phase: TRAIN
}
layer {
  name: "data"
  type: "Python"
  top: "data"
  top: "rois"
  top: "labels"
  top: "bbox_targets"
  top: "bbox_loss_weights"
  top: "ort_targets"
  top: "ort_loss_weights"
  python_param {
    module: "roi_data_layer.layer"
    layer: "RoIDataLayer"
    param_str: "\'num_classes\': 2"
  }
}
layer {
  name: "multi_rois"
  type: "Python"
  bottom: "rois"
  top: "context"
  python_param {
    module: "roi_data_layer.layer"
    layer: "MultiRoIDataLayer"
    param_str: "\'context\': 1.5"
  }
}
layer {
  name: "conv1_1"
  type: "Convolution"
  bottom: "data"
  top: "conv1_1"
  param {
    lr_mult: 0
    decay_mult: 0
  }
  param {
    lr_mult: 0
    decay_mult: 0
  }
  convolution_param {
    num_output: 64
    pad: 1
    kernel_size: 3
  }
}
layer {
  name: "relu1_1"
  type: "ReLU"
  bottom: "conv1_1"
  top: "conv1_1"
}
layer {
  name: "conv1_2"
  type: "Convolution"
  bottom: "conv1_1"
  top: "conv1_2"
  param {
    lr_mult: 0
    decay_mult: 0
  }
  param {
    lr_mult: 0
    decay_mult: 0
  }
  convolution_param {
    num_output: 64
    pad: 1
    kernel_size: 3
  }
}
layer {
  name: "relu1_2"
  type: "ReLU"
  bottom: "conv1_2"
  top: "conv1_2"
}
layer {
  name: "pool1"
  type: "Pooling"
  bottom: "conv1_2"
  top: "pool1"
  pooling_param {
    pool: MAX
    kernel_size: 2
    stride: 2
  }
}
layer {
  name: "conv2_1"
  type: "Convolution"
  bottom: "pool1"
  top: "conv2_1"
  param {
    lr_mult: 0
    decay_mult: 0
  }
  param {
    lr_mult: 0
    decay_mult: 0
  }
  convolution_param {
    num_output: 128
    pad: 1
    kernel_size: 3
  }
}
layer {
  name: "relu2_1"
  type: "ReLU"
  bottom: "conv2_1"
  top: "conv2_1"
}
layer {
  name: "conv2_2"
  type: "Convolution"
  bottom: "conv2_1"
  top: "conv2_2"
  param {
    lr_mult: 0
    decay_mult: 0
  }
  param {
    lr_mult: 0
    decay_mult: 0
  }
  convolution_param {
    num_output: 128
    pad: 1
    kernel_size: 3
  }
}
layer {
  name: "relu2_2"
  type: "ReLU"
  bottom: "conv2_2"
  top: "conv2_2"
}
layer {
  name: "pool2"
  type: "Pooling"
  bottom: "conv2_2"
  top: "pool2"
  pooling_param {
    pool: MAX
    kernel_size: 2
    stride: 2
  }
}
layer {
  name: "conv3_1"
  type: "Convolution"
  bottom: "pool2"
  top: "conv3_1"
  param {
    lr_mult: 1
    decay_mult: 1
  }
  param {
    lr_mult: 2
    decay_mult: 0
  }
  convolution_param {
    num_output: 256
    pad: 1
    kernel_size: 3
  }
}
layer {
  name: "relu3_1"
  type: "ReLU"
  bottom: "conv3_1"
  top: "conv3_1"
}
layer {
  name: "conv3_2"
  type: "Convolution"
  bottom: "conv3_1"
  top: "conv3_2"
  param {
    lr_mult: 1
    decay_mult: 1
  }
  param {
    lr_mult: 2
    decay_mult: 0
  }
  convolution_param {
    num_output: 256
    pad: 1
    kernel_size: 3
  }
}
layer {
  name: "relu3_2"
  type: "ReLU"
  bottom: "conv3_2"
  top: "conv3_2"
}
layer {
  name: "conv3_3"
  type: "Convolution"
  bottom: "conv3_2"
  top: "conv3_3"
  param {
    lr_mult: 1
    decay_mult: 1
  }
  param {
    lr_mult: 2
    decay_mult: 0
  }
  convolution_param {
    num_output: 256
    pad: 1
    kernel_size: 3
  }
}
layer {
  name: "relu3_3"
  type: "ReLU"
  bottom: "conv3_3"
  top: "conv3_3"
}
layer {
  name: "pool3"
  type: "Pooling"
  bottom: "conv3_3"
  top: "pool3"
  pooling_param {
    pool: MAX
    kernel_size: 2
    stride: 2
  }
}
layer {
  name: "conv4_1"
  type: "Convolution"
  bottom: "pool3"
  top: "conv4_1"
  param {
    lr_mult: 1
    decay_mult: 1
  }
  param {
    lr_mult: 2
    decay_mult: 0
  }
  convolution_param {
    num_output: 512
    pad: 1
    kernel_size: 3
  }
}
layer {
  name: "relu4_1"
  type: "ReLU"
  bottom: "conv4_1"
  top: "conv4_1"
}
layer {
  name: "conv4_2"
  type: "Convolution"
  bottom: "conv4_1"
  top: "conv4_2"
  param {
    lr_mult: 1
    decay_mult: 1
  }
  param {
    lr_mult: 2
    decay_mult: 0
  }
  convolution_param {
    num_output: 512
    pad: 1
    kernel_size: 3
  }
}
layer {
  name: "relu4_2"
  type: "ReLU"
  bottom: "conv4_2"
  top: "conv4_2"
}
layer {
  name: "conv4_3"
  type: "Convolution"
  bottom: "conv4_2"
  top: "conv4_3"
  param {
    lr_mult: 1
    decay_mult: 1
  }
  param {
    lr_mult: 2
    decay_mult: 0
  }
  convolution_param {
    num_output: 512
    pad: 1
    kernel_size: 3
  }
}
layer {
  name: "relu4_3"
  type: "ReLU"
  bottom: "conv4_3"
  top: "conv4_3"
}
layer {
  name: "pool4"
  type: "Pooling"
  bottom: "conv4_3"
  top: "pool4"
  pooling_param {
    pool: MAX
    kernel_size: 2
    stride: 2
  }
}
layer {
  name: "conv5_1"
  type: "Convolution"
  bottom: "pool4"
  top: "conv5_1"
  param {
    lr_mult: 1
    decay_mult: 1
  }
  param {
    lr_mult: 2
    decay_mult: 0
  }
  convolution_param {
    num_output: 512
    pad: 1
    kernel_size: 3
  }
}
layer {
  name: "relu5_1"
  type: "ReLU"
  bottom: "conv5_1"
  top: "conv5_1"
}
layer {
  name: "conv5_2"
  type: "Convolution"
  bottom: "conv5_1"
  top: "conv5_2"
  param {
    lr_mult: 1
    decay_mult: 1
  }
  param {
    lr_mult: 2
    decay_mult: 0
  }
  convolution_param {
    num_output: 512
    pad: 1
    kernel_size: 3
  }
}
layer {
  name: "relu5_2"
  type: "ReLU"
  bottom: "conv5_2"
  top: "conv5_2"
}
layer {
  name: "conv5_3"
  type: "Convolution"
  bottom: "conv5_2"
  top: "conv5_3"
  param {
    lr_mult: 1
    decay_mult: 1
  }
  param {
    lr_mult: 2
    decay_mult: 0
  }
  convolution_param {
    num_output: 512
    pad: 1
    kernel_size: 3
  }
}
layer {
  name: "relu5_3"
  type: "ReLU"
  bottom: "conv5_3"
  top: "conv5_3"
}
layer {
  name: "roi_pool5"
  type: "ROIPooling"
  bottom: "conv5_3"
  bottom: "rois"
  top: "pool5"
  roi_pooling_param {
    pooled_h: 7
    pooled_w: 7
    spatial_scale: 0.0625
  }
}
layer {
  name: "fc6"
  type: "InnerProduct"
  bottom: "pool5"
  top: "fc6"
  param {
    lr_mult: 1
    decay_mult: 1
  }
  param {
    lr_mult: 2
    decay_mult: 0
  }
  inner_product_param {
    num_output: 4096
  }
}
layer {
  name: "relu6"
  type: "ReLU"
  bottom: "fc6"
  top: "fc6"
}
layer {
  name: "drop6"
  type: "Dropout"
  bottom: "fc6"
  top: "fc6"
  dropout_param {
    dropout_ratio: 0.5
  }
}
layer {
  name: "fc7"
  type: "InnerProduct"
  bottom: "fc6"
  top: "fc7"
  param {
    lr_mult: 1
    decay_mult: 1
  }
  param {
    lr_mult: 2
    decay_mult: 0
  }
  inner_product_param {
    num_output: 4096
  }
}
layer {
  name: "relu7"
  type: "ReLU"
  bottom: "fc7"
  top: "fc7"
}
layer {
  name: "drop7"
  type: "Dropout"
  bottom: "fc7"
  top: "fc7"
  dropout_param {
    dropout_ratio: 0.5
  }
}
layer {
  name: "roi_pool5_context"
  type: "ROIPooling"
  bottom: "conv5_3"
  bottom: "context"
  top: "pool5_context"
  roi_pooling_param {
    pooled_h: 7
    pooled_w: 7
    spatial_scale: 0.0625
  }
}
layer {
  name: "fc6_context"
  type: "InnerProduct"
  bottom: "pool5_context"
  top: "fc6_context"
  param {
    lr_mult: 1
    decay_mult: 1
  }
  param {
    lr_mult: 2
    decay_mult: 0
  }
  inner_product_param {
    num_output: 4096
  }
}
layer {
  name: "relu6_context"
  type: "ReLU"
  bottom: "fc6_context"
  top: "fc6_context"
}
layer {
  name: "drop6_context"
  type: "Dropout"
  bottom: "fc6_context"
  top: "fc6_context"
  dropout_param {
    dropout_ratio: 0.5
  }
}
layer {
  name: "fc7_context"
  type: "InnerProduct"
  bottom: "fc6_context"
  top: "fc7_context"
  param {
    lr_mult: 1
    decay_mult: 1
  }
  param {
    lr_mult: 2
    decay_mult: 0
  }
  inner_product_param {
    num_output: 4096
  }
}
layer {
  name: "relu7_context"
  type: "ReLU"
  bottom: "fc7_context"
  top: "fc7_context"
}
layer {
  name: "drop7_context"
  type: "Dropout"
  bottom: "fc7_context"
  top: "fc7_context"
  dropout_param {
    dropout_ratio: 0.5
  }
}
layer {
  name: "fc7_output"
  type: "Concat"
  bottom: "fc7"
  bottom: "fc7_context"
  top: "fc7_output"
}
layer {
  name: "cls_score"
  type: "InnerProduct"
  bottom: "fc7_output"
  top: "cls_score"
  param {
    lr_mult: 1
    decay_mult: 1
  }
  param {
    lr_mult: 2
    decay_mult: 0
  }
  inner_product_param {
    num_output: 2
    weight_filler {
      type: "gaussian"
      std: 0.01
    }
    bias_filler {
      type: "constant"
      value: 0
    }
  }
}
layer {
  name: "bbox_pred"
  type: "InnerProduct"
  bottom: "fc7_output"
  top: "bbox_pred"
  param {
    lr_mult: 1
    decay_mult: 1
  }
  param {
    lr_mult: 2
    decay_mult: 0
  }
  inner_product_param {
    num_output: 8
    weight_filler {
      type: "gaussian"
      std: 0.001
    }
    bias_filler {
      type: "constant"
      value: 0
    }
  }
}
layer {
  name: "ort_pred"
  type: "InnerProduct"
  bottom: "fc7_output"
  top: "ort_pred"
  param {
    lr_mult: 1
    decay_mult: 1
  }
  param {
    lr_mult: 2
    decay_mult: 0
  }
  inner_product_param {
    num_output: 2
    weight_filler {
      type: "gaussian"
      std: 0.001
    }
    bias_filler {
      type: "constant"
      value: 0
    }
  }
}
layer {
  name: "loss_cls"
  type: "SoftmaxWithLoss"
  bottom: "cls_score"
  bottom: "labels"
  top: "loss_cls"
  loss_weight: 1
}
layer {
  name: "loss_bbox"
  type: "SmoothL1Loss"
  bottom: "bbox_pred"
  bottom: "bbox_targets"
  bottom: "bbox_loss_weights"
  top: "loss_bbox"
  loss_weight: 1
}
layer {
  name: "loss_ort"
  type: "SmoothL1Loss"
  bottom: "ort_pred"
  bottom: "ort_targets"
  bottom: "ort_loss_weights"
  top: "loss_ort"
  loss_weight: 1
}
I0511 17:42:13.327643 16272 layer_factory.hpp:77] Creating layer data
I0511 17:42:13.328160 16272 net.cpp:100] Creating Layer data
I0511 17:42:13.328176 16272 net.cpp:408] data -> data
I0511 17:42:13.328186 16272 net.cpp:408] data -> rois
I0511 17:42:13.328191 16272 net.cpp:408] data -> labels
I0511 17:42:13.328198 16272 net.cpp:408] data -> bbox_targets
I0511 17:42:13.328203 16272 net.cpp:408] data -> bbox_loss_weights
I0511 17:42:13.328214 16272 net.cpp:408] data -> ort_targets
I0511 17:42:13.328222 16272 net.cpp:408] data -> ort_loss_weights
I0511 17:42:13.347211 16272 net.cpp:150] Setting up data
I0511 17:42:13.347232 16272 net.cpp:157] Top shape: 1 3 100 100 (30000)
I0511 17:42:13.347236 16272 net.cpp:157] Top shape: 1 5 (5)
I0511 17:42:13.347239 16272 net.cpp:157] Top shape: 1 (1)
I0511 17:42:13.347242 16272 net.cpp:157] Top shape: 1 8 (8)
I0511 17:42:13.347245 16272 net.cpp:157] Top shape: 1 8 (8)
I0511 17:42:13.347247 16272 net.cpp:157] Top shape: 1 2 (2)
I0511 17:42:13.347250 16272 net.cpp:157] Top shape: 1 2 (2)
I0511 17:42:13.347252 16272 net.cpp:165] Memory required for data: 120104
I0511 17:42:13.347257 16272 layer_factory.hpp:77] Creating layer rois_data_1_split
I0511 17:42:13.347267 16272 net.cpp:100] Creating Layer rois_data_1_split
I0511 17:42:13.347271 16272 net.cpp:434] rois_data_1_split <- rois
I0511 17:42:13.347280 16272 net.cpp:408] rois_data_1_split -> rois_data_1_split_0
I0511 17:42:13.347290 16272 net.cpp:408] rois_data_1_split -> rois_data_1_split_1
I0511 17:42:13.347319 16272 net.cpp:150] Setting up rois_data_1_split
I0511 17:42:13.347326 16272 net.cpp:157] Top shape: 1 5 (5)
I0511 17:42:13.347328 16272 net.cpp:157] Top shape: 1 5 (5)
I0511 17:42:13.347331 16272 net.cpp:165] Memory required for data: 120144
I0511 17:42:13.347333 16272 layer_factory.hpp:77] Creating layer multi_rois
I0511 17:42:13.347369 16272 net.cpp:100] Creating Layer multi_rois
I0511 17:42:13.347374 16272 net.cpp:434] multi_rois <- rois_data_1_split_0
I0511 17:42:13.347380 16272 net.cpp:408] multi_rois -> context
'context': 1.5
I0511 17:42:13.347739 16272 net.cpp:150] Setting up multi_rois
I0511 17:42:13.347748 16272 net.cpp:157] Top shape: 1 5 (5)
I0511 17:42:13.347766 16272 net.cpp:165] Memory required for data: 120164
I0511 17:42:13.347769 16272 layer_factory.hpp:77] Creating layer conv1_1
I0511 17:42:13.347777 16272 net.cpp:100] Creating Layer conv1_1
I0511 17:42:13.347779 16272 net.cpp:434] conv1_1 <- data
I0511 17:42:13.347784 16272 net.cpp:408] conv1_1 -> conv1_1
I0511 17:42:13.349362 16272 net.cpp:150] Setting up conv1_1
I0511 17:42:13.349372 16272 net.cpp:157] Top shape: 1 64 100 100 (640000)
I0511 17:42:13.349390 16272 net.cpp:165] Memory required for data: 2680164
I0511 17:42:13.349400 16272 layer_factory.hpp:77] Creating layer relu1_1
I0511 17:42:13.349406 16272 net.cpp:100] Creating Layer relu1_1
I0511 17:42:13.349408 16272 net.cpp:434] relu1_1 <- conv1_1
I0511 17:42:13.349412 16272 net.cpp:395] relu1_1 -> conv1_1 (in-place)
I0511 17:42:13.349418 16272 net.cpp:150] Setting up relu1_1
I0511 17:42:13.349423 16272 net.cpp:157] Top shape: 1 64 100 100 (640000)
I0511 17:42:13.349426 16272 net.cpp:165] Memory required for data: 5240164
I0511 17:42:13.349427 16272 layer_factory.hpp:77] Creating layer conv1_2
I0511 17:42:13.349433 16272 net.cpp:100] Creating Layer conv1_2
I0511 17:42:13.349436 16272 net.cpp:434] conv1_2 <- conv1_1
I0511 17:42:13.349442 16272 net.cpp:408] conv1_2 -> conv1_2
I0511 17:42:13.350529 16272 net.cpp:150] Setting up conv1_2
I0511 17:42:13.350539 16272 net.cpp:157] Top shape: 1 64 100 100 (640000)
I0511 17:42:13.350541 16272 net.cpp:165] Memory required for data: 7800164
I0511 17:42:13.350548 16272 layer_factory.hpp:77] Creating layer relu1_2
I0511 17:42:13.350553 16272 net.cpp:100] Creating Layer relu1_2
I0511 17:42:13.350555 16272 net.cpp:434] relu1_2 <- conv1_2
I0511 17:42:13.350560 16272 net.cpp:395] relu1_2 -> conv1_2 (in-place)
I0511 17:42:13.350565 16272 net.cpp:150] Setting up relu1_2
I0511 17:42:13.350569 16272 net.cpp:157] Top shape: 1 64 100 100 (640000)
I0511 17:42:13.350570 16272 net.cpp:165] Memory required for data: 10360164
I0511 17:42:13.350572 16272 layer_factory.hpp:77] Creating layer pool1
I0511 17:42:13.350577 16272 net.cpp:100] Creating Layer pool1
I0511 17:42:13.350579 16272 net.cpp:434] pool1 <- conv1_2
I0511 17:42:13.350584 16272 net.cpp:408] pool1 -> pool1
I0511 17:42:13.350617 16272 net.cpp:150] Setting up pool1
I0511 17:42:13.350621 16272 net.cpp:157] Top shape: 1 64 50 50 (160000)
I0511 17:42:13.350623 16272 net.cpp:165] Memory required for data: 11000164
I0511 17:42:13.350625 16272 layer_factory.hpp:77] Creating layer conv2_1
I0511 17:42:13.350632 16272 net.cpp:100] Creating Layer conv2_1
I0511 17:42:13.350636 16272 net.cpp:434] conv2_1 <- pool1
I0511 17:42:13.350639 16272 net.cpp:408] conv2_1 -> conv2_1
I0511 17:42:13.351697 16272 net.cpp:150] Setting up conv2_1
I0511 17:42:13.351707 16272 net.cpp:157] Top shape: 1 128 50 50 (320000)
I0511 17:42:13.351725 16272 net.cpp:165] Memory required for data: 12280164
I0511 17:42:13.351732 16272 layer_factory.hpp:77] Creating layer relu2_1
I0511 17:42:13.351737 16272 net.cpp:100] Creating Layer relu2_1
I0511 17:42:13.351739 16272 net.cpp:434] relu2_1 <- conv2_1
I0511 17:42:13.351743 16272 net.cpp:395] relu2_1 -> conv2_1 (in-place)
I0511 17:42:13.351748 16272 net.cpp:150] Setting up relu2_1
I0511 17:42:13.351752 16272 net.cpp:157] Top shape: 1 128 50 50 (320000)
I0511 17:42:13.351764 16272 net.cpp:165] Memory required for data: 13560164
I0511 17:42:13.351766 16272 layer_factory.hpp:77] Creating layer conv2_2
I0511 17:42:13.351771 16272 net.cpp:100] Creating Layer conv2_2
I0511 17:42:13.351773 16272 net.cpp:434] conv2_2 <- conv2_1
I0511 17:42:13.351778 16272 net.cpp:408] conv2_2 -> conv2_2
I0511 17:42:13.352007 16272 net.cpp:150] Setting up conv2_2
I0511 17:42:13.352015 16272 net.cpp:157] Top shape: 1 128 50 50 (320000)
I0511 17:42:13.352016 16272 net.cpp:165] Memory required for data: 14840164
I0511 17:42:13.352022 16272 layer_factory.hpp:77] Creating layer relu2_2
I0511 17:42:13.352027 16272 net.cpp:100] Creating Layer relu2_2
I0511 17:42:13.352030 16272 net.cpp:434] relu2_2 <- conv2_2
I0511 17:42:13.352035 16272 net.cpp:395] relu2_2 -> conv2_2 (in-place)
I0511 17:42:13.352041 16272 net.cpp:150] Setting up relu2_2
I0511 17:42:13.352043 16272 net.cpp:157] Top shape: 1 128 50 50 (320000)
I0511 17:42:13.352046 16272 net.cpp:165] Memory required for data: 16120164
I0511 17:42:13.352047 16272 layer_factory.hpp:77] Creating layer pool2
I0511 17:42:13.352051 16272 net.cpp:100] Creating Layer pool2
I0511 17:42:13.352053 16272 net.cpp:434] pool2 <- conv2_2
I0511 17:42:13.352057 16272 net.cpp:408] pool2 -> pool2
I0511 17:42:13.352085 16272 net.cpp:150] Setting up pool2
I0511 17:42:13.352092 16272 net.cpp:157] Top shape: 1 128 25 25 (80000)
I0511 17:42:13.352093 16272 net.cpp:165] Memory required for data: 16440164
I0511 17:42:13.352095 16272 layer_factory.hpp:77] Creating layer conv3_1
I0511 17:42:13.352100 16272 net.cpp:100] Creating Layer conv3_1
I0511 17:42:13.352102 16272 net.cpp:434] conv3_1 <- pool2
I0511 17:42:13.352108 16272 net.cpp:408] conv3_1 -> conv3_1
I0511 17:42:13.353140 16272 net.cpp:150] Setting up conv3_1
I0511 17:42:13.353150 16272 net.cpp:157] Top shape: 1 256 25 25 (160000)
I0511 17:42:13.353152 16272 net.cpp:165] Memory required for data: 17080164
I0511 17:42:13.353159 16272 layer_factory.hpp:77] Creating layer relu3_1
I0511 17:42:13.353164 16272 net.cpp:100] Creating Layer relu3_1
I0511 17:42:13.353166 16272 net.cpp:434] relu3_1 <- conv3_1
I0511 17:42:13.353171 16272 net.cpp:395] relu3_1 -> conv3_1 (in-place)
I0511 17:42:13.353175 16272 net.cpp:150] Setting up relu3_1
I0511 17:42:13.353179 16272 net.cpp:157] Top shape: 1 256 25 25 (160000)
I0511 17:42:13.353181 16272 net.cpp:165] Memory required for data: 17720164
I0511 17:42:13.353183 16272 layer_factory.hpp:77] Creating layer conv3_2
I0511 17:42:13.353190 16272 net.cpp:100] Creating Layer conv3_2
I0511 17:42:13.353193 16272 net.cpp:434] conv3_2 <- conv3_1
I0511 17:42:13.353199 16272 net.cpp:408] conv3_2 -> conv3_2
I0511 17:42:13.354465 16272 net.cpp:150] Setting up conv3_2
I0511 17:42:13.354475 16272 net.cpp:157] Top shape: 1 256 25 25 (160000)
I0511 17:42:13.354477 16272 net.cpp:165] Memory required for data: 18360164
I0511 17:42:13.354482 16272 layer_factory.hpp:77] Creating layer relu3_2
I0511 17:42:13.354488 16272 net.cpp:100] Creating Layer relu3_2
I0511 17:42:13.354491 16272 net.cpp:434] relu3_2 <- conv3_2
I0511 17:42:13.354496 16272 net.cpp:395] relu3_2 -> conv3_2 (in-place)
I0511 17:42:13.354501 16272 net.cpp:150] Setting up relu3_2
I0511 17:42:13.354503 16272 net.cpp:157] Top shape: 1 256 25 25 (160000)
I0511 17:42:13.354506 16272 net.cpp:165] Memory required for data: 19000164
I0511 17:42:13.354507 16272 layer_factory.hpp:77] Creating layer conv3_3
I0511 17:42:13.354512 16272 net.cpp:100] Creating Layer conv3_3
I0511 17:42:13.354516 16272 net.cpp:434] conv3_3 <- conv3_2
I0511 17:42:13.354521 16272 net.cpp:408] conv3_3 -> conv3_3
I0511 17:42:13.355782 16272 net.cpp:150] Setting up conv3_3
I0511 17:42:13.355792 16272 net.cpp:157] Top shape: 1 256 25 25 (160000)
I0511 17:42:13.355794 16272 net.cpp:165] Memory required for data: 19640164
I0511 17:42:13.355799 16272 layer_factory.hpp:77] Creating layer relu3_3
I0511 17:42:13.355803 16272 net.cpp:100] Creating Layer relu3_3
I0511 17:42:13.355806 16272 net.cpp:434] relu3_3 <- conv3_3
I0511 17:42:13.355810 16272 net.cpp:395] relu3_3 -> conv3_3 (in-place)
I0511 17:42:13.355815 16272 net.cpp:150] Setting up relu3_3
I0511 17:42:13.355818 16272 net.cpp:157] Top shape: 1 256 25 25 (160000)
I0511 17:42:13.355820 16272 net.cpp:165] Memory required for data: 20280164
I0511 17:42:13.355823 16272 layer_factory.hpp:77] Creating layer pool3
I0511 17:42:13.355826 16272 net.cpp:100] Creating Layer pool3
I0511 17:42:13.355829 16272 net.cpp:434] pool3 <- conv3_3
I0511 17:42:13.355834 16272 net.cpp:408] pool3 -> pool3
I0511 17:42:13.355865 16272 net.cpp:150] Setting up pool3
I0511 17:42:13.355870 16272 net.cpp:157] Top shape: 1 256 13 13 (43264)
I0511 17:42:13.355872 16272 net.cpp:165] Memory required for data: 20453220
I0511 17:42:13.355875 16272 layer_factory.hpp:77] Creating layer conv4_1
I0511 17:42:13.355880 16272 net.cpp:100] Creating Layer conv4_1
I0511 17:42:13.355882 16272 net.cpp:434] conv4_1 <- pool3
I0511 17:42:13.355887 16272 net.cpp:408] conv4_1 -> conv4_1
I0511 17:42:13.357833 16272 net.cpp:150] Setting up conv4_1
I0511 17:42:13.357843 16272 net.cpp:157] Top shape: 1 512 13 13 (86528)
I0511 17:42:13.357861 16272 net.cpp:165] Memory required for data: 20799332
I0511 17:42:13.357867 16272 layer_factory.hpp:77] Creating layer relu4_1
I0511 17:42:13.357872 16272 net.cpp:100] Creating Layer relu4_1
I0511 17:42:13.357875 16272 net.cpp:434] relu4_1 <- conv4_1
I0511 17:42:13.357879 16272 net.cpp:395] relu4_1 -> conv4_1 (in-place)
I0511 17:42:13.357884 16272 net.cpp:150] Setting up relu4_1
I0511 17:42:13.357889 16272 net.cpp:157] Top shape: 1 512 13 13 (86528)
I0511 17:42:13.357892 16272 net.cpp:165] Memory required for data: 21145444
I0511 17:42:13.357895 16272 layer_factory.hpp:77] Creating layer conv4_2
I0511 17:42:13.357902 16272 net.cpp:100] Creating Layer conv4_2
I0511 17:42:13.357904 16272 net.cpp:434] conv4_2 <- conv4_1
I0511 17:42:13.357909 16272 net.cpp:408] conv4_2 -> conv4_2
I0511 17:42:13.361477 16272 net.cpp:150] Setting up conv4_2
I0511 17:42:13.361506 16272 net.cpp:157] Top shape: 1 512 13 13 (86528)
I0511 17:42:13.361510 16272 net.cpp:165] Memory required for data: 21491556
I0511 17:42:13.361518 16272 layer_factory.hpp:77] Creating layer relu4_2
I0511 17:42:13.361523 16272 net.cpp:100] Creating Layer relu4_2
I0511 17:42:13.361526 16272 net.cpp:434] relu4_2 <- conv4_2
I0511 17:42:13.361531 16272 net.cpp:395] relu4_2 -> conv4_2 (in-place)
I0511 17:42:13.361536 16272 net.cpp:150] Setting up relu4_2
I0511 17:42:13.361538 16272 net.cpp:157] Top shape: 1 512 13 13 (86528)
I0511 17:42:13.361541 16272 net.cpp:165] Memory required for data: 21837668
I0511 17:42:13.361542 16272 layer_factory.hpp:77] Creating layer conv4_3
I0511 17:42:13.361548 16272 net.cpp:100] Creating Layer conv4_3
I0511 17:42:13.361551 16272 net.cpp:434] conv4_3 <- conv4_2
I0511 17:42:13.361554 16272 net.cpp:408] conv4_3 -> conv4_3
I0511 17:42:13.366278 16272 net.cpp:150] Setting up conv4_3
I0511 17:42:13.366312 16272 net.cpp:157] Top shape: 1 512 13 13 (86528)
I0511 17:42:13.366314 16272 net.cpp:165] Memory required for data: 22183780
I0511 17:42:13.366320 16272 layer_factory.hpp:77] Creating layer relu4_3
I0511 17:42:13.366328 16272 net.cpp:100] Creating Layer relu4_3
I0511 17:42:13.366333 16272 net.cpp:434] relu4_3 <- conv4_3
I0511 17:42:13.366338 16272 net.cpp:395] relu4_3 -> conv4_3 (in-place)
I0511 17:42:13.366345 16272 net.cpp:150] Setting up relu4_3
I0511 17:42:13.366350 16272 net.cpp:157] Top shape: 1 512 13 13 (86528)
I0511 17:42:13.366353 16272 net.cpp:165] Memory required for data: 22529892
I0511 17:42:13.366355 16272 layer_factory.hpp:77] Creating layer pool4
I0511 17:42:13.366359 16272 net.cpp:100] Creating Layer pool4
I0511 17:42:13.366361 16272 net.cpp:434] pool4 <- conv4_3
I0511 17:42:13.366367 16272 net.cpp:408] pool4 -> pool4
I0511 17:42:13.366401 16272 net.cpp:150] Setting up pool4
I0511 17:42:13.366407 16272 net.cpp:157] Top shape: 1 512 7 7 (25088)
I0511 17:42:13.366410 16272 net.cpp:165] Memory required for data: 22630244
I0511 17:42:13.366411 16272 layer_factory.hpp:77] Creating layer conv5_1
I0511 17:42:13.366418 16272 net.cpp:100] Creating Layer conv5_1
I0511 17:42:13.366420 16272 net.cpp:434] conv5_1 <- pool4
I0511 17:42:13.366425 16272 net.cpp:408] conv5_1 -> conv5_1
I0511 17:42:13.370126 16272 net.cpp:150] Setting up conv5_1
I0511 17:42:13.370141 16272 net.cpp:157] Top shape: 1 512 7 7 (25088)
I0511 17:42:13.370143 16272 net.cpp:165] Memory required for data: 22730596
I0511 17:42:13.370151 16272 layer_factory.hpp:77] Creating layer relu5_1
I0511 17:42:13.370157 16272 net.cpp:100] Creating Layer relu5_1
I0511 17:42:13.370158 16272 net.cpp:434] relu5_1 <- conv5_1
I0511 17:42:13.370163 16272 net.cpp:395] relu5_1 -> conv5_1 (in-place)
I0511 17:42:13.370168 16272 net.cpp:150] Setting up relu5_1
I0511 17:42:13.370172 16272 net.cpp:157] Top shape: 1 512 7 7 (25088)
I0511 17:42:13.370173 16272 net.cpp:165] Memory required for data: 22830948
I0511 17:42:13.370174 16272 layer_factory.hpp:77] Creating layer conv5_2
I0511 17:42:13.370180 16272 net.cpp:100] Creating Layer conv5_2
I0511 17:42:13.370183 16272 net.cpp:434] conv5_2 <- conv5_1
I0511 17:42:13.370203 16272 net.cpp:408] conv5_2 -> conv5_2
I0511 17:42:13.373630 16272 net.cpp:150] Setting up conv5_2
I0511 17:42:13.373642 16272 net.cpp:157] Top shape: 1 512 7 7 (25088)
I0511 17:42:13.373644 16272 net.cpp:165] Memory required for data: 22931300
I0511 17:42:13.373651 16272 layer_factory.hpp:77] Creating layer relu5_2
I0511 17:42:13.373656 16272 net.cpp:100] Creating Layer relu5_2
I0511 17:42:13.373658 16272 net.cpp:434] relu5_2 <- conv5_2
I0511 17:42:13.373663 16272 net.cpp:395] relu5_2 -> conv5_2 (in-place)
I0511 17:42:13.373668 16272 net.cpp:150] Setting up relu5_2
I0511 17:42:13.373672 16272 net.cpp:157] Top shape: 1 512 7 7 (25088)
I0511 17:42:13.373672 16272 net.cpp:165] Memory required for data: 23031652
I0511 17:42:13.373675 16272 layer_factory.hpp:77] Creating layer conv5_3
I0511 17:42:13.373680 16272 net.cpp:100] Creating Layer conv5_3
I0511 17:42:13.373683 16272 net.cpp:434] conv5_3 <- conv5_2
I0511 17:42:13.373704 16272 net.cpp:408] conv5_3 -> conv5_3
I0511 17:42:13.377277 16272 net.cpp:150] Setting up conv5_3
I0511 17:42:13.377307 16272 net.cpp:157] Top shape: 1 512 7 7 (25088)
I0511 17:42:13.377310 16272 net.cpp:165] Memory required for data: 23132004
I0511 17:42:13.377316 16272 layer_factory.hpp:77] Creating layer relu5_3
I0511 17:42:13.377327 16272 net.cpp:100] Creating Layer relu5_3
I0511 17:42:13.377331 16272 net.cpp:434] relu5_3 <- conv5_3
I0511 17:42:13.377336 16272 net.cpp:395] relu5_3 -> conv5_3 (in-place)
I0511 17:42:13.377341 16272 net.cpp:150] Setting up relu5_3
I0511 17:42:13.377343 16272 net.cpp:157] Top shape: 1 512 7 7 (25088)
I0511 17:42:13.377346 16272 net.cpp:165] Memory required for data: 23232356
I0511 17:42:13.377347 16272 layer_factory.hpp:77] Creating layer conv5_3_relu5_3_0_split
I0511 17:42:13.377351 16272 net.cpp:100] Creating Layer conv5_3_relu5_3_0_split
I0511 17:42:13.377354 16272 net.cpp:434] conv5_3_relu5_3_0_split <- conv5_3
I0511 17:42:13.377358 16272 net.cpp:408] conv5_3_relu5_3_0_split -> conv5_3_relu5_3_0_split_0
I0511 17:42:13.377362 16272 net.cpp:408] conv5_3_relu5_3_0_split -> conv5_3_relu5_3_0_split_1
I0511 17:42:13.377393 16272 net.cpp:150] Setting up conv5_3_relu5_3_0_split
I0511 17:42:13.377398 16272 net.cpp:157] Top shape: 1 512 7 7 (25088)
I0511 17:42:13.377401 16272 net.cpp:157] Top shape: 1 512 7 7 (25088)
I0511 17:42:13.377404 16272 net.cpp:165] Memory required for data: 23433060
I0511 17:42:13.377408 16272 layer_factory.hpp:77] Creating layer roi_pool5
I0511 17:42:13.377413 16272 net.cpp:100] Creating Layer roi_pool5
I0511 17:42:13.377416 16272 net.cpp:434] roi_pool5 <- conv5_3_relu5_3_0_split_0
I0511 17:42:13.377420 16272 net.cpp:434] roi_pool5 <- rois_data_1_split_1
I0511 17:42:13.377424 16272 net.cpp:408] roi_pool5 -> pool5
I0511 17:42:13.377430 16272 roi_pooling_layer.cpp:30] Spatial scale: 0.0625
I0511 17:42:13.377463 16272 net.cpp:150] Setting up roi_pool5
I0511 17:42:13.377468 16272 net.cpp:157] Top shape: 1 512 7 7 (25088)
I0511 17:42:13.377470 16272 net.cpp:165] Memory required for data: 23533412
I0511 17:42:13.377473 16272 layer_factory.hpp:77] Creating layer fc6
I0511 17:42:13.377478 16272 net.cpp:100] Creating Layer fc6
I0511 17:42:13.377481 16272 net.cpp:434] fc6 <- pool5
I0511 17:42:13.377485 16272 net.cpp:408] fc6 -> fc6
I0511 17:42:13.538378 16272 net.cpp:150] Setting up fc6
I0511 17:42:13.538403 16272 net.cpp:157] Top shape: 1 4096 (4096)
I0511 17:42:13.538404 16272 net.cpp:165] Memory required for data: 23549796
I0511 17:42:13.538414 16272 layer_factory.hpp:77] Creating layer relu6
I0511 17:42:13.538422 16272 net.cpp:100] Creating Layer relu6
I0511 17:42:13.538425 16272 net.cpp:434] relu6 <- fc6
I0511 17:42:13.538430 16272 net.cpp:395] relu6 -> fc6 (in-place)
I0511 17:42:13.538439 16272 net.cpp:150] Setting up relu6
I0511 17:42:13.538441 16272 net.cpp:157] Top shape: 1 4096 (4096)
I0511 17:42:13.538444 16272 net.cpp:165] Memory required for data: 23566180
I0511 17:42:13.538445 16272 layer_factory.hpp:77] Creating layer drop6
I0511 17:42:13.538450 16272 net.cpp:100] Creating Layer drop6
I0511 17:42:13.538452 16272 net.cpp:434] drop6 <- fc6
I0511 17:42:13.538456 16272 net.cpp:395] drop6 -> fc6 (in-place)
I0511 17:42:13.538471 16272 net.cpp:150] Setting up drop6
I0511 17:42:13.538475 16272 net.cpp:157] Top shape: 1 4096 (4096)
I0511 17:42:13.538477 16272 net.cpp:165] Memory required for data: 23582564
I0511 17:42:13.538480 16272 layer_factory.hpp:77] Creating layer fc7
I0511 17:42:13.538483 16272 net.cpp:100] Creating Layer fc7
I0511 17:42:13.538486 16272 net.cpp:434] fc7 <- fc6
I0511 17:42:13.538491 16272 net.cpp:408] fc7 -> fc7
I0511 17:42:13.564725 16272 net.cpp:150] Setting up fc7
I0511 17:42:13.564762 16272 net.cpp:157] Top shape: 1 4096 (4096)
I0511 17:42:13.564764 16272 net.cpp:165] Memory required for data: 23598948
I0511 17:42:13.564774 16272 layer_factory.hpp:77] Creating layer relu7
I0511 17:42:13.564781 16272 net.cpp:100] Creating Layer relu7
I0511 17:42:13.564785 16272 net.cpp:434] relu7 <- fc7
I0511 17:42:13.564790 16272 net.cpp:395] relu7 -> fc7 (in-place)
I0511 17:42:13.564797 16272 net.cpp:150] Setting up relu7
I0511 17:42:13.564800 16272 net.cpp:157] Top shape: 1 4096 (4096)
I0511 17:42:13.564802 16272 net.cpp:165] Memory required for data: 23615332
I0511 17:42:13.564805 16272 layer_factory.hpp:77] Creating layer drop7
I0511 17:42:13.564810 16272 net.cpp:100] Creating Layer drop7
I0511 17:42:13.564811 16272 net.cpp:434] drop7 <- fc7
I0511 17:42:13.564818 16272 net.cpp:395] drop7 -> fc7 (in-place)
I0511 17:42:13.564834 16272 net.cpp:150] Setting up drop7
I0511 17:42:13.564841 16272 net.cpp:157] Top shape: 1 4096 (4096)
I0511 17:42:13.564843 16272 net.cpp:165] Memory required for data: 23631716
I0511 17:42:13.564846 16272 layer_factory.hpp:77] Creating layer roi_pool5_context
I0511 17:42:13.564853 16272 net.cpp:100] Creating Layer roi_pool5_context
I0511 17:42:13.564858 16272 net.cpp:434] roi_pool5_context <- conv5_3_relu5_3_0_split_1
I0511 17:42:13.564862 16272 net.cpp:434] roi_pool5_context <- context
I0511 17:42:13.564867 16272 net.cpp:408] roi_pool5_context -> pool5_context
I0511 17:42:13.564878 16272 roi_pooling_layer.cpp:30] Spatial scale: 0.0625
I0511 17:42:13.564919 16272 net.cpp:150] Setting up roi_pool5_context
I0511 17:42:13.564925 16272 net.cpp:157] Top shape: 1 512 7 7 (25088)
I0511 17:42:13.564927 16272 net.cpp:165] Memory required for data: 23732068
I0511 17:42:13.564929 16272 layer_factory.hpp:77] Creating layer fc6_context
I0511 17:42:13.564935 16272 net.cpp:100] Creating Layer fc6_context
I0511 17:42:13.564937 16272 net.cpp:434] fc6_context <- pool5_context
I0511 17:42:13.564942 16272 net.cpp:408] fc6_context -> fc6_context
I0511 17:42:13.722553 16272 net.cpp:150] Setting up fc6_context
I0511 17:42:13.722599 16272 net.cpp:157] Top shape: 1 4096 (4096)
I0511 17:42:13.722600 16272 net.cpp:165] Memory required for data: 23748452
I0511 17:42:13.722609 16272 layer_factory.hpp:77] Creating layer relu6_context
I0511 17:42:13.722617 16272 net.cpp:100] Creating Layer relu6_context
I0511 17:42:13.722621 16272 net.cpp:434] relu6_context <- fc6_context
I0511 17:42:13.722627 16272 net.cpp:395] relu6_context -> fc6_context (in-place)
I0511 17:42:13.722636 16272 net.cpp:150] Setting up relu6_context
I0511 17:42:13.722638 16272 net.cpp:157] Top shape: 1 4096 (4096)
I0511 17:42:13.722640 16272 net.cpp:165] Memory required for data: 23764836
I0511 17:42:13.722642 16272 layer_factory.hpp:77] Creating layer drop6_context
I0511 17:42:13.722647 16272 net.cpp:100] Creating Layer drop6_context
I0511 17:42:13.722649 16272 net.cpp:434] drop6_context <- fc6_context
I0511 17:42:13.722653 16272 net.cpp:395] drop6_context -> fc6_context (in-place)
I0511 17:42:13.722669 16272 net.cpp:150] Setting up drop6_context
I0511 17:42:13.722672 16272 net.cpp:157] Top shape: 1 4096 (4096)
I0511 17:42:13.722674 16272 net.cpp:165] Memory required for data: 23781220
I0511 17:42:13.722677 16272 layer_factory.hpp:77] Creating layer fc7_context
I0511 17:42:13.722683 16272 net.cpp:100] Creating Layer fc7_context
I0511 17:42:13.722687 16272 net.cpp:434] fc7_context <- fc6_context
I0511 17:42:13.722692 16272 net.cpp:408] fc7_context -> fc7_context
I0511 17:42:13.748849 16272 net.cpp:150] Setting up fc7_context
I0511 17:42:13.748872 16272 net.cpp:157] Top shape: 1 4096 (4096)
I0511 17:42:13.748874 16272 net.cpp:165] Memory required for data: 23797604
I0511 17:42:13.748888 16272 layer_factory.hpp:77] Creating layer relu7_context
I0511 17:42:13.748896 16272 net.cpp:100] Creating Layer relu7_context
I0511 17:42:13.748901 16272 net.cpp:434] relu7_context <- fc7_context
I0511 17:42:13.748906 16272 net.cpp:395] relu7_context -> fc7_context (in-place)
I0511 17:42:13.748914 16272 net.cpp:150] Setting up relu7_context
I0511 17:42:13.748919 16272 net.cpp:157] Top shape: 1 4096 (4096)
I0511 17:42:13.748921 16272 net.cpp:165] Memory required for data: 23813988
I0511 17:42:13.748924 16272 layer_factory.hpp:77] Creating layer drop7_context
I0511 17:42:13.748930 16272 net.cpp:100] Creating Layer drop7_context
I0511 17:42:13.748934 16272 net.cpp:434] drop7_context <- fc7_context
I0511 17:42:13.748936 16272 net.cpp:395] drop7_context -> fc7_context (in-place)
I0511 17:42:13.748955 16272 net.cpp:150] Setting up drop7_context
I0511 17:42:13.748960 16272 net.cpp:157] Top shape: 1 4096 (4096)
I0511 17:42:13.748963 16272 net.cpp:165] Memory required for data: 23830372
I0511 17:42:13.748967 16272 layer_factory.hpp:77] Creating layer fc7_output
I0511 17:42:13.748972 16272 net.cpp:100] Creating Layer fc7_output
I0511 17:42:13.748975 16272 net.cpp:434] fc7_output <- fc7
I0511 17:42:13.748980 16272 net.cpp:434] fc7_output <- fc7_context
I0511 17:42:13.748984 16272 net.cpp:408] fc7_output -> fc7_output
I0511 17:42:13.749003 16272 net.cpp:150] Setting up fc7_output
I0511 17:42:13.749007 16272 net.cpp:157] Top shape: 1 8192 (8192)
I0511 17:42:13.749011 16272 net.cpp:165] Memory required for data: 23863140
I0511 17:42:13.749012 16272 layer_factory.hpp:77] Creating layer fc7_output_fc7_output_0_split
I0511 17:42:13.749017 16272 net.cpp:100] Creating Layer fc7_output_fc7_output_0_split
I0511 17:42:13.749019 16272 net.cpp:434] fc7_output_fc7_output_0_split <- fc7_output
I0511 17:42:13.749023 16272 net.cpp:408] fc7_output_fc7_output_0_split -> fc7_output_fc7_output_0_split_0
I0511 17:42:13.749028 16272 net.cpp:408] fc7_output_fc7_output_0_split -> fc7_output_fc7_output_0_split_1
I0511 17:42:13.749033 16272 net.cpp:408] fc7_output_fc7_output_0_split -> fc7_output_fc7_output_0_split_2
I0511 17:42:13.749064 16272 net.cpp:150] Setting up fc7_output_fc7_output_0_split
I0511 17:42:13.749068 16272 net.cpp:157] Top shape: 1 8192 (8192)
I0511 17:42:13.749071 16272 net.cpp:157] Top shape: 1 8192 (8192)
I0511 17:42:13.749074 16272 net.cpp:157] Top shape: 1 8192 (8192)
I0511 17:42:13.749078 16272 net.cpp:165] Memory required for data: 23961444
I0511 17:42:13.749079 16272 layer_factory.hpp:77] Creating layer cls_score
I0511 17:42:13.749086 16272 net.cpp:100] Creating Layer cls_score
I0511 17:42:13.749089 16272 net.cpp:434] cls_score <- fc7_output_fc7_output_0_split_0
I0511 17:42:13.749096 16272 net.cpp:408] cls_score -> cls_score
I0511 17:42:13.749300 16272 net.cpp:150] Setting up cls_score
I0511 17:42:13.749308 16272 net.cpp:157] Top shape: 1 2 (2)
I0511 17:42:13.749310 16272 net.cpp:165] Memory required for data: 23961452
I0511 17:42:13.749317 16272 layer_factory.hpp:77] Creating layer bbox_pred
I0511 17:42:13.749323 16272 net.cpp:100] Creating Layer bbox_pred
I0511 17:42:13.749327 16272 net.cpp:434] bbox_pred <- fc7_output_fc7_output_0_split_1
I0511 17:42:13.749331 16272 net.cpp:408] bbox_pred -> bbox_pred
I0511 17:42:13.750011 16272 net.cpp:150] Setting up bbox_pred
I0511 17:42:13.750020 16272 net.cpp:157] Top shape: 1 8 (8)
I0511 17:42:13.750021 16272 net.cpp:165] Memory required for data: 23961484
I0511 17:42:13.750026 16272 layer_factory.hpp:77] Creating layer ort_pred
I0511 17:42:13.750031 16272 net.cpp:100] Creating Layer ort_pred
I0511 17:42:13.750035 16272 net.cpp:434] ort_pred <- fc7_output_fc7_output_0_split_2
I0511 17:42:13.750038 16272 net.cpp:408] ort_pred -> ort_pred
I0511 17:42:13.750229 16272 net.cpp:150] Setting up ort_pred
I0511 17:42:13.750234 16272 net.cpp:157] Top shape: 1 2 (2)
I0511 17:42:13.750237 16272 net.cpp:165] Memory required for data: 23961492
I0511 17:42:13.750241 16272 layer_factory.hpp:77] Creating layer loss_cls
I0511 17:42:13.750246 16272 net.cpp:100] Creating Layer loss_cls
I0511 17:42:13.750247 16272 net.cpp:434] loss_cls <- cls_score
I0511 17:42:13.750252 16272 net.cpp:434] loss_cls <- labels
I0511 17:42:13.750255 16272 net.cpp:408] loss_cls -> loss_cls
…
