…
I0628 10:09:09.986884 23189 solver.cpp:81] Creating training net from train_net file: kitti/models/kitti_car/VGG16/train.prototxt
I0628 10:09:09.987414 23189 net.cpp:58] Initializing net from parameters: 
name: "VGG_ILSVRC_16_layers"
state {
  phase: TRAIN
}
layer {
  name: "data"
  type: "Python"
  top: "data"
  top: "rois"
  top: "labels"
  top: "bbox_targets"
  top: "bbox_loss_weights"
  top: "ort_targets"
  top: "ort_loss_weights"
  python_param {
    module: "roi_data_layer.layer"
    layer: "RoIDataLayer"
    param_str: "\'num_classes\': 2"
  }
}
layer {
  name: "multi_rois"
  type: "Python"
  bottom: "rois"
  top: "context"
  python_param {
    module: "roi_data_layer.layer"
    layer: "MultiRoIDataLayer"
    param_str: "\'context\': 1.5"
  }
}
layer {
  name: "conv1_1"
  type: "Convolution"
  bottom: "data"
  top: "conv1_1"
  param {
    lr_mult: 0
    decay_mult: 0
  }
  param {
    lr_mult: 0
    decay_mult: 0
  }
  convolution_param {
    num_output: 64
    pad: 1
    kernel_size: 3
  }
}
layer {
  name: "relu1_1"
  type: "ReLU"
  bottom: "conv1_1"
  top: "conv1_1"
}
layer {
  name: "conv1_2"
  type: "Convolution"
  bottom: "conv1_1"
  top: "conv1_2"
  param {
    lr_mult: 0
    decay_mult: 0
  }
  param {
    lr_mult: 0
    decay_mult: 0
  }
  convolution_param {
    num_output: 64
    pad: 1
    kernel_size: 3
  }
}
layer {
  name: "relu1_2"
  type: "ReLU"
  bottom: "conv1_2"
  top: "conv1_2"
}
layer {
  name: "pool1"
  type: "Pooling"
  bottom: "conv1_2"
  top: "pool1"
  pooling_param {
    pool: MAX
    kernel_size: 2
    stride: 2
  }
}
layer {
  name: "conv2_1"
  type: "Convolution"
  bottom: "pool1"
  top: "conv2_1"
  param {
    lr_mult: 0
    decay_mult: 0
  }
  param {
    lr_mult: 0
    decay_mult: 0
  }
  convolution_param {
    num_output: 128
    pad: 1
    kernel_size: 3
  }
}
layer {
  name: "relu2_1"
  type: "ReLU"
  bottom: "conv2_1"
  top: "conv2_1"
}
layer {
  name: "conv2_2"
  type: "Convolution"
  bottom: "conv2_1"
  top: "conv2_2"
  param {
    lr_mult: 0
    decay_mult: 0
  }
  param {
    lr_mult: 0
    decay_mult: 0
  }
  convolution_param {
    num_output: 128
    pad: 1
    kernel_size: 3
  }
}
layer {
  name: "relu2_2"
  type: "ReLU"
  bottom: "conv2_2"
  top: "conv2_2"
}
layer {
  name: "pool2"
  type: "Pooling"
  bottom: "conv2_2"
  top: "pool2"
  pooling_param {
    pool: MAX
    kernel_size: 2
    stride: 2
  }
}
layer {
  name: "conv3_1"
  type: "Convolution"
  bottom: "pool2"
  top: "conv3_1"
  param {
    lr_mult: 1
    decay_mult: 1
  }
  param {
    lr_mult: 2
    decay_mult: 0
  }
  convolution_param {
    num_output: 256
    pad: 1
    kernel_size: 3
  }
}
layer {
  name: "relu3_1"
  type: "ReLU"
  bottom: "conv3_1"
  top: "conv3_1"
}
layer {
  name: "conv3_2"
  type: "Convolution"
  bottom: "conv3_1"
  top: "conv3_2"
  param {
    lr_mult: 1
    decay_mult: 1
  }
  param {
    lr_mult: 2
    decay_mult: 0
  }
  convolution_param {
    num_output: 256
    pad: 1
    kernel_size: 3
  }
}
layer {
  name: "relu3_2"
  type: "ReLU"
  bottom: "conv3_2"
  top: "conv3_2"
}
layer {
  name: "conv3_3"
  type: "Convolution"
  bottom: "conv3_2"
  top: "conv3_3"
  param {
    lr_mult: 1
    decay_mult: 1
  }
  param {
    lr_mult: 2
    decay_mult: 0
  }
  convolution_param {
    num_output: 256
    pad: 1
    kernel_size: 3
  }
}
layer {
  name: "relu3_3"
  type: "ReLU"
  bottom: "conv3_3"
  top: "conv3_3"
}
layer {
  name: "pool3"
  type: "Pooling"
  bottom: "conv3_3"
  top: "pool3"
  pooling_param {
    pool: MAX
    kernel_size: 2
    stride: 2
  }
}
layer {
  name: "conv4_1"
  type: "Convolution"
  bottom: "pool3"
  top: "conv4_1"
  param {
    lr_mult: 1
    decay_mult: 1
  }
  param {
    lr_mult: 2
    decay_mult: 0
  }
  convolution_param {
    num_output: 512
    pad: 1
    kernel_size: 3
  }
}
layer {
  name: "relu4_1"
  type: "ReLU"
  bottom: "conv4_1"
  top: "conv4_1"
}
layer {
  name: "conv4_2"
  type: "Convolution"
  bottom: "conv4_1"
  top: "conv4_2"
  param {
    lr_mult: 1
    decay_mult: 1
  }
  param {
    lr_mult: 2
    decay_mult: 0
  }
  convolution_param {
    num_output: 512
    pad: 1
    kernel_size: 3
  }
}
layer {
  name: "relu4_2"
  type: "ReLU"
  bottom: "conv4_2"
  top: "conv4_2"
}
layer {
  name: "conv4_3"
  type: "Convolution"
  bottom: "conv4_2"
  top: "conv4_3"
  param {
    lr_mult: 1
    decay_mult: 1
  }
  param {
    lr_mult: 2
    decay_mult: 0
  }
  convolution_param {
    num_output: 512
    pad: 1
    kernel_size: 3
  }
}
layer {
  name: "relu4_3"
  type: "ReLU"
  bottom: "conv4_3"
  top: "conv4_3"
}
layer {
  name: "pool4"
  type: "Pooling"
  bottom: "conv4_3"
  top: "pool4"
  pooling_param {
    pool: MAX
    kernel_size: 2
    stride: 2
  }
}
layer {
  name: "conv5_1"
  type: "Convolution"
  bottom: "pool4"
  top: "conv5_1"
  param {
    lr_mult: 1
    decay_mult: 1
  }
  param {
    lr_mult: 2
    decay_mult: 0
  }
  convolution_param {
    num_output: 512
    pad: 1
    kernel_size: 3
  }
}
layer {
  name: "relu5_1"
  type: "ReLU"
  bottom: "conv5_1"
  top: "conv5_1"
}
layer {
  name: "conv5_2"
  type: "Convolution"
  bottom: "conv5_1"
  top: "conv5_2"
  param {
    lr_mult: 1
    decay_mult: 1
  }
  param {
    lr_mult: 2
    decay_mult: 0
  }
  convolution_param {
    num_output: 512
    pad: 1
    kernel_size: 3
  }
}
layer {
  name: "relu5_2"
  type: "ReLU"
  bottom: "conv5_2"
  top: "conv5_2"
}
layer {
  name: "conv5_3"
  type: "Convolution"
  bottom: "conv5_2"
  top: "conv5_3"
  param {
    lr_mult: 1
    decay_mult: 1
  }
  param {
    lr_mult: 2
    decay_mult: 0
  }
  convolution_param {
    num_output: 512
    pad: 1
    kernel_size: 3
  }
}
layer {
  name: "relu5_3"
  type: "ReLU"
  bottom: "conv5_3"
  top: "conv5_3"
}
layer {
  name: "roi_pool5"
  type: "ROIPooling"
  bottom: "conv5_3"
  bottom: "rois"
  top: "pool5"
  roi_pooling_param {
    pooled_h: 7
    pooled_w: 7
    spatial_scale: 0.0625
  }
}
layer {
  name: "fc6"
  type: "InnerProduct"
  bottom: "pool5"
  top: "fc6"
  param {
    lr_mult: 1
    decay_mult: 1
  }
  param {
    lr_mult: 2
    decay_mult: 0
  }
  inner_product_param {
    num_output: 4096
  }
}
layer {
  name: "relu6"
  type: "ReLU"
  bottom: "fc6"
  top: "fc6"
}
layer {
  name: "drop6"
  type: "Dropout"
  bottom: "fc6"
  top: "fc6"
  dropout_param {
    dropout_ratio: 0.5
  }
}
layer {
  name: "fc7"
  type: "InnerProduct"
  bottom: "fc6"
  top: "fc7"
  param {
    lr_mult: 1
    decay_mult: 1
  }
  param {
    lr_mult: 2
    decay_mult: 0
  }
  inner_product_param {
    num_output: 4096
  }
}
layer {
  name: "relu7"
  type: "ReLU"
  bottom: "fc7"
  top: "fc7"
}
layer {
  name: "drop7"
  type: "Dropout"
  bottom: "fc7"
  top: "fc7"
  dropout_param {
    dropout_ratio: 0.5
  }
}
layer {
  name: "roi_pool5_context"
  type: "ROIPooling"
  bottom: "conv5_3"
  bottom: "context"
  top: "pool5_context"
  roi_pooling_param {
    pooled_h: 7
    pooled_w: 7
    spatial_scale: 0.0625
  }
}
layer {
  name: "fc6_context"
  type: "InnerProduct"
  bottom: "pool5_context"
  top: "fc6_context"
  param {
    lr_mult: 1
    decay_mult: 1
  }
  param {
    lr_mult: 2
    decay_mult: 0
  }
  inner_product_param {
    num_output: 4096
  }
}
layer {
  name: "relu6_context"
  type: "ReLU"
  bottom: "fc6_context"
  top: "fc6_context"
}
layer {
  name: "drop6_context"
  type: "Dropout"
  bottom: "fc6_context"
  top: "fc6_context"
  dropout_param {
    dropout_ratio: 0.5
  }
}
layer {
  name: "fc7_context"
  type: "InnerProduct"
  bottom: "fc6_context"
  top: "fc7_context"
  param {
    lr_mult: 1
    decay_mult: 1
  }
  param {
    lr_mult: 2
    decay_mult: 0
  }
  inner_product_param {
    num_output: 4096
  }
}
layer {
  name: "relu7_context"
  type: "ReLU"
  bottom: "fc7_context"
  top: "fc7_context"
}
layer {
  name: "drop7_context"
  type: "Dropout"
  bottom: "fc7_context"
  top: "fc7_context"
  dropout_param {
    dropout_ratio: 0.5
  }
}
layer {
  name: "fc7_output"
  type: "Concat"
  bottom: "fc7"
  bottom: "fc7_context"
  top: "fc7_output"
}
layer {
  name: "cls_score"
  type: "InnerProduct"
  bottom: "fc7_output"
  top: "cls_score"
  param {
    lr_mult: 1
    decay_mult: 1
  }
  param {
    lr_mult: 2
    decay_mult: 0
  }
  inner_product_param {
    num_output: 2
    weight_filler {
      type: "gaussian"
      std: 0.01
    }
    bias_filler {
      type: "constant"
      value: 0
    }
  }
}
layer {
  name: "bbox_pred"
  type: "InnerProduct"
  bottom: "fc7_output"
  top: "bbox_pred"
  param {
    lr_mult: 1
    decay_mult: 1
  }
  param {
    lr_mult: 2
    decay_mult: 0
  }
  inner_product_param {
    num_output: 8
    weight_filler {
      type: "gaussian"
      std: 0.001
    }
    bias_filler {
      type: "constant"
      value: 0
    }
  }
}
layer {
  name: "ort_pred"
  type: "InnerProduct"
  bottom: "fc7_output"
  top: "ort_pred"
  param {
    lr_mult: 1
    decay_mult: 1
  }
  param {
    lr_mult: 2
    decay_mult: 0
  }
  inner_product_param {
    num_output: 2
    weight_filler {
      type: "gaussian"
      std: 0.001
    }
    bias_filler {
      type: "constant"
      value: 0
    }
  }
}
layer {
  name: "loss_cls"
  type: "SoftmaxWithLoss"
  bottom: "cls_score"
  bottom: "labels"
  top: "loss_cls"
  loss_weight: 1
}
layer {
  name: "loss_bbox"
  type: "SmoothL1Loss"
  bottom: "bbox_pred"
  bottom: "bbox_targets"
  bottom: "bbox_loss_weights"
  top: "loss_bbox"
  loss_weight: 1
}
layer {
  name: "loss_ort"
  type: "SmoothL1Loss"
  bottom: "ort_pred"
  bottom: "ort_targets"
  bottom: "ort_loss_weights"
  top: "loss_ort"
  loss_weight: 1
}
I0628 10:09:09.987607 23189 layer_factory.hpp:77] Creating layer data
I0628 10:09:10.012660 23189 net.cpp:100] Creating Layer data
I0628 10:09:10.012676 23189 net.cpp:408] data -> data
I0628 10:09:10.012686 23189 net.cpp:408] data -> rois
I0628 10:09:10.012692 23189 net.cpp:408] data -> labels
I0628 10:09:10.012698 23189 net.cpp:408] data -> bbox_targets
I0628 10:09:10.012706 23189 net.cpp:408] data -> bbox_loss_weights
I0628 10:09:10.012713 23189 net.cpp:408] data -> ort_targets
I0628 10:09:10.012719 23189 net.cpp:408] data -> ort_loss_weights
I0628 10:09:12.450500 23189 net.cpp:150] Setting up data
I0628 10:09:12.450546 23189 net.cpp:157] Top shape: 1 3 100 100 (30000)
I0628 10:09:12.450551 23189 net.cpp:157] Top shape: 1 5 (5)
I0628 10:09:12.450554 23189 net.cpp:157] Top shape: 1 (1)
I0628 10:09:12.450556 23189 net.cpp:157] Top shape: 1 8 (8)
I0628 10:09:12.450559 23189 net.cpp:157] Top shape: 1 8 (8)
I0628 10:09:12.450562 23189 net.cpp:157] Top shape: 1 2 (2)
I0628 10:09:12.450563 23189 net.cpp:157] Top shape: 1 2 (2)
I0628 10:09:12.450565 23189 net.cpp:165] Memory required for data: 120104
I0628 10:09:12.450570 23189 layer_factory.hpp:77] Creating layer rois_data_1_split
I0628 10:09:12.450582 23189 net.cpp:100] Creating Layer rois_data_1_split
I0628 10:09:12.450584 23189 net.cpp:434] rois_data_1_split <- rois
I0628 10:09:12.450590 23189 net.cpp:408] rois_data_1_split -> rois_data_1_split_0
I0628 10:09:12.450598 23189 net.cpp:408] rois_data_1_split -> rois_data_1_split_1
I0628 10:09:12.450636 23189 net.cpp:150] Setting up rois_data_1_split
I0628 10:09:12.450641 23189 net.cpp:157] Top shape: 1 5 (5)
I0628 10:09:12.450644 23189 net.cpp:157] Top shape: 1 5 (5)
I0628 10:09:12.450645 23189 net.cpp:165] Memory required for data: 120144
I0628 10:09:12.450647 23189 layer_factory.hpp:77] Creating layer multi_rois
I0628 10:09:12.450678 23189 net.cpp:100] Creating Layer multi_rois
I0628 10:09:12.450683 23189 net.cpp:434] multi_rois <- rois_data_1_split_0
I0628 10:09:12.450687 23189 net.cpp:408] multi_rois -> context
'context': 1.5
I0628 10:09:12.451046 23189 net.cpp:150] Setting up multi_rois
I0628 10:09:12.451055 23189 net.cpp:157] Top shape: 1 5 (5)
I0628 10:09:12.451071 23189 net.cpp:165] Memory required for data: 120164
I0628 10:09:12.451074 23189 layer_factory.hpp:77] Creating layer conv1_1
I0628 10:09:12.451082 23189 net.cpp:100] Creating Layer conv1_1
I0628 10:09:12.451086 23189 net.cpp:434] conv1_1 <- data
I0628 10:09:12.451090 23189 net.cpp:408] conv1_1 -> conv1_1
I0628 10:09:12.453373 23189 net.cpp:150] Setting up conv1_1
I0628 10:09:12.453383 23189 net.cpp:157] Top shape: 1 64 100 100 (640000)
I0628 10:09:12.453402 23189 net.cpp:165] Memory required for data: 2680164
I0628 10:09:12.453410 23189 layer_factory.hpp:77] Creating layer relu1_1
I0628 10:09:12.453416 23189 net.cpp:100] Creating Layer relu1_1
I0628 10:09:12.453419 23189 net.cpp:434] relu1_1 <- conv1_1
I0628 10:09:12.453423 23189 net.cpp:395] relu1_1 -> conv1_1 (in-place)
I0628 10:09:12.453428 23189 net.cpp:150] Setting up relu1_1
I0628 10:09:12.453430 23189 net.cpp:157] Top shape: 1 64 100 100 (640000)
I0628 10:09:12.453433 23189 net.cpp:165] Memory required for data: 5240164
I0628 10:09:12.453434 23189 layer_factory.hpp:77] Creating layer conv1_2
I0628 10:09:12.453439 23189 net.cpp:100] Creating Layer conv1_2
I0628 10:09:12.453441 23189 net.cpp:434] conv1_2 <- conv1_1
I0628 10:09:12.453445 23189 net.cpp:408] conv1_2 -> conv1_2
I0628 10:09:12.454757 23189 net.cpp:150] Setting up conv1_2
I0628 10:09:12.454768 23189 net.cpp:157] Top shape: 1 64 100 100 (640000)
I0628 10:09:12.454771 23189 net.cpp:165] Memory required for data: 7800164
I0628 10:09:12.454777 23189 layer_factory.hpp:77] Creating layer relu1_2
I0628 10:09:12.454782 23189 net.cpp:100] Creating Layer relu1_2
I0628 10:09:12.454783 23189 net.cpp:434] relu1_2 <- conv1_2
I0628 10:09:12.454787 23189 net.cpp:395] relu1_2 -> conv1_2 (in-place)
I0628 10:09:12.454792 23189 net.cpp:150] Setting up relu1_2
I0628 10:09:12.454795 23189 net.cpp:157] Top shape: 1 64 100 100 (640000)
I0628 10:09:12.454797 23189 net.cpp:165] Memory required for data: 10360164
I0628 10:09:12.454799 23189 layer_factory.hpp:77] Creating layer pool1
I0628 10:09:12.454803 23189 net.cpp:100] Creating Layer pool1
I0628 10:09:12.454805 23189 net.cpp:434] pool1 <- conv1_2
I0628 10:09:12.454808 23189 net.cpp:408] pool1 -> pool1
I0628 10:09:12.454849 23189 net.cpp:150] Setting up pool1
I0628 10:09:12.454852 23189 net.cpp:157] Top shape: 1 64 50 50 (160000)
I0628 10:09:12.454854 23189 net.cpp:165] Memory required for data: 11000164
I0628 10:09:12.454855 23189 layer_factory.hpp:77] Creating layer conv2_1
I0628 10:09:12.454862 23189 net.cpp:100] Creating Layer conv2_1
I0628 10:09:12.454864 23189 net.cpp:434] conv2_1 <- pool1
I0628 10:09:12.454869 23189 net.cpp:408] conv2_1 -> conv2_1
I0628 10:09:12.456171 23189 net.cpp:150] Setting up conv2_1
I0628 10:09:12.456182 23189 net.cpp:157] Top shape: 1 128 50 50 (320000)
I0628 10:09:12.456183 23189 net.cpp:165] Memory required for data: 12280164
I0628 10:09:12.456189 23189 layer_factory.hpp:77] Creating layer relu2_1
I0628 10:09:12.456193 23189 net.cpp:100] Creating Layer relu2_1
I0628 10:09:12.456197 23189 net.cpp:434] relu2_1 <- conv2_1
I0628 10:09:12.456200 23189 net.cpp:395] relu2_1 -> conv2_1 (in-place)
I0628 10:09:12.456204 23189 net.cpp:150] Setting up relu2_1
I0628 10:09:12.456207 23189 net.cpp:157] Top shape: 1 128 50 50 (320000)
I0628 10:09:12.456210 23189 net.cpp:165] Memory required for data: 13560164
I0628 10:09:12.456212 23189 layer_factory.hpp:77] Creating layer conv2_2
I0628 10:09:12.456216 23189 net.cpp:100] Creating Layer conv2_2
I0628 10:09:12.456218 23189 net.cpp:434] conv2_2 <- conv2_1
I0628 10:09:12.456223 23189 net.cpp:408] conv2_2 -> conv2_2
I0628 10:09:12.456583 23189 net.cpp:150] Setting up conv2_2
I0628 10:09:12.456589 23189 net.cpp:157] Top shape: 1 128 50 50 (320000)
I0628 10:09:12.456605 23189 net.cpp:165] Memory required for data: 14840164
I0628 10:09:12.456610 23189 layer_factory.hpp:77] Creating layer relu2_2
I0628 10:09:12.456614 23189 net.cpp:100] Creating Layer relu2_2
I0628 10:09:12.456615 23189 net.cpp:434] relu2_2 <- conv2_2
I0628 10:09:12.456619 23189 net.cpp:395] relu2_2 -> conv2_2 (in-place)
I0628 10:09:12.456622 23189 net.cpp:150] Setting up relu2_2
I0628 10:09:12.456640 23189 net.cpp:157] Top shape: 1 128 50 50 (320000)
I0628 10:09:12.456641 23189 net.cpp:165] Memory required for data: 16120164
I0628 10:09:12.456643 23189 layer_factory.hpp:77] Creating layer pool2
I0628 10:09:12.456662 23189 net.cpp:100] Creating Layer pool2
I0628 10:09:12.456665 23189 net.cpp:434] pool2 <- conv2_2
I0628 10:09:12.456668 23189 net.cpp:408] pool2 -> pool2
I0628 10:09:12.456706 23189 net.cpp:150] Setting up pool2
I0628 10:09:12.456710 23189 net.cpp:157] Top shape: 1 128 25 25 (80000)
I0628 10:09:12.456712 23189 net.cpp:165] Memory required for data: 16440164
I0628 10:09:12.456714 23189 layer_factory.hpp:77] Creating layer conv3_1
I0628 10:09:12.456719 23189 net.cpp:100] Creating Layer conv3_1
I0628 10:09:12.456722 23189 net.cpp:434] conv3_1 <- pool2
I0628 10:09:12.456725 23189 net.cpp:408] conv3_1 -> conv3_1
I0628 10:09:12.458130 23189 net.cpp:150] Setting up conv3_1
I0628 10:09:12.458139 23189 net.cpp:157] Top shape: 1 256 25 25 (160000)
I0628 10:09:12.458142 23189 net.cpp:165] Memory required for data: 17080164
I0628 10:09:12.458148 23189 layer_factory.hpp:77] Creating layer relu3_1
I0628 10:09:12.458153 23189 net.cpp:100] Creating Layer relu3_1
I0628 10:09:12.458155 23189 net.cpp:434] relu3_1 <- conv3_1
I0628 10:09:12.458159 23189 net.cpp:395] relu3_1 -> conv3_1 (in-place)
I0628 10:09:12.458163 23189 net.cpp:150] Setting up relu3_1
I0628 10:09:12.458166 23189 net.cpp:157] Top shape: 1 256 25 25 (160000)
I0628 10:09:12.458169 23189 net.cpp:165] Memory required for data: 17720164
I0628 10:09:12.458171 23189 layer_factory.hpp:77] Creating layer conv3_2
I0628 10:09:12.458176 23189 net.cpp:100] Creating Layer conv3_2
I0628 10:09:12.458178 23189 net.cpp:434] conv3_2 <- conv3_1
I0628 10:09:12.458182 23189 net.cpp:408] conv3_2 -> conv3_2
I0628 10:09:12.459856 23189 net.cpp:150] Setting up conv3_2
I0628 10:09:12.459866 23189 net.cpp:157] Top shape: 1 256 25 25 (160000)
I0628 10:09:12.459867 23189 net.cpp:165] Memory required for data: 18360164
I0628 10:09:12.459872 23189 layer_factory.hpp:77] Creating layer relu3_2
I0628 10:09:12.459878 23189 net.cpp:100] Creating Layer relu3_2
I0628 10:09:12.459880 23189 net.cpp:434] relu3_2 <- conv3_2
I0628 10:09:12.459884 23189 net.cpp:395] relu3_2 -> conv3_2 (in-place)
I0628 10:09:12.459888 23189 net.cpp:150] Setting up relu3_2
I0628 10:09:12.459892 23189 net.cpp:157] Top shape: 1 256 25 25 (160000)
I0628 10:09:12.459895 23189 net.cpp:165] Memory required for data: 19000164
I0628 10:09:12.459897 23189 layer_factory.hpp:77] Creating layer conv3_3
I0628 10:09:12.459903 23189 net.cpp:100] Creating Layer conv3_3
I0628 10:09:12.459904 23189 net.cpp:434] conv3_3 <- conv3_2
I0628 10:09:12.459908 23189 net.cpp:408] conv3_3 -> conv3_3
I0628 10:09:12.461612 23189 net.cpp:150] Setting up conv3_3
I0628 10:09:12.461637 23189 net.cpp:157] Top shape: 1 256 25 25 (160000)
I0628 10:09:12.461640 23189 net.cpp:165] Memory required for data: 19640164
I0628 10:09:12.461644 23189 layer_factory.hpp:77] Creating layer relu3_3
I0628 10:09:12.461649 23189 net.cpp:100] Creating Layer relu3_3
I0628 10:09:12.461652 23189 net.cpp:434] relu3_3 <- conv3_3
I0628 10:09:12.461657 23189 net.cpp:395] relu3_3 -> conv3_3 (in-place)
I0628 10:09:12.461661 23189 net.cpp:150] Setting up relu3_3
I0628 10:09:12.461664 23189 net.cpp:157] Top shape: 1 256 25 25 (160000)
I0628 10:09:12.461666 23189 net.cpp:165] Memory required for data: 20280164
I0628 10:09:12.461668 23189 layer_factory.hpp:77] Creating layer pool3
I0628 10:09:12.461671 23189 net.cpp:100] Creating Layer pool3
I0628 10:09:12.461673 23189 net.cpp:434] pool3 <- conv3_3
I0628 10:09:12.461678 23189 net.cpp:408] pool3 -> pool3
I0628 10:09:12.461719 23189 net.cpp:150] Setting up pool3
I0628 10:09:12.461724 23189 net.cpp:157] Top shape: 1 256 13 13 (43264)
I0628 10:09:12.461726 23189 net.cpp:165] Memory required for data: 20453220
I0628 10:09:12.461729 23189 layer_factory.hpp:77] Creating layer conv4_1
I0628 10:09:12.461733 23189 net.cpp:100] Creating Layer conv4_1
I0628 10:09:12.461736 23189 net.cpp:434] conv4_1 <- pool3
I0628 10:09:12.461740 23189 net.cpp:408] conv4_1 -> conv4_1
I0628 10:09:12.464272 23189 net.cpp:150] Setting up conv4_1
I0628 10:09:12.464285 23189 net.cpp:157] Top shape: 1 512 13 13 (86528)
I0628 10:09:12.464288 23189 net.cpp:165] Memory required for data: 20799332
I0628 10:09:12.464293 23189 layer_factory.hpp:77] Creating layer relu4_1
I0628 10:09:12.464298 23189 net.cpp:100] Creating Layer relu4_1
I0628 10:09:12.464300 23189 net.cpp:434] relu4_1 <- conv4_1
I0628 10:09:12.464304 23189 net.cpp:395] relu4_1 -> conv4_1 (in-place)
I0628 10:09:12.464309 23189 net.cpp:150] Setting up relu4_1
I0628 10:09:12.464313 23189 net.cpp:157] Top shape: 1 512 13 13 (86528)
I0628 10:09:12.464314 23189 net.cpp:165] Memory required for data: 21145444
I0628 10:09:12.464316 23189 layer_factory.hpp:77] Creating layer conv4_2
I0628 10:09:12.464323 23189 net.cpp:100] Creating Layer conv4_2
I0628 10:09:12.464324 23189 net.cpp:434] conv4_2 <- conv4_1
I0628 10:09:12.464327 23189 net.cpp:408] conv4_2 -> conv4_2
I0628 10:09:12.468592 23189 net.cpp:150] Setting up conv4_2
I0628 10:09:12.468614 23189 net.cpp:157] Top shape: 1 512 13 13 (86528)
I0628 10:09:12.468616 23189 net.cpp:165] Memory required for data: 21491556
I0628 10:09:12.468627 23189 layer_factory.hpp:77] Creating layer relu4_2
I0628 10:09:12.468634 23189 net.cpp:100] Creating Layer relu4_2
I0628 10:09:12.468638 23189 net.cpp:434] relu4_2 <- conv4_2
I0628 10:09:12.468643 23189 net.cpp:395] relu4_2 -> conv4_2 (in-place)
I0628 10:09:12.468650 23189 net.cpp:150] Setting up relu4_2
I0628 10:09:12.468653 23189 net.cpp:157] Top shape: 1 512 13 13 (86528)
I0628 10:09:12.468655 23189 net.cpp:165] Memory required for data: 21837668
I0628 10:09:12.468657 23189 layer_factory.hpp:77] Creating layer conv4_3
I0628 10:09:12.468663 23189 net.cpp:100] Creating Layer conv4_3
I0628 10:09:12.468665 23189 net.cpp:434] conv4_3 <- conv4_2
I0628 10:09:12.468669 23189 net.cpp:408] conv4_3 -> conv4_3
I0628 10:09:12.472887 23189 net.cpp:150] Setting up conv4_3
I0628 10:09:12.472903 23189 net.cpp:157] Top shape: 1 512 13 13 (86528)
I0628 10:09:12.472905 23189 net.cpp:165] Memory required for data: 22183780
I0628 10:09:12.472911 23189 layer_factory.hpp:77] Creating layer relu4_3
I0628 10:09:12.472918 23189 net.cpp:100] Creating Layer relu4_3
I0628 10:09:12.472920 23189 net.cpp:434] relu4_3 <- conv4_3
I0628 10:09:12.472925 23189 net.cpp:395] relu4_3 -> conv4_3 (in-place)
I0628 10:09:12.472931 23189 net.cpp:150] Setting up relu4_3
I0628 10:09:12.472935 23189 net.cpp:157] Top shape: 1 512 13 13 (86528)
I0628 10:09:12.472937 23189 net.cpp:165] Memory required for data: 22529892
I0628 10:09:12.472939 23189 layer_factory.hpp:77] Creating layer pool4
I0628 10:09:12.472944 23189 net.cpp:100] Creating Layer pool4
I0628 10:09:12.472945 23189 net.cpp:434] pool4 <- conv4_3
I0628 10:09:12.472949 23189 net.cpp:408] pool4 -> pool4
I0628 10:09:12.472992 23189 net.cpp:150] Setting up pool4
I0628 10:09:12.473001 23189 net.cpp:157] Top shape: 1 512 7 7 (25088)
I0628 10:09:12.473003 23189 net.cpp:165] Memory required for data: 22630244
I0628 10:09:12.473006 23189 layer_factory.hpp:77] Creating layer conv5_1
I0628 10:09:12.473012 23189 net.cpp:100] Creating Layer conv5_1
I0628 10:09:12.473014 23189 net.cpp:434] conv5_1 <- pool4
I0628 10:09:12.473018 23189 net.cpp:408] conv5_1 -> conv5_1
I0628 10:09:12.477138 23189 net.cpp:150] Setting up conv5_1
I0628 10:09:12.477152 23189 net.cpp:157] Top shape: 1 512 7 7 (25088)
I0628 10:09:12.477154 23189 net.cpp:165] Memory required for data: 22730596
I0628 10:09:12.477160 23189 layer_factory.hpp:77] Creating layer relu5_1
I0628 10:09:12.477165 23189 net.cpp:100] Creating Layer relu5_1
I0628 10:09:12.477169 23189 net.cpp:434] relu5_1 <- conv5_1
I0628 10:09:12.477172 23189 net.cpp:395] relu5_1 -> conv5_1 (in-place)
I0628 10:09:12.477177 23189 net.cpp:150] Setting up relu5_1
I0628 10:09:12.477180 23189 net.cpp:157] Top shape: 1 512 7 7 (25088)
I0628 10:09:12.477182 23189 net.cpp:165] Memory required for data: 22830948
I0628 10:09:12.477185 23189 layer_factory.hpp:77] Creating layer conv5_2
I0628 10:09:12.477190 23189 net.cpp:100] Creating Layer conv5_2
I0628 10:09:12.477192 23189 net.cpp:434] conv5_2 <- conv5_1
I0628 10:09:12.477196 23189 net.cpp:408] conv5_2 -> conv5_2
I0628 10:09:12.481348 23189 net.cpp:150] Setting up conv5_2
I0628 10:09:12.481380 23189 net.cpp:157] Top shape: 1 512 7 7 (25088)
I0628 10:09:12.481382 23189 net.cpp:165] Memory required for data: 22931300
I0628 10:09:12.481389 23189 layer_factory.hpp:77] Creating layer relu5_2
I0628 10:09:12.481395 23189 net.cpp:100] Creating Layer relu5_2
I0628 10:09:12.481400 23189 net.cpp:434] relu5_2 <- conv5_2
I0628 10:09:12.481405 23189 net.cpp:395] relu5_2 -> conv5_2 (in-place)
I0628 10:09:12.481412 23189 net.cpp:150] Setting up relu5_2
I0628 10:09:12.481415 23189 net.cpp:157] Top shape: 1 512 7 7 (25088)
I0628 10:09:12.481417 23189 net.cpp:165] Memory required for data: 23031652
I0628 10:09:12.481420 23189 layer_factory.hpp:77] Creating layer conv5_3
I0628 10:09:12.481426 23189 net.cpp:100] Creating Layer conv5_3
I0628 10:09:12.481427 23189 net.cpp:434] conv5_3 <- conv5_2
I0628 10:09:12.481431 23189 net.cpp:408] conv5_3 -> conv5_3
I0628 10:09:12.485632 23189 net.cpp:150] Setting up conv5_3
I0628 10:09:12.485663 23189 net.cpp:157] Top shape: 1 512 7 7 (25088)
I0628 10:09:12.485666 23189 net.cpp:165] Memory required for data: 23132004
I0628 10:09:12.485672 23189 layer_factory.hpp:77] Creating layer relu5_3
I0628 10:09:12.485682 23189 net.cpp:100] Creating Layer relu5_3
I0628 10:09:12.485685 23189 net.cpp:434] relu5_3 <- conv5_3
I0628 10:09:12.485690 23189 net.cpp:395] relu5_3 -> conv5_3 (in-place)
I0628 10:09:12.485697 23189 net.cpp:150] Setting up relu5_3
I0628 10:09:12.485699 23189 net.cpp:157] Top shape: 1 512 7 7 (25088)
I0628 10:09:12.485702 23189 net.cpp:165] Memory required for data: 23232356
I0628 10:09:12.485703 23189 layer_factory.hpp:77] Creating layer conv5_3_relu5_3_0_split
I0628 10:09:12.485707 23189 net.cpp:100] Creating Layer conv5_3_relu5_3_0_split
I0628 10:09:12.485709 23189 net.cpp:434] conv5_3_relu5_3_0_split <- conv5_3
I0628 10:09:12.485713 23189 net.cpp:408] conv5_3_relu5_3_0_split -> conv5_3_relu5_3_0_split_0
I0628 10:09:12.485718 23189 net.cpp:408] conv5_3_relu5_3_0_split -> conv5_3_relu5_3_0_split_1
I0628 10:09:12.485761 23189 net.cpp:150] Setting up conv5_3_relu5_3_0_split
I0628 10:09:12.485765 23189 net.cpp:157] Top shape: 1 512 7 7 (25088)
I0628 10:09:12.485769 23189 net.cpp:157] Top shape: 1 512 7 7 (25088)
I0628 10:09:12.485770 23189 net.cpp:165] Memory required for data: 23433060
I0628 10:09:12.485772 23189 layer_factory.hpp:77] Creating layer roi_pool5
I0628 10:09:12.485777 23189 net.cpp:100] Creating Layer roi_pool5
I0628 10:09:12.485780 23189 net.cpp:434] roi_pool5 <- conv5_3_relu5_3_0_split_0
I0628 10:09:12.485783 23189 net.cpp:434] roi_pool5 <- rois_data_1_split_1
I0628 10:09:12.485787 23189 net.cpp:408] roi_pool5 -> pool5
I0628 10:09:12.485791 23189 roi_pooling_layer.cpp:30] Spatial scale: 0.0625
I0628 10:09:12.485834 23189 net.cpp:150] Setting up roi_pool5
I0628 10:09:12.485838 23189 net.cpp:157] Top shape: 1 512 7 7 (25088)
I0628 10:09:12.485841 23189 net.cpp:165] Memory required for data: 23533412
I0628 10:09:12.485842 23189 layer_factory.hpp:77] Creating layer fc6
I0628 10:09:12.485847 23189 net.cpp:100] Creating Layer fc6
I0628 10:09:12.485851 23189 net.cpp:434] fc6 <- pool5
I0628 10:09:12.485853 23189 net.cpp:408] fc6 -> fc6
I0628 10:09:12.648383 23189 net.cpp:150] Setting up fc6
I0628 10:09:12.648408 23189 net.cpp:157] Top shape: 1 4096 (4096)
I0628 10:09:12.648411 23189 net.cpp:165] Memory required for data: 23549796
I0628 10:09:12.648418 23189 layer_factory.hpp:77] Creating layer relu6
I0628 10:09:12.648427 23189 net.cpp:100] Creating Layer relu6
I0628 10:09:12.648429 23189 net.cpp:434] relu6 <- fc6
I0628 10:09:12.648437 23189 net.cpp:395] relu6 -> fc6 (in-place)
I0628 10:09:12.648447 23189 net.cpp:150] Setting up relu6
I0628 10:09:12.648449 23189 net.cpp:157] Top shape: 1 4096 (4096)
I0628 10:09:12.648452 23189 net.cpp:165] Memory required for data: 23566180
I0628 10:09:12.648452 23189 layer_factory.hpp:77] Creating layer drop6
I0628 10:09:12.648458 23189 net.cpp:100] Creating Layer drop6
I0628 10:09:12.648459 23189 net.cpp:434] drop6 <- fc6
I0628 10:09:12.648479 23189 net.cpp:395] drop6 -> fc6 (in-place)
I0628 10:09:12.648526 23189 net.cpp:150] Setting up drop6
I0628 10:09:12.648530 23189 net.cpp:157] Top shape: 1 4096 (4096)
I0628 10:09:12.648531 23189 net.cpp:165] Memory required for data: 23582564
I0628 10:09:12.648533 23189 layer_factory.hpp:77] Creating layer fc7
I0628 10:09:12.648538 23189 net.cpp:100] Creating Layer fc7
I0628 10:09:12.648540 23189 net.cpp:434] fc7 <- fc6
I0628 10:09:12.648545 23189 net.cpp:408] fc7 -> fc7
I0628 10:09:12.676239 23189 net.cpp:150] Setting up fc7
I0628 10:09:12.676277 23189 net.cpp:157] Top shape: 1 4096 (4096)
I0628 10:09:12.676280 23189 net.cpp:165] Memory required for data: 23598948
I0628 10:09:12.676288 23189 layer_factory.hpp:77] Creating layer relu7
I0628 10:09:12.676297 23189 net.cpp:100] Creating Layer relu7
I0628 10:09:12.676301 23189 net.cpp:434] relu7 <- fc7
I0628 10:09:12.676307 23189 net.cpp:395] relu7 -> fc7 (in-place)
I0628 10:09:12.676314 23189 net.cpp:150] Setting up relu7
I0628 10:09:12.676317 23189 net.cpp:157] Top shape: 1 4096 (4096)
I0628 10:09:12.676318 23189 net.cpp:165] Memory required for data: 23615332
I0628 10:09:12.676321 23189 layer_factory.hpp:77] Creating layer drop7
I0628 10:09:12.676326 23189 net.cpp:100] Creating Layer drop7
I0628 10:09:12.676327 23189 net.cpp:434] drop7 <- fc7
I0628 10:09:12.676331 23189 net.cpp:395] drop7 -> fc7 (in-place)
I0628 10:09:12.676355 23189 net.cpp:150] Setting up drop7
I0628 10:09:12.676358 23189 net.cpp:157] Top shape: 1 4096 (4096)
I0628 10:09:12.676360 23189 net.cpp:165] Memory required for data: 23631716
I0628 10:09:12.676362 23189 layer_factory.hpp:77] Creating layer roi_pool5_context
I0628 10:09:12.676367 23189 net.cpp:100] Creating Layer roi_pool5_context
I0628 10:09:12.676370 23189 net.cpp:434] roi_pool5_context <- conv5_3_relu5_3_0_split_1
I0628 10:09:12.676374 23189 net.cpp:434] roi_pool5_context <- context
I0628 10:09:12.676378 23189 net.cpp:408] roi_pool5_context -> pool5_context
I0628 10:09:12.676389 23189 roi_pooling_layer.cpp:30] Spatial scale: 0.0625
I0628 10:09:12.676442 23189 net.cpp:150] Setting up roi_pool5_context
I0628 10:09:12.676447 23189 net.cpp:157] Top shape: 1 512 7 7 (25088)
I0628 10:09:12.676450 23189 net.cpp:165] Memory required for data: 23732068
I0628 10:09:12.676451 23189 layer_factory.hpp:77] Creating layer fc6_context
I0628 10:09:12.676456 23189 net.cpp:100] Creating Layer fc6_context
I0628 10:09:12.676458 23189 net.cpp:434] fc6_context <- pool5_context
I0628 10:09:12.676462 23189 net.cpp:408] fc6_context -> fc6_context
I0628 10:09:12.837924 23189 net.cpp:150] Setting up fc6_context
I0628 10:09:12.837949 23189 net.cpp:157] Top shape: 1 4096 (4096)
I0628 10:09:12.837950 23189 net.cpp:165] Memory required for data: 23748452
I0628 10:09:12.837958 23189 layer_factory.hpp:77] Creating layer relu6_context
I0628 10:09:12.837967 23189 net.cpp:100] Creating Layer relu6_context
I0628 10:09:12.837971 23189 net.cpp:434] relu6_context <- fc6_context
I0628 10:09:12.837976 23189 net.cpp:395] relu6_context -> fc6_context (in-place)
I0628 10:09:12.837985 23189 net.cpp:150] Setting up relu6_context
I0628 10:09:12.837986 23189 net.cpp:157] Top shape: 1 4096 (4096)
I0628 10:09:12.837988 23189 net.cpp:165] Memory required for data: 23764836
I0628 10:09:12.837990 23189 layer_factory.hpp:77] Creating layer drop6_context
I0628 10:09:12.837996 23189 net.cpp:100] Creating Layer drop6_context
I0628 10:09:12.837997 23189 net.cpp:434] drop6_context <- fc6_context
I0628 10:09:12.838016 23189 net.cpp:395] drop6_context -> fc6_context (in-place)
I0628 10:09:12.838040 23189 net.cpp:150] Setting up drop6_context
I0628 10:09:12.838044 23189 net.cpp:157] Top shape: 1 4096 (4096)
I0628 10:09:12.838047 23189 net.cpp:165] Memory required for data: 23781220
I0628 10:09:12.838048 23189 layer_factory.hpp:77] Creating layer fc7_context
I0628 10:09:12.838053 23189 net.cpp:100] Creating Layer fc7_context
I0628 10:09:12.838055 23189 net.cpp:434] fc7_context <- fc6_context
I0628 10:09:12.838059 23189 net.cpp:408] fc7_context -> fc7_context
I0628 10:09:12.865756 23189 net.cpp:150] Setting up fc7_context
I0628 10:09:12.865792 23189 net.cpp:157] Top shape: 1 4096 (4096)
I0628 10:09:12.865794 23189 net.cpp:165] Memory required for data: 23797604
I0628 10:09:12.865808 23189 layer_factory.hpp:77] Creating layer relu7_context
I0628 10:09:12.865816 23189 net.cpp:100] Creating Layer relu7_context
I0628 10:09:12.865820 23189 net.cpp:434] relu7_context <- fc7_context
I0628 10:09:12.865826 23189 net.cpp:395] relu7_context -> fc7_context (in-place)
I0628 10:09:12.865833 23189 net.cpp:150] Setting up relu7_context
I0628 10:09:12.865836 23189 net.cpp:157] Top shape: 1 4096 (4096)
I0628 10:09:12.865839 23189 net.cpp:165] Memory required for data: 23813988
I0628 10:09:12.865840 23189 layer_factory.hpp:77] Creating layer drop7_context
I0628 10:09:12.865844 23189 net.cpp:100] Creating Layer drop7_context
I0628 10:09:12.865846 23189 net.cpp:434] drop7_context <- fc7_context
I0628 10:09:12.865849 23189 net.cpp:395] drop7_context -> fc7_context (in-place)
I0628 10:09:12.865875 23189 net.cpp:150] Setting up drop7_context
I0628 10:09:12.865878 23189 net.cpp:157] Top shape: 1 4096 (4096)
I0628 10:09:12.865880 23189 net.cpp:165] Memory required for data: 23830372
I0628 10:09:12.865881 23189 layer_factory.hpp:77] Creating layer fc7_output
I0628 10:09:12.865886 23189 net.cpp:100] Creating Layer fc7_output
I0628 10:09:12.865888 23189 net.cpp:434] fc7_output <- fc7
I0628 10:09:12.865892 23189 net.cpp:434] fc7_output <- fc7_context
I0628 10:09:12.865895 23189 net.cpp:408] fc7_output -> fc7_output
I0628 10:09:12.865918 23189 net.cpp:150] Setting up fc7_output
I0628 10:09:12.865923 23189 net.cpp:157] Top shape: 1 8192 (8192)
I0628 10:09:12.865926 23189 net.cpp:165] Memory required for data: 23863140
I0628 10:09:12.865927 23189 layer_factory.hpp:77] Creating layer fc7_output_fc7_output_0_split
I0628 10:09:12.865932 23189 net.cpp:100] Creating Layer fc7_output_fc7_output_0_split
I0628 10:09:12.865934 23189 net.cpp:434] fc7_output_fc7_output_0_split <- fc7_output
I0628 10:09:12.865939 23189 net.cpp:408] fc7_output_fc7_output_0_split -> fc7_output_fc7_output_0_split_0
I0628 10:09:12.865943 23189 net.cpp:408] fc7_output_fc7_output_0_split -> fc7_output_fc7_output_0_split_1
I0628 10:09:12.865947 23189 net.cpp:408] fc7_output_fc7_output_0_split -> fc7_output_fc7_output_0_split_2
I0628 10:09:12.865996 23189 net.cpp:150] Setting up fc7_output_fc7_output_0_split
I0628 10:09:12.865999 23189 net.cpp:157] Top shape: 1 8192 (8192)
I0628 10:09:12.866001 23189 net.cpp:157] Top shape: 1 8192 (8192)
I0628 10:09:12.866003 23189 net.cpp:157] Top shape: 1 8192 (8192)
I0628 10:09:12.866005 23189 net.cpp:165] Memory required for data: 23961444
I0628 10:09:12.866008 23189 layer_factory.hpp:77] Creating layer cls_score
I0628 10:09:12.866014 23189 net.cpp:100] Creating Layer cls_score
I0628 10:09:12.866015 23189 net.cpp:434] cls_score <- fc7_output_fc7_output_0_split_0
I0628 10:09:12.866020 23189 net.cpp:408] cls_score -> cls_score
I0628 10:09:12.866271 23189 net.cpp:150] Setting up cls_score
I0628 10:09:12.866276 23189 net.cpp:157] Top shape: 1 2 (2)
I0628 10:09:12.866278 23189 net.cpp:165] Memory required for data: 23961452
I0628 10:09:12.866282 23189 layer_factory.hpp:77] Creating layer bbox_pred
I0628 10:09:12.866286 23189 net.cpp:100] Creating Layer bbox_pred
I0628 10:09:12.866289 23189 net.cpp:434] bbox_pred <- fc7_output_fc7_output_0_split_1
I0628 10:09:12.866293 23189 net.cpp:408] bbox_pred -> bbox_pred
I0628 10:09:12.866931 23189 net.cpp:150] Setting up bbox_pred
I0628 10:09:12.866937 23189 net.cpp:157] Top shape: 1 8 (8)
I0628 10:09:12.866940 23189 net.cpp:165] Memory required for data: 23961484
I0628 10:09:12.866943 23189 layer_factory.hpp:77] Creating layer ort_pred
I0628 10:09:12.866948 23189 net.cpp:100] Creating Layer ort_pred
I0628 10:09:12.866950 23189 net.cpp:434] ort_pred <- fc7_output_fc7_output_0_split_2
I0628 10:09:12.866955 23189 net.cpp:408] ort_pred -> ort_pred
I0628 10:09:12.867190 23189 net.cpp:150] Setting up ort_pred
I0628 10:09:12.867197 23189 net.cpp:157] Top shape: 1 2 (2)
I0628 10:09:12.867198 23189 net.cpp:165] Memory required for data: 23961492
I0628 10:09:12.867202 23189 layer_factory.hpp:77] Creating layer loss_cls
I0628 10:09:12.867206 23189 net.cpp:100] Creating Layer loss_cls
I0628 10:09:12.867208 23189 net.cpp:434] loss_cls <- cls_score
I0628 10:09:12.867213 23189 net.cpp:434] loss_cls <- labels
I0628 10:09:12.867215 23189 net.cpp:408] loss_cls -> loss_cls
…
