…
I0222 19:17:25.580687 12282 upgrade_proto.cpp:69] Successfully upgraded file specified using deprecated input fields.
W0222 19:17:25.580705 12282 upgrade_proto.cpp:71] Note that future Caffe releases will only support input layers and not input fields.
I0222 19:17:25.580948 12282 net.cpp:58] Initializing net from parameters: 
name: "VGG_ILSVRC_16_layers"
state {
  phase: TEST
  level: 0
}
layer {
  name: "input"
  type: "Input"
  top: "data"
  top: "rois"
  input_param {
    shape {
      dim: 1
      dim: 3
      dim: 224
      dim: 224
    }
    shape {
      dim: 1
      dim: 5
    }
  }
}
layer {
  name: "multi_rois"
  type: "Python"
  bottom: "rois"
  top: "context"
  python_param {
    module: "roi_data_layer.layer"
    layer: "MultiRoIDataLayer"
    param_str: "\'context\': 1.5"
  }
}
layer {
  name: "conv1_1"
  type: "Convolution"
  bottom: "data"
  top: "conv1_1"
  param {
    lr_mult: 0
    decay_mult: 0
  }
  param {
    lr_mult: 0
    decay_mult: 0
  }
  convolution_param {
    num_output: 64
    pad: 1
    kernel_size: 3
  }
}
layer {
  name: "relu1_1"
  type: "ReLU"
  bottom: "conv1_1"
  top: "conv1_1"
}
layer {
  name: "conv1_2"
  type: "Convolution"
  bottom: "conv1_1"
  top: "conv1_2"
  param {
    lr_mult: 0
    decay_mult: 0
  }
  param {
    lr_mult: 0
    decay_mult: 0
  }
  convolution_param {
    num_output: 64
    pad: 1
    kernel_size: 3
  }
}
layer {
  name: "relu1_2"
  type: "ReLU"
  bottom: "conv1_2"
  top: "conv1_2"
}
layer {
  name: "pool1"
  type: "Pooling"
  bottom: "conv1_2"
  top: "pool1"
  pooling_param {
    pool: MAX
    kernel_size: 2
    stride: 2
  }
}
layer {
  name: "conv2_1"
  type: "Convolution"
  bottom: "pool1"
  top: "conv2_1"
  param {
    lr_mult: 0
    decay_mult: 0
  }
  param {
    lr_mult: 0
    decay_mult: 0
  }
  convolution_param {
    num_output: 128
    pad: 1
    kernel_size: 3
  }
}
layer {
  name: "relu2_1"
  type: "ReLU"
  bottom: "conv2_1"
  top: "conv2_1"
}
layer {
  name: "conv2_2"
  type: "Convolution"
  bottom: "conv2_1"
  top: "conv2_2"
  param {
    lr_mult: 0
    decay_mult: 0
  }
  param {
    lr_mult: 0
    decay_mult: 0
  }
  convolution_param {
    num_output: 128
    pad: 1
    kernel_size: 3
  }
}
layer {
  name: "relu2_2"
  type: "ReLU"
  bottom: "conv2_2"
  top: "conv2_2"
}
layer {
  name: "pool2"
  type: "Pooling"
  bottom: "conv2_2"
  top: "pool2"
  pooling_param {
    pool: MAX
    kernel_size: 2
    stride: 2
  }
}
layer {
  name: "conv3_1"
  type: "Convolution"
  bottom: "pool2"
  top: "conv3_1"
  param {
    lr_mult: 1
    decay_mult: 1
  }
  param {
    lr_mult: 2
    decay_mult: 0
  }
  convolution_param {
    num_output: 256
    pad: 1
    kernel_size: 3
  }
}
layer {
  name: "relu3_1"
  type: "ReLU"
  bottom: "conv3_1"
  top: "conv3_1"
}
layer {
  name: "conv3_2"
  type: "Convolution"
  bottom: "conv3_1"
  top: "conv3_2"
  param {
    lr_mult: 1
    decay_mult: 1
  }
  param {
    lr_mult: 2
    decay_mult: 0
  }
  convolution_param {
    num_output: 256
    pad: 1
    kernel_size: 3
  }
}
layer {
  name: "relu3_2"
  type: "ReLU"
  bottom: "conv3_2"
  top: "conv3_2"
}
layer {
  name: "conv3_3"
  type: "Convolution"
  bottom: "conv3_2"
  top: "conv3_3"
  param {
    lr_mult: 1
    decay_mult: 1
  }
  param {
    lr_mult: 2
    decay_mult: 0
  }
  convolution_param {
    num_output: 256
    pad: 1
    kernel_size: 3
  }
}
layer {
  name: "relu3_3"
  type: "ReLU"
  bottom: "conv3_3"
  top: "conv3_3"
}
layer {
  name: "pool3"
  type: "Pooling"
  bottom: "conv3_3"
  top: "pool3"
  pooling_param {
    pool: MAX
    kernel_size: 2
    stride: 2
  }
}
layer {
  name: "conv4_1"
  type: "Convolution"
  bottom: "pool3"
  top: "conv4_1"
  param {
    lr_mult: 1
    decay_mult: 1
  }
  param {
    lr_mult: 2
    decay_mult: 0
  }
  convolution_param {
    num_output: 512
    pad: 1
    kernel_size: 3
  }
}
layer {
  name: "relu4_1"
  type: "ReLU"
  bottom: "conv4_1"
  top: "conv4_1"
}
layer {
  name: "conv4_2"
  type: "Convolution"
  bottom: "conv4_1"
  top: "conv4_2"
  param {
    lr_mult: 1
    decay_mult: 1
  }
  param {
    lr_mult: 2
    decay_mult: 0
  }
  convolution_param {
    num_output: 512
    pad: 1
    kernel_size: 3
  }
}
layer {
  name: "relu4_2"
  type: "ReLU"
  bottom: "conv4_2"
  top: "conv4_2"
}
layer {
  name: "conv4_3"
  type: "Convolution"
  bottom: "conv4_2"
  top: "conv4_3"
  param {
    lr_mult: 1
    decay_mult: 1
  }
  param {
    lr_mult: 2
    decay_mult: 0
  }
  convolution_param {
    num_output: 512
    pad: 1
    kernel_size: 3
  }
}
layer {
  name: "relu4_3"
  type: "ReLU"
  bottom: "conv4_3"
  top: "conv4_3"
}
layer {
  name: "pool4"
  type: "Pooling"
  bottom: "conv4_3"
  top: "pool4"
  pooling_param {
    pool: MAX
    kernel_size: 2
    stride: 2
  }
}
layer {
  name: "conv5_1"
  type: "Convolution"
  bottom: "pool4"
  top: "conv5_1"
  param {
    lr_mult: 1
    decay_mult: 1
  }
  param {
    lr_mult: 2
    decay_mult: 0
  }
  convolution_param {
    num_output: 512
    pad: 1
    kernel_size: 3
  }
}
layer {
  name: "relu5_1"
  type: "ReLU"
  bottom: "conv5_1"
  top: "conv5_1"
}
layer {
  name: "conv5_2"
  type: "Convolution"
  bottom: "conv5_1"
  top: "conv5_2"
  param {
    lr_mult: 1
    decay_mult: 1
  }
  param {
    lr_mult: 2
    decay_mult: 0
  }
  convolution_param {
    num_output: 512
    pad: 1
    kernel_size: 3
  }
}
layer {
  name: "relu5_2"
  type: "ReLU"
  bottom: "conv5_2"
  top: "conv5_2"
}
layer {
  name: "conv5_3"
  type: "Convolution"
  bottom: "conv5_2"
  top: "conv5_3"
  param {
    lr_mult: 1
    decay_mult: 1
  }
  param {
    lr_mult: 2
    decay_mult: 0
  }
  convolution_param {
    num_output: 512
    pad: 1
    kernel_size: 3
  }
}
layer {
  name: "relu5_3"
  type: "ReLU"
  bottom: "conv5_3"
  top: "conv5_3"
}
layer {
  name: "roi_pool5"
  type: "ROIPooling"
  bottom: "conv5_3"
  bottom: "rois"
  top: "pool5"
  roi_pooling_param {
    pooled_h: 7
    pooled_w: 7
    spatial_scale: 0.0625
  }
}
layer {
  name: "fc6"
  type: "InnerProduct"
  bottom: "pool5"
  top: "fc6"
  param {
    lr_mult: 1
    decay_mult: 1
  }
  param {
    lr_mult: 2
    decay_mult: 0
  }
  inner_product_param {
    num_output: 4096
  }
}
layer {
  name: "relu6"
  type: "ReLU"
  bottom: "fc6"
  top: "fc6"
}
layer {
  name: "drop6"
  type: "Dropout"
  bottom: "fc6"
  top: "fc6"
  dropout_param {
    dropout_ratio: 0.5
  }
}
layer {
  name: "fc7"
  type: "InnerProduct"
  bottom: "fc6"
  top: "fc7"
  param {
    lr_mult: 1
    decay_mult: 1
  }
  param {
    lr_mult: 2
    decay_mult: 0
  }
  inner_product_param {
    num_output: 4096
  }
}
layer {
  name: "relu7"
  type: "ReLU"
  bottom: "fc7"
  top: "fc7"
}
layer {
  name: "drop7"
  type: "Dropout"
  bottom: "fc7"
  top: "fc7"
  dropout_param {
    dropout_ratio: 0.5
  }
}
layer {
  name: "roi_pool5_context"
  type: "ROIPooling"
  bottom: "conv5_3"
  bottom: "context"
  top: "pool5_context"
  roi_pooling_param {
    pooled_h: 7
    pooled_w: 7
    spatial_scale: 0.0625
  }
}
layer {
  name: "fc6_context"
  type: "InnerProduct"
  bottom: "pool5_context"
  top: "fc6_context"
  param {
    lr_mult: 1
    decay_mult: 1
  }
  param {
    lr_mult: 2
    decay_mult: 0
  }
  inner_product_param {
    num_output: 4096
  }
}
layer {
  name: "relu6_context"
  type: "ReLU"
  bottom: "fc6_context"
  top: "fc6_context"
}
layer {
  name: "drop6_context"
  type: "Dropout"
  bottom: "fc6_context"
  top: "fc6_context"
  dropout_param {
    dropout_ratio: 0.5
  }
}
layer {
  name: "fc7_context"
  type: "InnerProduct"
  bottom: "fc6_context"
  top: "fc7_context"
  param {
    lr_mult: 1
    decay_mult: 1
  }
  param {
    lr_mult: 2
    decay_mult: 0
  }
  inner_product_param {
    num_output: 4096
  }
}
layer {
  name: "relu7_context"
  type: "ReLU"
  bottom: "fc7_context"
  top: "fc7_context"
}
layer {
  name: "drop7_context"
  type: "Dropout"
  bottom: "fc7_context"
  top: "fc7_context"
  dropout_param {
    dropout_ratio: 0.5
  }
}
layer {
  name: "fc7_output"
  type: "Concat"
  bottom: "fc7"
  bottom: "fc7_context"
  top: "fc7_output"
}
layer {
  name: "cls_score"
  type: "InnerProduct"
  bottom: "fc7_output"
  top: "cls_score"
  param {
    lr_mult: 1
    decay_mult: 1
  }
  param {
    lr_mult: 2
    decay_mult: 0
  }
  inner_product_param {
    num_output: 2
    weight_filler {
      type: "gaussian"
      std: 0.01
    }
    bias_filler {
      type: "constant"
      value: 0
    }
  }
}
layer {
  name: "bbox_pred"
  type: "InnerProduct"
  bottom: "fc7_output"
  top: "bbox_pred"
  param {
    lr_mult: 1
    decay_mult: 1
  }
  param {
    lr_mult: 2
    decay_mult: 0
  }
  inner_product_param {
    num_output: 8
    weight_filler {
      type: "gaussian"
      std: 0.001
    }
    bias_filler {
      type: "constant"
      value: 0
    }
  }
}
layer {
  name: "ort_pred"
  type: "InnerProduct"
  bottom: "fc7_output"
  top: "ort_pred"
  param {
    lr_mult: 1
    decay_mult: 1
  }
  param {
    lr_mult: 2
    decay_mult: 0
  }
  inner_product_param {
    num_output: 2
    weight_filler {
      type: "gaussian"
      std: 0.001
    }
    bias_filler {
      type: "constant"
      value: 0
    }
  }
}
layer {
  name: "cls_prob"
  type: "Softmax"
  bottom: "cls_score"
  top: "cls_prob"
}
I0222 19:17:25.581075 12282 layer_factory.hpp:77] Creating layer input
I0222 19:17:25.581084 12282 net.cpp:100] Creating Layer input
I0222 19:17:25.581091 12282 net.cpp:408] input -> data
I0222 19:17:25.581104 12282 net.cpp:408] input -> rois
I0222 19:17:25.597965 12282 net.cpp:150] Setting up input
I0222 19:17:25.598006 12282 net.cpp:157] Top shape: 1 3 224 224 (150528)
I0222 19:17:25.598011 12282 net.cpp:157] Top shape: 1 5 (5)
I0222 19:17:25.598012 12282 net.cpp:165] Memory required for data: 602132
I0222 19:17:25.598017 12282 layer_factory.hpp:77] Creating layer rois_input_1_split
I0222 19:17:25.598027 12282 net.cpp:100] Creating Layer rois_input_1_split
I0222 19:17:25.598031 12282 net.cpp:434] rois_input_1_split <- rois
I0222 19:17:25.598037 12282 net.cpp:408] rois_input_1_split -> rois_input_1_split_0
I0222 19:17:25.598043 12282 net.cpp:408] rois_input_1_split -> rois_input_1_split_1
I0222 19:17:25.598069 12282 net.cpp:150] Setting up rois_input_1_split
I0222 19:17:25.598075 12282 net.cpp:157] Top shape: 1 5 (5)
I0222 19:17:25.598078 12282 net.cpp:157] Top shape: 1 5 (5)
I0222 19:17:25.598079 12282 net.cpp:165] Memory required for data: 602172
I0222 19:17:25.598083 12282 layer_factory.hpp:77] Creating layer multi_rois
I0222 19:17:25.598485 12282 net.cpp:100] Creating Layer multi_rois
I0222 19:17:25.598493 12282 net.cpp:434] multi_rois <- rois_input_1_split_0
I0222 19:17:25.598498 12282 net.cpp:408] multi_rois -> context
'context': 1.5
I0222 19:17:25.598861 12282 net.cpp:150] Setting up multi_rois
I0222 19:17:25.598870 12282 net.cpp:157] Top shape: 1 5 (5)
I0222 19:17:25.598872 12282 net.cpp:165] Memory required for data: 602192
I0222 19:17:25.598875 12282 layer_factory.hpp:77] Creating layer conv1_1
I0222 19:17:25.598901 12282 net.cpp:100] Creating Layer conv1_1
I0222 19:17:25.598906 12282 net.cpp:434] conv1_1 <- data
I0222 19:17:25.598911 12282 net.cpp:408] conv1_1 -> conv1_1
I0222 19:17:25.600613 12282 net.cpp:150] Setting up conv1_1
I0222 19:17:25.600625 12282 net.cpp:157] Top shape: 1 64 224 224 (3211264)
I0222 19:17:25.600628 12282 net.cpp:165] Memory required for data: 13447248
I0222 19:17:25.600641 12282 layer_factory.hpp:77] Creating layer relu1_1
I0222 19:17:25.600649 12282 net.cpp:100] Creating Layer relu1_1
I0222 19:17:25.600653 12282 net.cpp:434] relu1_1 <- conv1_1
I0222 19:17:25.600658 12282 net.cpp:395] relu1_1 -> conv1_1 (in-place)
I0222 19:17:25.600666 12282 net.cpp:150] Setting up relu1_1
I0222 19:17:25.600670 12282 net.cpp:157] Top shape: 1 64 224 224 (3211264)
I0222 19:17:25.600673 12282 net.cpp:165] Memory required for data: 26292304
I0222 19:17:25.600677 12282 layer_factory.hpp:77] Creating layer conv1_2
I0222 19:17:25.600685 12282 net.cpp:100] Creating Layer conv1_2
I0222 19:17:25.600689 12282 net.cpp:434] conv1_2 <- conv1_1
I0222 19:17:25.600693 12282 net.cpp:408] conv1_2 -> conv1_2
I0222 19:17:25.600879 12282 net.cpp:150] Setting up conv1_2
I0222 19:17:25.600886 12282 net.cpp:157] Top shape: 1 64 224 224 (3211264)
I0222 19:17:25.600888 12282 net.cpp:165] Memory required for data: 39137360
I0222 19:17:25.600894 12282 layer_factory.hpp:77] Creating layer relu1_2
I0222 19:17:25.600899 12282 net.cpp:100] Creating Layer relu1_2
I0222 19:17:25.600904 12282 net.cpp:434] relu1_2 <- conv1_2
I0222 19:17:25.600908 12282 net.cpp:395] relu1_2 -> conv1_2 (in-place)
I0222 19:17:25.600914 12282 net.cpp:150] Setting up relu1_2
I0222 19:17:25.600919 12282 net.cpp:157] Top shape: 1 64 224 224 (3211264)
I0222 19:17:25.600921 12282 net.cpp:165] Memory required for data: 51982416
I0222 19:17:25.600924 12282 layer_factory.hpp:77] Creating layer pool1
I0222 19:17:25.600930 12282 net.cpp:100] Creating Layer pool1
I0222 19:17:25.600932 12282 net.cpp:434] pool1 <- conv1_2
I0222 19:17:25.600935 12282 net.cpp:408] pool1 -> pool1
I0222 19:17:25.600965 12282 net.cpp:150] Setting up pool1
I0222 19:17:25.600970 12282 net.cpp:157] Top shape: 1 64 112 112 (802816)
I0222 19:17:25.600972 12282 net.cpp:165] Memory required for data: 55193680
I0222 19:17:25.600973 12282 layer_factory.hpp:77] Creating layer conv2_1
I0222 19:17:25.600980 12282 net.cpp:100] Creating Layer conv2_1
I0222 19:17:25.600982 12282 net.cpp:434] conv2_1 <- pool1
I0222 19:17:25.600986 12282 net.cpp:408] conv2_1 -> conv2_1
I0222 19:17:25.602632 12282 net.cpp:150] Setting up conv2_1
I0222 19:17:25.602643 12282 net.cpp:157] Top shape: 1 128 112 112 (1605632)
I0222 19:17:25.602646 12282 net.cpp:165] Memory required for data: 61616208
I0222 19:17:25.602655 12282 layer_factory.hpp:77] Creating layer relu2_1
I0222 19:17:25.602663 12282 net.cpp:100] Creating Layer relu2_1
I0222 19:17:25.602669 12282 net.cpp:434] relu2_1 <- conv2_1
I0222 19:17:25.602672 12282 net.cpp:395] relu2_1 -> conv2_1 (in-place)
I0222 19:17:25.602679 12282 net.cpp:150] Setting up relu2_1
I0222 19:17:25.602685 12282 net.cpp:157] Top shape: 1 128 112 112 (1605632)
I0222 19:17:25.602687 12282 net.cpp:165] Memory required for data: 68038736
I0222 19:17:25.602691 12282 layer_factory.hpp:77] Creating layer conv2_2
I0222 19:17:25.602699 12282 net.cpp:100] Creating Layer conv2_2
I0222 19:17:25.602700 12282 net.cpp:434] conv2_2 <- conv2_1
I0222 19:17:25.602704 12282 net.cpp:408] conv2_2 -> conv2_2
I0222 19:17:25.602921 12282 net.cpp:150] Setting up conv2_2
I0222 19:17:25.602928 12282 net.cpp:157] Top shape: 1 128 112 112 (1605632)
I0222 19:17:25.602931 12282 net.cpp:165] Memory required for data: 74461264
I0222 19:17:25.602936 12282 layer_factory.hpp:77] Creating layer relu2_2
I0222 19:17:25.602938 12282 net.cpp:100] Creating Layer relu2_2
I0222 19:17:25.602941 12282 net.cpp:434] relu2_2 <- conv2_2
I0222 19:17:25.602944 12282 net.cpp:395] relu2_2 -> conv2_2 (in-place)
I0222 19:17:25.602948 12282 net.cpp:150] Setting up relu2_2
I0222 19:17:25.602951 12282 net.cpp:157] Top shape: 1 128 112 112 (1605632)
I0222 19:17:25.602953 12282 net.cpp:165] Memory required for data: 80883792
I0222 19:17:25.602955 12282 layer_factory.hpp:77] Creating layer pool2
I0222 19:17:25.602960 12282 net.cpp:100] Creating Layer pool2
I0222 19:17:25.602962 12282 net.cpp:434] pool2 <- conv2_2
I0222 19:17:25.602965 12282 net.cpp:408] pool2 -> pool2
I0222 19:17:25.602990 12282 net.cpp:150] Setting up pool2
I0222 19:17:25.602995 12282 net.cpp:157] Top shape: 1 128 56 56 (401408)
I0222 19:17:25.602998 12282 net.cpp:165] Memory required for data: 82489424
I0222 19:17:25.602999 12282 layer_factory.hpp:77] Creating layer conv3_1
I0222 19:17:25.603004 12282 net.cpp:100] Creating Layer conv3_1
I0222 19:17:25.603006 12282 net.cpp:434] conv3_1 <- pool2
I0222 19:17:25.603009 12282 net.cpp:408] conv3_1 -> conv3_1
I0222 19:17:25.603289 12282 net.cpp:150] Setting up conv3_1
I0222 19:17:25.603296 12282 net.cpp:157] Top shape: 1 256 56 56 (802816)
I0222 19:17:25.603297 12282 net.cpp:165] Memory required for data: 85700688
I0222 19:17:25.603307 12282 layer_factory.hpp:77] Creating layer relu3_1
I0222 19:17:25.603312 12282 net.cpp:100] Creating Layer relu3_1
I0222 19:17:25.603314 12282 net.cpp:434] relu3_1 <- conv3_1
I0222 19:17:25.603318 12282 net.cpp:395] relu3_1 -> conv3_1 (in-place)
I0222 19:17:25.603323 12282 net.cpp:150] Setting up relu3_1
I0222 19:17:25.603327 12282 net.cpp:157] Top shape: 1 256 56 56 (802816)
I0222 19:17:25.603330 12282 net.cpp:165] Memory required for data: 88911952
I0222 19:17:25.603332 12282 layer_factory.hpp:77] Creating layer conv3_2
I0222 19:17:25.603338 12282 net.cpp:100] Creating Layer conv3_2
I0222 19:17:25.603343 12282 net.cpp:434] conv3_2 <- conv3_1
I0222 19:17:25.603346 12282 net.cpp:408] conv3_2 -> conv3_2
I0222 19:17:25.604571 12282 net.cpp:150] Setting up conv3_2
I0222 19:17:25.604583 12282 net.cpp:157] Top shape: 1 256 56 56 (802816)
I0222 19:17:25.604585 12282 net.cpp:165] Memory required for data: 92123216
I0222 19:17:25.604593 12282 layer_factory.hpp:77] Creating layer relu3_2
I0222 19:17:25.604602 12282 net.cpp:100] Creating Layer relu3_2
I0222 19:17:25.604606 12282 net.cpp:434] relu3_2 <- conv3_2
I0222 19:17:25.604611 12282 net.cpp:395] relu3_2 -> conv3_2 (in-place)
I0222 19:17:25.604617 12282 net.cpp:150] Setting up relu3_2
I0222 19:17:25.604624 12282 net.cpp:157] Top shape: 1 256 56 56 (802816)
I0222 19:17:25.604626 12282 net.cpp:165] Memory required for data: 95334480
I0222 19:17:25.604629 12282 layer_factory.hpp:77] Creating layer conv3_3
I0222 19:17:25.604636 12282 net.cpp:100] Creating Layer conv3_3
I0222 19:17:25.604640 12282 net.cpp:434] conv3_3 <- conv3_2
I0222 19:17:25.604645 12282 net.cpp:408] conv3_3 -> conv3_3
I0222 19:17:25.605880 12282 net.cpp:150] Setting up conv3_3
I0222 19:17:25.605891 12282 net.cpp:157] Top shape: 1 256 56 56 (802816)
I0222 19:17:25.605893 12282 net.cpp:165] Memory required for data: 98545744
I0222 19:17:25.605898 12282 layer_factory.hpp:77] Creating layer relu3_3
I0222 19:17:25.605903 12282 net.cpp:100] Creating Layer relu3_3
I0222 19:17:25.605906 12282 net.cpp:434] relu3_3 <- conv3_3
I0222 19:17:25.605909 12282 net.cpp:395] relu3_3 -> conv3_3 (in-place)
I0222 19:17:25.605913 12282 net.cpp:150] Setting up relu3_3
I0222 19:17:25.605917 12282 net.cpp:157] Top shape: 1 256 56 56 (802816)
I0222 19:17:25.605919 12282 net.cpp:165] Memory required for data: 101757008
I0222 19:17:25.605921 12282 layer_factory.hpp:77] Creating layer pool3
I0222 19:17:25.605924 12282 net.cpp:100] Creating Layer pool3
I0222 19:17:25.605927 12282 net.cpp:434] pool3 <- conv3_3
I0222 19:17:25.605931 12282 net.cpp:408] pool3 -> pool3
I0222 19:17:25.605958 12282 net.cpp:150] Setting up pool3
I0222 19:17:25.605964 12282 net.cpp:157] Top shape: 1 256 28 28 (200704)
I0222 19:17:25.605967 12282 net.cpp:165] Memory required for data: 102559824
I0222 19:17:25.605970 12282 layer_factory.hpp:77] Creating layer conv4_1
I0222 19:17:25.605985 12282 net.cpp:100] Creating Layer conv4_1
I0222 19:17:25.605989 12282 net.cpp:434] conv4_1 <- pool3
I0222 19:17:25.605994 12282 net.cpp:408] conv4_1 -> conv4_1
I0222 19:17:25.608911 12282 net.cpp:150] Setting up conv4_1
I0222 19:17:25.608928 12282 net.cpp:157] Top shape: 1 512 28 28 (401408)
I0222 19:17:25.608932 12282 net.cpp:165] Memory required for data: 104165456
I0222 19:17:25.608940 12282 layer_factory.hpp:77] Creating layer relu4_1
I0222 19:17:25.608949 12282 net.cpp:100] Creating Layer relu4_1
I0222 19:17:25.608952 12282 net.cpp:434] relu4_1 <- conv4_1
I0222 19:17:25.608958 12282 net.cpp:395] relu4_1 -> conv4_1 (in-place)
I0222 19:17:25.608968 12282 net.cpp:150] Setting up relu4_1
I0222 19:17:25.608971 12282 net.cpp:157] Top shape: 1 512 28 28 (401408)
I0222 19:17:25.608973 12282 net.cpp:165] Memory required for data: 105771088
I0222 19:17:25.608976 12282 layer_factory.hpp:77] Creating layer conv4_2
I0222 19:17:25.608984 12282 net.cpp:100] Creating Layer conv4_2
I0222 19:17:25.608986 12282 net.cpp:434] conv4_2 <- conv4_1
I0222 19:17:25.608990 12282 net.cpp:408] conv4_2 -> conv4_2
I0222 19:17:25.612988 12282 net.cpp:150] Setting up conv4_2
I0222 19:17:25.613010 12282 net.cpp:157] Top shape: 1 512 28 28 (401408)
I0222 19:17:25.613013 12282 net.cpp:165] Memory required for data: 107376720
I0222 19:17:25.613025 12282 layer_factory.hpp:77] Creating layer relu4_2
I0222 19:17:25.613034 12282 net.cpp:100] Creating Layer relu4_2
I0222 19:17:25.613037 12282 net.cpp:434] relu4_2 <- conv4_2
I0222 19:17:25.613042 12282 net.cpp:395] relu4_2 -> conv4_2 (in-place)
I0222 19:17:25.613049 12282 net.cpp:150] Setting up relu4_2
I0222 19:17:25.613054 12282 net.cpp:157] Top shape: 1 512 28 28 (401408)
I0222 19:17:25.613059 12282 net.cpp:165] Memory required for data: 108982352
I0222 19:17:25.613061 12282 layer_factory.hpp:77] Creating layer conv4_3
I0222 19:17:25.613071 12282 net.cpp:100] Creating Layer conv4_3
I0222 19:17:25.613075 12282 net.cpp:434] conv4_3 <- conv4_2
I0222 19:17:25.613080 12282 net.cpp:408] conv4_3 -> conv4_3
I0222 19:17:25.617040 12282 net.cpp:150] Setting up conv4_3
I0222 19:17:25.617063 12282 net.cpp:157] Top shape: 1 512 28 28 (401408)
I0222 19:17:25.617066 12282 net.cpp:165] Memory required for data: 110587984
I0222 19:17:25.617074 12282 layer_factory.hpp:77] Creating layer relu4_3
I0222 19:17:25.617084 12282 net.cpp:100] Creating Layer relu4_3
I0222 19:17:25.617089 12282 net.cpp:434] relu4_3 <- conv4_3
I0222 19:17:25.617094 12282 net.cpp:395] relu4_3 -> conv4_3 (in-place)
I0222 19:17:25.617103 12282 net.cpp:150] Setting up relu4_3
I0222 19:17:25.617110 12282 net.cpp:157] Top shape: 1 512 28 28 (401408)
I0222 19:17:25.617111 12282 net.cpp:165] Memory required for data: 112193616
I0222 19:17:25.617115 12282 layer_factory.hpp:77] Creating layer pool4
I0222 19:17:25.617120 12282 net.cpp:100] Creating Layer pool4
I0222 19:17:25.617125 12282 net.cpp:434] pool4 <- conv4_3
I0222 19:17:25.617128 12282 net.cpp:408] pool4 -> pool4
I0222 19:17:25.617158 12282 net.cpp:150] Setting up pool4
I0222 19:17:25.617164 12282 net.cpp:157] Top shape: 1 512 14 14 (100352)
I0222 19:17:25.617166 12282 net.cpp:165] Memory required for data: 112595024
I0222 19:17:25.617169 12282 layer_factory.hpp:77] Creating layer conv5_1
I0222 19:17:25.617177 12282 net.cpp:100] Creating Layer conv5_1
I0222 19:17:25.617182 12282 net.cpp:434] conv5_1 <- pool4
I0222 19:17:25.617187 12282 net.cpp:408] conv5_1 -> conv5_1
I0222 19:17:25.621155 12282 net.cpp:150] Setting up conv5_1
I0222 19:17:25.621174 12282 net.cpp:157] Top shape: 1 512 14 14 (100352)
I0222 19:17:25.621177 12282 net.cpp:165] Memory required for data: 112996432
I0222 19:17:25.621186 12282 layer_factory.hpp:77] Creating layer relu5_1
I0222 19:17:25.621210 12282 net.cpp:100] Creating Layer relu5_1
I0222 19:17:25.621214 12282 net.cpp:434] relu5_1 <- conv5_1
I0222 19:17:25.621222 12282 net.cpp:395] relu5_1 -> conv5_1 (in-place)
I0222 19:17:25.621229 12282 net.cpp:150] Setting up relu5_1
I0222 19:17:25.621237 12282 net.cpp:157] Top shape: 1 512 14 14 (100352)
I0222 19:17:25.621238 12282 net.cpp:165] Memory required for data: 113397840
I0222 19:17:25.621243 12282 layer_factory.hpp:77] Creating layer conv5_2
I0222 19:17:25.621250 12282 net.cpp:100] Creating Layer conv5_2
I0222 19:17:25.621254 12282 net.cpp:434] conv5_2 <- conv5_1
I0222 19:17:25.621258 12282 net.cpp:408] conv5_2 -> conv5_2
I0222 19:17:25.625370 12282 net.cpp:150] Setting up conv5_2
I0222 19:17:25.625391 12282 net.cpp:157] Top shape: 1 512 14 14 (100352)
I0222 19:17:25.625393 12282 net.cpp:165] Memory required for data: 113799248
I0222 19:17:25.625402 12282 layer_factory.hpp:77] Creating layer relu5_2
I0222 19:17:25.625412 12282 net.cpp:100] Creating Layer relu5_2
I0222 19:17:25.625416 12282 net.cpp:434] relu5_2 <- conv5_2
I0222 19:17:25.625422 12282 net.cpp:395] relu5_2 -> conv5_2 (in-place)
I0222 19:17:25.625430 12282 net.cpp:150] Setting up relu5_2
I0222 19:17:25.625433 12282 net.cpp:157] Top shape: 1 512 14 14 (100352)
I0222 19:17:25.625437 12282 net.cpp:165] Memory required for data: 114200656
I0222 19:17:25.625439 12282 layer_factory.hpp:77] Creating layer conv5_3
I0222 19:17:25.625448 12282 net.cpp:100] Creating Layer conv5_3
I0222 19:17:25.625452 12282 net.cpp:434] conv5_3 <- conv5_2
I0222 19:17:25.625457 12282 net.cpp:408] conv5_3 -> conv5_3
I0222 19:17:25.629567 12282 net.cpp:150] Setting up conv5_3
I0222 19:17:25.629588 12282 net.cpp:157] Top shape: 1 512 14 14 (100352)
I0222 19:17:25.629590 12282 net.cpp:165] Memory required for data: 114602064
I0222 19:17:25.629600 12282 layer_factory.hpp:77] Creating layer relu5_3
I0222 19:17:25.629627 12282 net.cpp:100] Creating Layer relu5_3
I0222 19:17:25.629631 12282 net.cpp:434] relu5_3 <- conv5_3
I0222 19:17:25.629638 12282 net.cpp:395] relu5_3 -> conv5_3 (in-place)
I0222 19:17:25.629647 12282 net.cpp:150] Setting up relu5_3
I0222 19:17:25.629652 12282 net.cpp:157] Top shape: 1 512 14 14 (100352)
I0222 19:17:25.629654 12282 net.cpp:165] Memory required for data: 115003472
I0222 19:17:25.629657 12282 layer_factory.hpp:77] Creating layer conv5_3_relu5_3_0_split
I0222 19:17:25.629663 12282 net.cpp:100] Creating Layer conv5_3_relu5_3_0_split
I0222 19:17:25.629667 12282 net.cpp:434] conv5_3_relu5_3_0_split <- conv5_3
I0222 19:17:25.629670 12282 net.cpp:408] conv5_3_relu5_3_0_split -> conv5_3_relu5_3_0_split_0
I0222 19:17:25.629676 12282 net.cpp:408] conv5_3_relu5_3_0_split -> conv5_3_relu5_3_0_split_1
I0222 19:17:25.629709 12282 net.cpp:150] Setting up conv5_3_relu5_3_0_split
I0222 19:17:25.629714 12282 net.cpp:157] Top shape: 1 512 14 14 (100352)
I0222 19:17:25.629717 12282 net.cpp:157] Top shape: 1 512 14 14 (100352)
I0222 19:17:25.629719 12282 net.cpp:165] Memory required for data: 115806288
I0222 19:17:25.629721 12282 layer_factory.hpp:77] Creating layer roi_pool5
I0222 19:17:25.629729 12282 net.cpp:100] Creating Layer roi_pool5
I0222 19:17:25.629730 12282 net.cpp:434] roi_pool5 <- conv5_3_relu5_3_0_split_0
I0222 19:17:25.629734 12282 net.cpp:434] roi_pool5 <- rois_input_1_split_1
I0222 19:17:25.629739 12282 net.cpp:408] roi_pool5 -> pool5
I0222 19:17:25.629746 12282 roi_pooling_layer.cpp:30] Spatial scale: 0.0625
I0222 19:17:25.629778 12282 net.cpp:150] Setting up roi_pool5
I0222 19:17:25.629783 12282 net.cpp:157] Top shape: 1 512 7 7 (25088)
I0222 19:17:25.629786 12282 net.cpp:165] Memory required for data: 115906640
I0222 19:17:25.629787 12282 layer_factory.hpp:77] Creating layer fc6
I0222 19:17:25.629793 12282 net.cpp:100] Creating Layer fc6
I0222 19:17:25.629796 12282 net.cpp:434] fc6 <- pool5
I0222 19:17:25.629799 12282 net.cpp:408] fc6 -> fc6
I0222 19:17:25.807035 12282 net.cpp:150] Setting up fc6
I0222 19:17:25.807060 12282 net.cpp:157] Top shape: 1 4096 (4096)
I0222 19:17:25.807063 12282 net.cpp:165] Memory required for data: 115923024
I0222 19:17:25.807072 12282 layer_factory.hpp:77] Creating layer relu6
I0222 19:17:25.807080 12282 net.cpp:100] Creating Layer relu6
I0222 19:17:25.807085 12282 net.cpp:434] relu6 <- fc6
I0222 19:17:25.807090 12282 net.cpp:395] relu6 -> fc6 (in-place)
I0222 19:17:25.807097 12282 net.cpp:150] Setting up relu6
I0222 19:17:25.807101 12282 net.cpp:157] Top shape: 1 4096 (4096)
I0222 19:17:25.807101 12282 net.cpp:165] Memory required for data: 115939408
I0222 19:17:25.807104 12282 layer_factory.hpp:77] Creating layer drop6
I0222 19:17:25.807108 12282 net.cpp:100] Creating Layer drop6
I0222 19:17:25.807111 12282 net.cpp:434] drop6 <- fc6
I0222 19:17:25.807113 12282 net.cpp:395] drop6 -> fc6 (in-place)
I0222 19:17:25.807129 12282 net.cpp:150] Setting up drop6
I0222 19:17:25.807134 12282 net.cpp:157] Top shape: 1 4096 (4096)
I0222 19:17:25.807137 12282 net.cpp:165] Memory required for data: 115955792
I0222 19:17:25.807138 12282 layer_factory.hpp:77] Creating layer fc7
I0222 19:17:25.807143 12282 net.cpp:100] Creating Layer fc7
I0222 19:17:25.807145 12282 net.cpp:434] fc7 <- fc6
I0222 19:17:25.807149 12282 net.cpp:408] fc7 -> fc7
I0222 19:17:25.835877 12282 net.cpp:150] Setting up fc7
I0222 19:17:25.835901 12282 net.cpp:157] Top shape: 1 4096 (4096)
I0222 19:17:25.835903 12282 net.cpp:165] Memory required for data: 115972176
I0222 19:17:25.835913 12282 layer_factory.hpp:77] Creating layer relu7
I0222 19:17:25.835922 12282 net.cpp:100] Creating Layer relu7
I0222 19:17:25.835925 12282 net.cpp:434] relu7 <- fc7
I0222 19:17:25.835930 12282 net.cpp:395] relu7 -> fc7 (in-place)
I0222 19:17:25.835937 12282 net.cpp:150] Setting up relu7
I0222 19:17:25.835940 12282 net.cpp:157] Top shape: 1 4096 (4096)
I0222 19:17:25.835942 12282 net.cpp:165] Memory required for data: 115988560
I0222 19:17:25.835944 12282 layer_factory.hpp:77] Creating layer drop7
I0222 19:17:25.835949 12282 net.cpp:100] Creating Layer drop7
I0222 19:17:25.835950 12282 net.cpp:434] drop7 <- fc7
I0222 19:17:25.835954 12282 net.cpp:395] drop7 -> fc7 (in-place)
I0222 19:17:25.835969 12282 net.cpp:150] Setting up drop7
I0222 19:17:25.835974 12282 net.cpp:157] Top shape: 1 4096 (4096)
I0222 19:17:25.835976 12282 net.cpp:165] Memory required for data: 116004944
I0222 19:17:25.835978 12282 layer_factory.hpp:77] Creating layer roi_pool5_context
I0222 19:17:25.835983 12282 net.cpp:100] Creating Layer roi_pool5_context
I0222 19:17:25.835986 12282 net.cpp:434] roi_pool5_context <- conv5_3_relu5_3_0_split_1
I0222 19:17:25.835989 12282 net.cpp:434] roi_pool5_context <- context
I0222 19:17:25.835994 12282 net.cpp:408] roi_pool5_context -> pool5_context
I0222 19:17:25.835999 12282 roi_pooling_layer.cpp:30] Spatial scale: 0.0625
I0222 19:17:25.836036 12282 net.cpp:150] Setting up roi_pool5_context
I0222 19:17:25.836041 12282 net.cpp:157] Top shape: 1 512 7 7 (25088)
I0222 19:17:25.836045 12282 net.cpp:165] Memory required for data: 116105296
I0222 19:17:25.836046 12282 layer_factory.hpp:77] Creating layer fc6_context
I0222 19:17:25.836051 12282 net.cpp:100] Creating Layer fc6_context
I0222 19:17:25.836053 12282 net.cpp:434] fc6_context <- pool5_context
I0222 19:17:25.836056 12282 net.cpp:408] fc6_context -> fc6_context
I0222 19:17:26.004808 12282 net.cpp:150] Setting up fc6_context
I0222 19:17:26.004832 12282 net.cpp:157] Top shape: 1 4096 (4096)
I0222 19:17:26.004834 12282 net.cpp:165] Memory required for data: 116121680
I0222 19:17:26.004845 12282 layer_factory.hpp:77] Creating layer relu6_context
I0222 19:17:26.004865 12282 net.cpp:100] Creating Layer relu6_context
I0222 19:17:26.004869 12282 net.cpp:434] relu6_context <- fc6_context
I0222 19:17:26.004874 12282 net.cpp:395] relu6_context -> fc6_context (in-place)
I0222 19:17:26.004882 12282 net.cpp:150] Setting up relu6_context
I0222 19:17:26.004884 12282 net.cpp:157] Top shape: 1 4096 (4096)
I0222 19:17:26.004886 12282 net.cpp:165] Memory required for data: 116138064
I0222 19:17:26.004889 12282 layer_factory.hpp:77] Creating layer drop6_context
I0222 19:17:26.004894 12282 net.cpp:100] Creating Layer drop6_context
I0222 19:17:26.004895 12282 net.cpp:434] drop6_context <- fc6_context
I0222 19:17:26.004899 12282 net.cpp:395] drop6_context -> fc6_context (in-place)
I0222 19:17:26.004914 12282 net.cpp:150] Setting up drop6_context
I0222 19:17:26.004920 12282 net.cpp:157] Top shape: 1 4096 (4096)
I0222 19:17:26.004921 12282 net.cpp:165] Memory required for data: 116154448
I0222 19:17:26.004923 12282 layer_factory.hpp:77] Creating layer fc7_context
I0222 19:17:26.004927 12282 net.cpp:100] Creating Layer fc7_context
I0222 19:17:26.004930 12282 net.cpp:434] fc7_context <- fc6_context
I0222 19:17:26.004935 12282 net.cpp:408] fc7_context -> fc7_context
I0222 19:17:26.032932 12282 net.cpp:150] Setting up fc7_context
I0222 19:17:26.032955 12282 net.cpp:157] Top shape: 1 4096 (4096)
I0222 19:17:26.032958 12282 net.cpp:165] Memory required for data: 116170832
I0222 19:17:26.032972 12282 layer_factory.hpp:77] Creating layer relu7_context
I0222 19:17:26.032980 12282 net.cpp:100] Creating Layer relu7_context
I0222 19:17:26.032984 12282 net.cpp:434] relu7_context <- fc7_context
I0222 19:17:26.032989 12282 net.cpp:395] relu7_context -> fc7_context (in-place)
I0222 19:17:26.032997 12282 net.cpp:150] Setting up relu7_context
I0222 19:17:26.032999 12282 net.cpp:157] Top shape: 1 4096 (4096)
I0222 19:17:26.033001 12282 net.cpp:165] Memory required for data: 116187216
I0222 19:17:26.033004 12282 layer_factory.hpp:77] Creating layer drop7_context
I0222 19:17:26.033008 12282 net.cpp:100] Creating Layer drop7_context
I0222 19:17:26.033010 12282 net.cpp:434] drop7_context <- fc7_context
I0222 19:17:26.033013 12282 net.cpp:395] drop7_context -> fc7_context (in-place)
I0222 19:17:26.033030 12282 net.cpp:150] Setting up drop7_context
I0222 19:17:26.033035 12282 net.cpp:157] Top shape: 1 4096 (4096)
I0222 19:17:26.033037 12282 net.cpp:165] Memory required for data: 116203600
I0222 19:17:26.033040 12282 layer_factory.hpp:77] Creating layer fc7_output
I0222 19:17:26.033043 12282 net.cpp:100] Creating Layer fc7_output
I0222 19:17:26.033046 12282 net.cpp:434] fc7_output <- fc7
I0222 19:17:26.033048 12282 net.cpp:434] fc7_output <- fc7_context
I0222 19:17:26.033051 12282 net.cpp:408] fc7_output -> fc7_output
I0222 19:17:26.033068 12282 net.cpp:150] Setting up fc7_output
I0222 19:17:26.033072 12282 net.cpp:157] Top shape: 1 8192 (8192)
I0222 19:17:26.033074 12282 net.cpp:165] Memory required for data: 116236368
I0222 19:17:26.033077 12282 layer_factory.hpp:77] Creating layer fc7_output_fc7_output_0_split
I0222 19:17:26.033082 12282 net.cpp:100] Creating Layer fc7_output_fc7_output_0_split
I0222 19:17:26.033083 12282 net.cpp:434] fc7_output_fc7_output_0_split <- fc7_output
I0222 19:17:26.033087 12282 net.cpp:408] fc7_output_fc7_output_0_split -> fc7_output_fc7_output_0_split_0
I0222 19:17:26.033092 12282 net.cpp:408] fc7_output_fc7_output_0_split -> fc7_output_fc7_output_0_split_1
I0222 19:17:26.033099 12282 net.cpp:408] fc7_output_fc7_output_0_split -> fc7_output_fc7_output_0_split_2
I0222 19:17:26.033129 12282 net.cpp:150] Setting up fc7_output_fc7_output_0_split
I0222 19:17:26.033133 12282 net.cpp:157] Top shape: 1 8192 (8192)
I0222 19:17:26.033136 12282 net.cpp:157] Top shape: 1 8192 (8192)
I0222 19:17:26.033139 12282 net.cpp:157] Top shape: 1 8192 (8192)
I0222 19:17:26.033141 12282 net.cpp:165] Memory required for data: 116334672
I0222 19:17:26.033143 12282 layer_factory.hpp:77] Creating layer cls_score
I0222 19:17:26.033149 12282 net.cpp:100] Creating Layer cls_score
I0222 19:17:26.033151 12282 net.cpp:434] cls_score <- fc7_output_fc7_output_0_split_0
I0222 19:17:26.033155 12282 net.cpp:408] cls_score -> cls_score
I0222 19:17:26.033404 12282 net.cpp:150] Setting up cls_score
I0222 19:17:26.033411 12282 net.cpp:157] Top shape: 1 2 (2)
I0222 19:17:26.033412 12282 net.cpp:165] Memory required for data: 116334680
I0222 19:17:26.033417 12282 layer_factory.hpp:77] Creating layer bbox_pred
I0222 19:17:26.033422 12282 net.cpp:100] Creating Layer bbox_pred
I0222 19:17:26.033424 12282 net.cpp:434] bbox_pred <- fc7_output_fc7_output_0_split_1
I0222 19:17:26.033428 12282 net.cpp:408] bbox_pred -> bbox_pred
I0222 19:17:26.034024 12282 net.cpp:150] Setting up bbox_pred
I0222 19:17:26.034029 12282 net.cpp:157] Top shape: 1 8 (8)
I0222 19:17:26.034031 12282 net.cpp:165] Memory required for data: 116334712
I0222 19:17:26.034036 12282 layer_factory.hpp:77] Creating layer ort_pred
I0222 19:17:26.034040 12282 net.cpp:100] Creating Layer ort_pred
I0222 19:17:26.034044 12282 net.cpp:434] ort_pred <- fc7_output_fc7_output_0_split_2
I0222 19:17:26.034047 12282 net.cpp:408] ort_pred -> ort_pred
I0222 19:17:26.034235 12282 net.cpp:150] Setting up ort_pred
I0222 19:17:26.034240 12282 net.cpp:157] Top shape: 1 2 (2)
I0222 19:17:26.034241 12282 net.cpp:165] Memory required for data: 116334720
I0222 19:17:26.034245 12282 layer_factory.hpp:77] Creating layer cls_prob
I0222 19:17:26.034250 12282 net.cpp:100] Creating Layer cls_prob
I0222 19:17:26.034251 12282 net.cpp:434] cls_prob <- cls_score
I0222 19:17:26.034255 12282 net.cpp:408] cls_prob -> cls_prob
I0222 19:17:26.034291 12282 net.cpp:150] Setting up cls_prob
I0222 19:17:26.034296 12282 net.cpp:157] Top shape: 1 2 (2)
I0222 19:17:26.034298 12282 net.cpp:165] Memory required for data: 116334728
I0222 19:17:26.034301 12282 net.cpp:228] cls_prob does not need backward computation.
I0222 19:17:26.034303 12282 net.cpp:228] ort_pred does not need backward computation.
I0222 19:17:26.034307 12282 net.cpp:228] bbox_pred does not need backward computation.
I0222 19:17:26.034308 12282 net.cpp:228] cls_score does not need backward computation.
…
