…
I0629 01:26:15.065744 32070 solver.cpp:81] Creating training net from train_net file: kitti/models/kitti_car/VGG16/train.prototxt
I0629 01:26:15.066226 32070 net.cpp:58] Initializing net from parameters: 
name: "VGG_ILSVRC_16_layers"
state {
  phase: TRAIN
}
layer {
  name: "data"
  type: "Python"
  top: "data"
  top: "rois"
  top: "labels"
  top: "bbox_targets"
  top: "bbox_loss_weights"
  top: "ort_targets"
  top: "ort_loss_weights"
  python_param {
    module: "roi_data_layer.layer"
    layer: "RoIDataLayer"
    param_str: "\'num_classes\': 2"
  }
}
layer {
  name: "multi_rois"
  type: "Python"
  bottom: "rois"
  top: "context"
  python_param {
    module: "roi_data_layer.layer"
    layer: "MultiRoIDataLayer"
    param_str: "\'context\': 1.5"
  }
}
layer {
  name: "conv1_1"
  type: "Convolution"
  bottom: "data"
  top: "conv1_1"
  param {
    lr_mult: 0
    decay_mult: 0
  }
  param {
    lr_mult: 0
    decay_mult: 0
  }
  convolution_param {
    num_output: 64
    pad: 1
    kernel_size: 3
  }
}
layer {
  name: "relu1_1"
  type: "ReLU"
  bottom: "conv1_1"
  top: "conv1_1"
}
layer {
  name: "conv1_2"
  type: "Convolution"
  bottom: "conv1_1"
  top: "conv1_2"
  param {
    lr_mult: 0
    decay_mult: 0
  }
  param {
    lr_mult: 0
    decay_mult: 0
  }
  convolution_param {
    num_output: 64
    pad: 1
    kernel_size: 3
  }
}
layer {
  name: "relu1_2"
  type: "ReLU"
  bottom: "conv1_2"
  top: "conv1_2"
}
layer {
  name: "pool1"
  type: "Pooling"
  bottom: "conv1_2"
  top: "pool1"
  pooling_param {
    pool: MAX
    kernel_size: 2
    stride: 2
  }
}
layer {
  name: "conv2_1"
  type: "Convolution"
  bottom: "pool1"
  top: "conv2_1"
  param {
    lr_mult: 0
    decay_mult: 0
  }
  param {
    lr_mult: 0
    decay_mult: 0
  }
  convolution_param {
    num_output: 128
    pad: 1
    kernel_size: 3
  }
}
layer {
  name: "relu2_1"
  type: "ReLU"
  bottom: "conv2_1"
  top: "conv2_1"
}
layer {
  name: "conv2_2"
  type: "Convolution"
  bottom: "conv2_1"
  top: "conv2_2"
  param {
    lr_mult: 0
    decay_mult: 0
  }
  param {
    lr_mult: 0
    decay_mult: 0
  }
  convolution_param {
    num_output: 128
    pad: 1
    kernel_size: 3
  }
}
layer {
  name: "relu2_2"
  type: "ReLU"
  bottom: "conv2_2"
  top: "conv2_2"
}
layer {
  name: "pool2"
  type: "Pooling"
  bottom: "conv2_2"
  top: "pool2"
  pooling_param {
    pool: MAX
    kernel_size: 2
    stride: 2
  }
}
layer {
  name: "conv3_1"
  type: "Convolution"
  bottom: "pool2"
  top: "conv3_1"
  param {
    lr_mult: 1
    decay_mult: 1
  }
  param {
    lr_mult: 2
    decay_mult: 0
  }
  convolution_param {
    num_output: 256
    pad: 1
    kernel_size: 3
  }
}
layer {
  name: "relu3_1"
  type: "ReLU"
  bottom: "conv3_1"
  top: "conv3_1"
}
layer {
  name: "conv3_2"
  type: "Convolution"
  bottom: "conv3_1"
  top: "conv3_2"
  param {
    lr_mult: 1
    decay_mult: 1
  }
  param {
    lr_mult: 2
    decay_mult: 0
  }
  convolution_param {
    num_output: 256
    pad: 1
    kernel_size: 3
  }
}
layer {
  name: "relu3_2"
  type: "ReLU"
  bottom: "conv3_2"
  top: "conv3_2"
}
layer {
  name: "conv3_3"
  type: "Convolution"
  bottom: "conv3_2"
  top: "conv3_3"
  param {
    lr_mult: 1
    decay_mult: 1
  }
  param {
    lr_mult: 2
    decay_mult: 0
  }
  convolution_param {
    num_output: 256
    pad: 1
    kernel_size: 3
  }
}
layer {
  name: "relu3_3"
  type: "ReLU"
  bottom: "conv3_3"
  top: "conv3_3"
}
layer {
  name: "pool3"
  type: "Pooling"
  bottom: "conv3_3"
  top: "pool3"
  pooling_param {
    pool: MAX
    kernel_size: 2
    stride: 2
  }
}
layer {
  name: "conv4_1"
  type: "Convolution"
  bottom: "pool3"
  top: "conv4_1"
  param {
    lr_mult: 1
    decay_mult: 1
  }
  param {
    lr_mult: 2
    decay_mult: 0
  }
  convolution_param {
    num_output: 512
    pad: 1
    kernel_size: 3
  }
}
layer {
  name: "relu4_1"
  type: "ReLU"
  bottom: "conv4_1"
  top: "conv4_1"
}
layer {
  name: "conv4_2"
  type: "Convolution"
  bottom: "conv4_1"
  top: "conv4_2"
  param {
    lr_mult: 1
    decay_mult: 1
  }
  param {
    lr_mult: 2
    decay_mult: 0
  }
  convolution_param {
    num_output: 512
    pad: 1
    kernel_size: 3
  }
}
layer {
  name: "relu4_2"
  type: "ReLU"
  bottom: "conv4_2"
  top: "conv4_2"
}
layer {
  name: "conv4_3"
  type: "Convolution"
  bottom: "conv4_2"
  top: "conv4_3"
  param {
    lr_mult: 1
    decay_mult: 1
  }
  param {
    lr_mult: 2
    decay_mult: 0
  }
  convolution_param {
    num_output: 512
    pad: 1
    kernel_size: 3
  }
}
layer {
  name: "relu4_3"
  type: "ReLU"
  bottom: "conv4_3"
  top: "conv4_3"
}
layer {
  name: "pool4"
  type: "Pooling"
  bottom: "conv4_3"
  top: "pool4"
  pooling_param {
    pool: MAX
    kernel_size: 2
    stride: 2
  }
}
layer {
  name: "conv5_1"
  type: "Convolution"
  bottom: "pool4"
  top: "conv5_1"
  param {
    lr_mult: 1
    decay_mult: 1
  }
  param {
    lr_mult: 2
    decay_mult: 0
  }
  convolution_param {
    num_output: 512
    pad: 1
    kernel_size: 3
  }
}
layer {
  name: "relu5_1"
  type: "ReLU"
  bottom: "conv5_1"
  top: "conv5_1"
}
layer {
  name: "conv5_2"
  type: "Convolution"
  bottom: "conv5_1"
  top: "conv5_2"
  param {
    lr_mult: 1
    decay_mult: 1
  }
  param {
    lr_mult: 2
    decay_mult: 0
  }
  convolution_param {
    num_output: 512
    pad: 1
    kernel_size: 3
  }
}
layer {
  name: "relu5_2"
  type: "ReLU"
  bottom: "conv5_2"
  top: "conv5_2"
}
layer {
  name: "conv5_3"
  type: "Convolution"
  bottom: "conv5_2"
  top: "conv5_3"
  param {
    lr_mult: 1
    decay_mult: 1
  }
  param {
    lr_mult: 2
    decay_mult: 0
  }
  convolution_param {
    num_output: 512
    pad: 1
    kernel_size: 3
  }
}
layer {
  name: "relu5_3"
  type: "ReLU"
  bottom: "conv5_3"
  top: "conv5_3"
}
layer {
  name: "roi_pool5"
  type: "ROIPooling"
  bottom: "conv5_3"
  bottom: "rois"
  top: "pool5"
  roi_pooling_param {
    pooled_h: 7
    pooled_w: 7
    spatial_scale: 0.0625
  }
}
layer {
  name: "fc6"
  type: "InnerProduct"
  bottom: "pool5"
  top: "fc6"
  param {
    lr_mult: 1
    decay_mult: 1
  }
  param {
    lr_mult: 2
    decay_mult: 0
  }
  inner_product_param {
    num_output: 4096
  }
}
layer {
  name: "relu6"
  type: "ReLU"
  bottom: "fc6"
  top: "fc6"
}
layer {
  name: "drop6"
  type: "Dropout"
  bottom: "fc6"
  top: "fc6"
  dropout_param {
    dropout_ratio: 0.5
  }
}
layer {
  name: "fc7"
  type: "InnerProduct"
  bottom: "fc6"
  top: "fc7"
  param {
    lr_mult: 1
    decay_mult: 1
  }
  param {
    lr_mult: 2
    decay_mult: 0
  }
  inner_product_param {
    num_output: 4096
  }
}
layer {
  name: "relu7"
  type: "ReLU"
  bottom: "fc7"
  top: "fc7"
}
layer {
  name: "drop7"
  type: "Dropout"
  bottom: "fc7"
  top: "fc7"
  dropout_param {
    dropout_ratio: 0.5
  }
}
layer {
  name: "roi_pool5_context"
  type: "ROIPooling"
  bottom: "conv5_3"
  bottom: "context"
  top: "pool5_context"
  roi_pooling_param {
    pooled_h: 7
    pooled_w: 7
    spatial_scale: 0.0625
  }
}
layer {
  name: "fc6_context"
  type: "InnerProduct"
  bottom: "pool5_context"
  top: "fc6_context"
  param {
    lr_mult: 1
    decay_mult: 1
  }
  param {
    lr_mult: 2
    decay_mult: 0
  }
  inner_product_param {
    num_output: 4096
  }
}
layer {
  name: "relu6_context"
  type: "ReLU"
  bottom: "fc6_context"
  top: "fc6_context"
}
layer {
  name: "drop6_context"
  type: "Dropout"
  bottom: "fc6_context"
  top: "fc6_context"
  dropout_param {
    dropout_ratio: 0.5
  }
}
layer {
  name: "fc7_context"
  type: "InnerProduct"
  bottom: "fc6_context"
  top: "fc7_context"
  param {
    lr_mult: 1
    decay_mult: 1
  }
  param {
    lr_mult: 2
    decay_mult: 0
  }
  inner_product_param {
    num_output: 4096
  }
}
layer {
  name: "relu7_context"
  type: "ReLU"
  bottom: "fc7_context"
  top: "fc7_context"
}
layer {
  name: "drop7_context"
  type: "Dropout"
  bottom: "fc7_context"
  top: "fc7_context"
  dropout_param {
    dropout_ratio: 0.5
  }
}
layer {
  name: "fc7_output"
  type: "Concat"
  bottom: "fc7"
  bottom: "fc7_context"
  top: "fc7_output"
}
layer {
  name: "cls_score"
  type: "InnerProduct"
  bottom: "fc7_output"
  top: "cls_score"
  param {
    lr_mult: 1
    decay_mult: 1
  }
  param {
    lr_mult: 2
    decay_mult: 0
  }
  inner_product_param {
    num_output: 2
    weight_filler {
      type: "gaussian"
      std: 0.01
    }
    bias_filler {
      type: "constant"
      value: 0
    }
  }
}
layer {
  name: "bbox_pred"
  type: "InnerProduct"
  bottom: "fc7_output"
  top: "bbox_pred"
  param {
    lr_mult: 1
    decay_mult: 1
  }
  param {
    lr_mult: 2
    decay_mult: 0
  }
  inner_product_param {
    num_output: 8
    weight_filler {
      type: "gaussian"
      std: 0.001
    }
    bias_filler {
      type: "constant"
      value: 0
    }
  }
}
layer {
  name: "ort_pred"
  type: "InnerProduct"
  bottom: "fc7_output"
  top: "ort_pred"
  param {
    lr_mult: 1
    decay_mult: 1
  }
  param {
    lr_mult: 2
    decay_mult: 0
  }
  inner_product_param {
    num_output: 2
    weight_filler {
      type: "gaussian"
      std: 0.001
    }
    bias_filler {
      type: "constant"
      value: 0
    }
  }
}
layer {
  name: "loss_cls"
  type: "SoftmaxWithLoss"
  bottom: "cls_score"
  bottom: "labels"
  top: "loss_cls"
  loss_weight: 1
}
layer {
  name: "loss_bbox"
  type: "SmoothL1Loss"
  bottom: "bbox_pred"
  bottom: "bbox_targets"
  bottom: "bbox_loss_weights"
  top: "loss_bbox"
  loss_weight: 1
}
layer {
  name: "loss_ort"
  type: "SmoothL1Loss"
  bottom: "ort_pred"
  bottom: "ort_targets"
  bottom: "ort_loss_weights"
  top: "loss_ort"
  loss_weight: 1
}
I0629 01:26:15.066409 32070 layer_factory.hpp:77] Creating layer data
I0629 01:26:15.066817 32070 net.cpp:100] Creating Layer data
I0629 01:26:15.066828 32070 net.cpp:408] data -> data
I0629 01:26:15.066835 32070 net.cpp:408] data -> rois
I0629 01:26:15.066839 32070 net.cpp:408] data -> labels
I0629 01:26:15.066844 32070 net.cpp:408] data -> bbox_targets
I0629 01:26:15.066848 32070 net.cpp:408] data -> bbox_loss_weights
I0629 01:26:15.066854 32070 net.cpp:408] data -> ort_targets
I0629 01:26:15.066857 32070 net.cpp:408] data -> ort_loss_weights
I0629 01:26:15.099737 32070 net.cpp:150] Setting up data
I0629 01:26:15.099761 32070 net.cpp:157] Top shape: 1 3 100 100 (30000)
I0629 01:26:15.099764 32070 net.cpp:157] Top shape: 1 5 (5)
I0629 01:26:15.099766 32070 net.cpp:157] Top shape: 1 (1)
I0629 01:26:15.099768 32070 net.cpp:157] Top shape: 1 8 (8)
I0629 01:26:15.099771 32070 net.cpp:157] Top shape: 1 8 (8)
I0629 01:26:15.099773 32070 net.cpp:157] Top shape: 1 2 (2)
I0629 01:26:15.099776 32070 net.cpp:157] Top shape: 1 2 (2)
I0629 01:26:15.099777 32070 net.cpp:165] Memory required for data: 120104
I0629 01:26:15.099783 32070 layer_factory.hpp:77] Creating layer rois_data_1_split
I0629 01:26:15.099794 32070 net.cpp:100] Creating Layer rois_data_1_split
I0629 01:26:15.099797 32070 net.cpp:434] rois_data_1_split <- rois
I0629 01:26:15.099803 32070 net.cpp:408] rois_data_1_split -> rois_data_1_split_0
I0629 01:26:15.099812 32070 net.cpp:408] rois_data_1_split -> rois_data_1_split_1
I0629 01:26:15.099838 32070 net.cpp:150] Setting up rois_data_1_split
I0629 01:26:15.099840 32070 net.cpp:157] Top shape: 1 5 (5)
I0629 01:26:15.099843 32070 net.cpp:157] Top shape: 1 5 (5)
I0629 01:26:15.099845 32070 net.cpp:165] Memory required for data: 120144
I0629 01:26:15.099848 32070 layer_factory.hpp:77] Creating layer multi_rois
I0629 01:26:15.099879 32070 net.cpp:100] Creating Layer multi_rois
I0629 01:26:15.099882 32070 net.cpp:434] multi_rois <- rois_data_1_split_0
I0629 01:26:15.099886 32070 net.cpp:408] multi_rois -> context
'context': 1.5
I0629 01:26:15.100227 32070 net.cpp:150] Setting up multi_rois
I0629 01:26:15.100236 32070 net.cpp:157] Top shape: 1 5 (5)
I0629 01:26:15.100239 32070 net.cpp:165] Memory required for data: 120164
I0629 01:26:15.100241 32070 layer_factory.hpp:77] Creating layer conv1_1
I0629 01:26:15.100250 32070 net.cpp:100] Creating Layer conv1_1
I0629 01:26:15.100252 32070 net.cpp:434] conv1_1 <- data
I0629 01:26:15.100256 32070 net.cpp:408] conv1_1 -> conv1_1
I0629 01:26:15.101940 32070 net.cpp:150] Setting up conv1_1
I0629 01:26:15.101951 32070 net.cpp:157] Top shape: 1 64 100 100 (640000)
I0629 01:26:15.101953 32070 net.cpp:165] Memory required for data: 2680164
I0629 01:26:15.101963 32070 layer_factory.hpp:77] Creating layer relu1_1
I0629 01:26:15.101969 32070 net.cpp:100] Creating Layer relu1_1
I0629 01:26:15.101972 32070 net.cpp:434] relu1_1 <- conv1_1
I0629 01:26:15.101975 32070 net.cpp:395] relu1_1 -> conv1_1 (in-place)
I0629 01:26:15.101981 32070 net.cpp:150] Setting up relu1_1
I0629 01:26:15.101984 32070 net.cpp:157] Top shape: 1 64 100 100 (640000)
I0629 01:26:15.101986 32070 net.cpp:165] Memory required for data: 5240164
I0629 01:26:15.101989 32070 layer_factory.hpp:77] Creating layer conv1_2
I0629 01:26:15.101994 32070 net.cpp:100] Creating Layer conv1_2
I0629 01:26:15.101996 32070 net.cpp:434] conv1_2 <- conv1_1
I0629 01:26:15.102000 32070 net.cpp:408] conv1_2 -> conv1_2
I0629 01:26:15.102948 32070 net.cpp:150] Setting up conv1_2
I0629 01:26:15.102959 32070 net.cpp:157] Top shape: 1 64 100 100 (640000)
I0629 01:26:15.102962 32070 net.cpp:165] Memory required for data: 7800164
I0629 01:26:15.102968 32070 layer_factory.hpp:77] Creating layer relu1_2
I0629 01:26:15.102972 32070 net.cpp:100] Creating Layer relu1_2
I0629 01:26:15.102975 32070 net.cpp:434] relu1_2 <- conv1_2
I0629 01:26:15.102979 32070 net.cpp:395] relu1_2 -> conv1_2 (in-place)
I0629 01:26:15.102983 32070 net.cpp:150] Setting up relu1_2
I0629 01:26:15.102991 32070 net.cpp:157] Top shape: 1 64 100 100 (640000)
I0629 01:26:15.102993 32070 net.cpp:165] Memory required for data: 10360164
I0629 01:26:15.102995 32070 layer_factory.hpp:77] Creating layer pool1
I0629 01:26:15.103000 32070 net.cpp:100] Creating Layer pool1
I0629 01:26:15.103003 32070 net.cpp:434] pool1 <- conv1_2
I0629 01:26:15.103005 32070 net.cpp:408] pool1 -> pool1
I0629 01:26:15.103031 32070 net.cpp:150] Setting up pool1
I0629 01:26:15.103035 32070 net.cpp:157] Top shape: 1 64 50 50 (160000)
I0629 01:26:15.103037 32070 net.cpp:165] Memory required for data: 11000164
I0629 01:26:15.103039 32070 layer_factory.hpp:77] Creating layer conv2_1
I0629 01:26:15.103046 32070 net.cpp:100] Creating Layer conv2_1
I0629 01:26:15.103049 32070 net.cpp:434] conv2_1 <- pool1
I0629 01:26:15.103052 32070 net.cpp:408] conv2_1 -> conv2_1
I0629 01:26:15.103998 32070 net.cpp:150] Setting up conv2_1
I0629 01:26:15.104009 32070 net.cpp:157] Top shape: 1 128 50 50 (320000)
I0629 01:26:15.104012 32070 net.cpp:165] Memory required for data: 12280164
I0629 01:26:15.104017 32070 layer_factory.hpp:77] Creating layer relu2_1
I0629 01:26:15.104022 32070 net.cpp:100] Creating Layer relu2_1
I0629 01:26:15.104025 32070 net.cpp:434] relu2_1 <- conv2_1
I0629 01:26:15.104028 32070 net.cpp:395] relu2_1 -> conv2_1 (in-place)
I0629 01:26:15.104033 32070 net.cpp:150] Setting up relu2_1
I0629 01:26:15.104038 32070 net.cpp:157] Top shape: 1 128 50 50 (320000)
I0629 01:26:15.104039 32070 net.cpp:165] Memory required for data: 13560164
I0629 01:26:15.104041 32070 layer_factory.hpp:77] Creating layer conv2_2
I0629 01:26:15.104046 32070 net.cpp:100] Creating Layer conv2_2
I0629 01:26:15.104048 32070 net.cpp:434] conv2_2 <- conv2_1
I0629 01:26:15.104053 32070 net.cpp:408] conv2_2 -> conv2_2
I0629 01:26:15.104282 32070 net.cpp:150] Setting up conv2_2
I0629 01:26:15.104288 32070 net.cpp:157] Top shape: 1 128 50 50 (320000)
I0629 01:26:15.104290 32070 net.cpp:165] Memory required for data: 14840164
I0629 01:26:15.104295 32070 layer_factory.hpp:77] Creating layer relu2_2
I0629 01:26:15.104298 32070 net.cpp:100] Creating Layer relu2_2
I0629 01:26:15.104300 32070 net.cpp:434] relu2_2 <- conv2_2
I0629 01:26:15.104305 32070 net.cpp:395] relu2_2 -> conv2_2 (in-place)
I0629 01:26:15.104308 32070 net.cpp:150] Setting up relu2_2
I0629 01:26:15.104311 32070 net.cpp:157] Top shape: 1 128 50 50 (320000)
I0629 01:26:15.104313 32070 net.cpp:165] Memory required for data: 16120164
I0629 01:26:15.104315 32070 layer_factory.hpp:77] Creating layer pool2
I0629 01:26:15.104318 32070 net.cpp:100] Creating Layer pool2
I0629 01:26:15.104321 32070 net.cpp:434] pool2 <- conv2_2
I0629 01:26:15.104323 32070 net.cpp:408] pool2 -> pool2
I0629 01:26:15.104347 32070 net.cpp:150] Setting up pool2
I0629 01:26:15.104351 32070 net.cpp:157] Top shape: 1 128 25 25 (80000)
I0629 01:26:15.104353 32070 net.cpp:165] Memory required for data: 16440164
I0629 01:26:15.104355 32070 layer_factory.hpp:77] Creating layer conv3_1
I0629 01:26:15.104360 32070 net.cpp:100] Creating Layer conv3_1
I0629 01:26:15.104362 32070 net.cpp:434] conv3_1 <- pool2
I0629 01:26:15.104367 32070 net.cpp:408] conv3_1 -> conv3_1
I0629 01:26:15.105406 32070 net.cpp:150] Setting up conv3_1
I0629 01:26:15.105417 32070 net.cpp:157] Top shape: 1 256 25 25 (160000)
I0629 01:26:15.105420 32070 net.cpp:165] Memory required for data: 17080164
I0629 01:26:15.105427 32070 layer_factory.hpp:77] Creating layer relu3_1
I0629 01:26:15.105432 32070 net.cpp:100] Creating Layer relu3_1
I0629 01:26:15.105433 32070 net.cpp:434] relu3_1 <- conv3_1
I0629 01:26:15.105437 32070 net.cpp:395] relu3_1 -> conv3_1 (in-place)
I0629 01:26:15.105443 32070 net.cpp:150] Setting up relu3_1
I0629 01:26:15.105446 32070 net.cpp:157] Top shape: 1 256 25 25 (160000)
I0629 01:26:15.105448 32070 net.cpp:165] Memory required for data: 17720164
I0629 01:26:15.105450 32070 layer_factory.hpp:77] Creating layer conv3_2
I0629 01:26:15.105455 32070 net.cpp:100] Creating Layer conv3_2
I0629 01:26:15.105458 32070 net.cpp:434] conv3_2 <- conv3_1
I0629 01:26:15.105460 32070 net.cpp:408] conv3_2 -> conv3_2
I0629 01:26:15.106746 32070 net.cpp:150] Setting up conv3_2
I0629 01:26:15.106757 32070 net.cpp:157] Top shape: 1 256 25 25 (160000)
I0629 01:26:15.106760 32070 net.cpp:165] Memory required for data: 18360164
I0629 01:26:15.106765 32070 layer_factory.hpp:77] Creating layer relu3_2
I0629 01:26:15.106770 32070 net.cpp:100] Creating Layer relu3_2
I0629 01:26:15.106773 32070 net.cpp:434] relu3_2 <- conv3_2
I0629 01:26:15.106777 32070 net.cpp:395] relu3_2 -> conv3_2 (in-place)
I0629 01:26:15.106781 32070 net.cpp:150] Setting up relu3_2
I0629 01:26:15.106786 32070 net.cpp:157] Top shape: 1 256 25 25 (160000)
I0629 01:26:15.106786 32070 net.cpp:165] Memory required for data: 19000164
I0629 01:26:15.106788 32070 layer_factory.hpp:77] Creating layer conv3_3
I0629 01:26:15.106794 32070 net.cpp:100] Creating Layer conv3_3
I0629 01:26:15.106796 32070 net.cpp:434] conv3_3 <- conv3_2
I0629 01:26:15.106801 32070 net.cpp:408] conv3_3 -> conv3_3
I0629 01:26:15.108070 32070 net.cpp:150] Setting up conv3_3
I0629 01:26:15.108080 32070 net.cpp:157] Top shape: 1 256 25 25 (160000)
I0629 01:26:15.108083 32070 net.cpp:165] Memory required for data: 19640164
I0629 01:26:15.108088 32070 layer_factory.hpp:77] Creating layer relu3_3
I0629 01:26:15.108091 32070 net.cpp:100] Creating Layer relu3_3
I0629 01:26:15.108094 32070 net.cpp:434] relu3_3 <- conv3_3
I0629 01:26:15.108098 32070 net.cpp:395] relu3_3 -> conv3_3 (in-place)
I0629 01:26:15.108103 32070 net.cpp:150] Setting up relu3_3
I0629 01:26:15.108106 32070 net.cpp:157] Top shape: 1 256 25 25 (160000)
I0629 01:26:15.108108 32070 net.cpp:165] Memory required for data: 20280164
I0629 01:26:15.108110 32070 layer_factory.hpp:77] Creating layer pool3
I0629 01:26:15.108114 32070 net.cpp:100] Creating Layer pool3
I0629 01:26:15.108115 32070 net.cpp:434] pool3 <- conv3_3
I0629 01:26:15.108119 32070 net.cpp:408] pool3 -> pool3
I0629 01:26:15.108145 32070 net.cpp:150] Setting up pool3
I0629 01:26:15.108150 32070 net.cpp:157] Top shape: 1 256 13 13 (43264)
I0629 01:26:15.108151 32070 net.cpp:165] Memory required for data: 20453220
I0629 01:26:15.108153 32070 layer_factory.hpp:77] Creating layer conv4_1
I0629 01:26:15.108160 32070 net.cpp:100] Creating Layer conv4_1
I0629 01:26:15.108161 32070 net.cpp:434] conv4_1 <- pool3
I0629 01:26:15.108166 32070 net.cpp:408] conv4_1 -> conv4_1
I0629 01:26:15.110239 32070 net.cpp:150] Setting up conv4_1
I0629 01:26:15.110249 32070 net.cpp:157] Top shape: 1 512 13 13 (86528)
I0629 01:26:15.110251 32070 net.cpp:165] Memory required for data: 20799332
I0629 01:26:15.110256 32070 layer_factory.hpp:77] Creating layer relu4_1
I0629 01:26:15.110260 32070 net.cpp:100] Creating Layer relu4_1
I0629 01:26:15.110263 32070 net.cpp:434] relu4_1 <- conv4_1
I0629 01:26:15.110267 32070 net.cpp:395] relu4_1 -> conv4_1 (in-place)
I0629 01:26:15.110271 32070 net.cpp:150] Setting up relu4_1
I0629 01:26:15.110275 32070 net.cpp:157] Top shape: 1 512 13 13 (86528)
I0629 01:26:15.110277 32070 net.cpp:165] Memory required for data: 21145444
I0629 01:26:15.110280 32070 layer_factory.hpp:77] Creating layer conv4_2
I0629 01:26:15.110285 32070 net.cpp:100] Creating Layer conv4_2
I0629 01:26:15.110286 32070 net.cpp:434] conv4_2 <- conv4_1
I0629 01:26:15.110291 32070 net.cpp:408] conv4_2 -> conv4_2
I0629 01:26:15.114060 32070 net.cpp:150] Setting up conv4_2
I0629 01:26:15.114075 32070 net.cpp:157] Top shape: 1 512 13 13 (86528)
I0629 01:26:15.114078 32070 net.cpp:165] Memory required for data: 21491556
I0629 01:26:15.114086 32070 layer_factory.hpp:77] Creating layer relu4_2
I0629 01:26:15.114092 32070 net.cpp:100] Creating Layer relu4_2
I0629 01:26:15.114095 32070 net.cpp:434] relu4_2 <- conv4_2
I0629 01:26:15.114099 32070 net.cpp:395] relu4_2 -> conv4_2 (in-place)
I0629 01:26:15.114105 32070 net.cpp:150] Setting up relu4_2
I0629 01:26:15.114109 32070 net.cpp:157] Top shape: 1 512 13 13 (86528)
I0629 01:26:15.114110 32070 net.cpp:165] Memory required for data: 21837668
I0629 01:26:15.114112 32070 layer_factory.hpp:77] Creating layer conv4_3
I0629 01:26:15.114118 32070 net.cpp:100] Creating Layer conv4_3
I0629 01:26:15.114120 32070 net.cpp:434] conv4_3 <- conv4_2
I0629 01:26:15.114125 32070 net.cpp:408] conv4_3 -> conv4_3
I0629 01:26:15.117879 32070 net.cpp:150] Setting up conv4_3
I0629 01:26:15.117895 32070 net.cpp:157] Top shape: 1 512 13 13 (86528)
I0629 01:26:15.117897 32070 net.cpp:165] Memory required for data: 22183780
I0629 01:26:15.117903 32070 layer_factory.hpp:77] Creating layer relu4_3
I0629 01:26:15.117909 32070 net.cpp:100] Creating Layer relu4_3
I0629 01:26:15.117913 32070 net.cpp:434] relu4_3 <- conv4_3
I0629 01:26:15.117918 32070 net.cpp:395] relu4_3 -> conv4_3 (in-place)
I0629 01:26:15.117923 32070 net.cpp:150] Setting up relu4_3
I0629 01:26:15.117926 32070 net.cpp:157] Top shape: 1 512 13 13 (86528)
I0629 01:26:15.117928 32070 net.cpp:165] Memory required for data: 22529892
I0629 01:26:15.117931 32070 layer_factory.hpp:77] Creating layer pool4
I0629 01:26:15.117935 32070 net.cpp:100] Creating Layer pool4
I0629 01:26:15.117938 32070 net.cpp:434] pool4 <- conv4_3
I0629 01:26:15.117941 32070 net.cpp:408] pool4 -> pool4
I0629 01:26:15.117969 32070 net.cpp:150] Setting up pool4
I0629 01:26:15.117974 32070 net.cpp:157] Top shape: 1 512 7 7 (25088)
I0629 01:26:15.117976 32070 net.cpp:165] Memory required for data: 22630244
I0629 01:26:15.117979 32070 layer_factory.hpp:77] Creating layer conv5_1
I0629 01:26:15.117985 32070 net.cpp:100] Creating Layer conv5_1
I0629 01:26:15.117986 32070 net.cpp:434] conv5_1 <- pool4
I0629 01:26:15.117990 32070 net.cpp:408] conv5_1 -> conv5_1
I0629 01:26:15.121758 32070 net.cpp:150] Setting up conv5_1
I0629 01:26:15.121773 32070 net.cpp:157] Top shape: 1 512 7 7 (25088)
I0629 01:26:15.121776 32070 net.cpp:165] Memory required for data: 22730596
I0629 01:26:15.121781 32070 layer_factory.hpp:77] Creating layer relu5_1
I0629 01:26:15.121788 32070 net.cpp:100] Creating Layer relu5_1
I0629 01:26:15.121790 32070 net.cpp:434] relu5_1 <- conv5_1
I0629 01:26:15.121794 32070 net.cpp:395] relu5_1 -> conv5_1 (in-place)
I0629 01:26:15.121799 32070 net.cpp:150] Setting up relu5_1
I0629 01:26:15.121803 32070 net.cpp:157] Top shape: 1 512 7 7 (25088)
I0629 01:26:15.121805 32070 net.cpp:165] Memory required for data: 22830948
I0629 01:26:15.121807 32070 layer_factory.hpp:77] Creating layer conv5_2
I0629 01:26:15.121812 32070 net.cpp:100] Creating Layer conv5_2
I0629 01:26:15.121814 32070 net.cpp:434] conv5_2 <- conv5_1
I0629 01:26:15.121819 32070 net.cpp:408] conv5_2 -> conv5_2
I0629 01:26:15.125633 32070 net.cpp:150] Setting up conv5_2
I0629 01:26:15.125649 32070 net.cpp:157] Top shape: 1 512 7 7 (25088)
I0629 01:26:15.125651 32070 net.cpp:165] Memory required for data: 22931300
I0629 01:26:15.125658 32070 layer_factory.hpp:77] Creating layer relu5_2
I0629 01:26:15.125665 32070 net.cpp:100] Creating Layer relu5_2
I0629 01:26:15.125669 32070 net.cpp:434] relu5_2 <- conv5_2
I0629 01:26:15.125674 32070 net.cpp:395] relu5_2 -> conv5_2 (in-place)
I0629 01:26:15.125680 32070 net.cpp:150] Setting up relu5_2
I0629 01:26:15.125684 32070 net.cpp:157] Top shape: 1 512 7 7 (25088)
I0629 01:26:15.125685 32070 net.cpp:165] Memory required for data: 23031652
I0629 01:26:15.125687 32070 layer_factory.hpp:77] Creating layer conv5_3
I0629 01:26:15.125694 32070 net.cpp:100] Creating Layer conv5_3
I0629 01:26:15.125695 32070 net.cpp:434] conv5_3 <- conv5_2
I0629 01:26:15.125699 32070 net.cpp:408] conv5_3 -> conv5_3
I0629 01:26:15.129652 32070 net.cpp:150] Setting up conv5_3
I0629 01:26:15.129670 32070 net.cpp:157] Top shape: 1 512 7 7 (25088)
I0629 01:26:15.129673 32070 net.cpp:165] Memory required for data: 23132004
I0629 01:26:15.129679 32070 layer_factory.hpp:77] Creating layer relu5_3
I0629 01:26:15.129691 32070 net.cpp:100] Creating Layer relu5_3
I0629 01:26:15.129694 32070 net.cpp:434] relu5_3 <- conv5_3
I0629 01:26:15.129701 32070 net.cpp:395] relu5_3 -> conv5_3 (in-place)
I0629 01:26:15.129707 32070 net.cpp:150] Setting up relu5_3
I0629 01:26:15.129711 32070 net.cpp:157] Top shape: 1 512 7 7 (25088)
I0629 01:26:15.129712 32070 net.cpp:165] Memory required for data: 23232356
I0629 01:26:15.129714 32070 layer_factory.hpp:77] Creating layer conv5_3_relu5_3_0_split
I0629 01:26:15.129719 32070 net.cpp:100] Creating Layer conv5_3_relu5_3_0_split
I0629 01:26:15.129721 32070 net.cpp:434] conv5_3_relu5_3_0_split <- conv5_3
I0629 01:26:15.129724 32070 net.cpp:408] conv5_3_relu5_3_0_split -> conv5_3_relu5_3_0_split_0
I0629 01:26:15.129730 32070 net.cpp:408] conv5_3_relu5_3_0_split -> conv5_3_relu5_3_0_split_1
I0629 01:26:15.129757 32070 net.cpp:150] Setting up conv5_3_relu5_3_0_split
I0629 01:26:15.129761 32070 net.cpp:157] Top shape: 1 512 7 7 (25088)
I0629 01:26:15.129765 32070 net.cpp:157] Top shape: 1 512 7 7 (25088)
I0629 01:26:15.129766 32070 net.cpp:165] Memory required for data: 23433060
I0629 01:26:15.129768 32070 layer_factory.hpp:77] Creating layer roi_pool5
I0629 01:26:15.129773 32070 net.cpp:100] Creating Layer roi_pool5
I0629 01:26:15.129776 32070 net.cpp:434] roi_pool5 <- conv5_3_relu5_3_0_split_0
I0629 01:26:15.129779 32070 net.cpp:434] roi_pool5 <- rois_data_1_split_1
I0629 01:26:15.129783 32070 net.cpp:408] roi_pool5 -> pool5
I0629 01:26:15.129788 32070 roi_pooling_layer.cpp:30] Spatial scale: 0.0625
I0629 01:26:15.129817 32070 net.cpp:150] Setting up roi_pool5
I0629 01:26:15.129819 32070 net.cpp:157] Top shape: 1 512 7 7 (25088)
I0629 01:26:15.129822 32070 net.cpp:165] Memory required for data: 23533412
I0629 01:26:15.129824 32070 layer_factory.hpp:77] Creating layer fc6
I0629 01:26:15.129829 32070 net.cpp:100] Creating Layer fc6
I0629 01:26:15.129832 32070 net.cpp:434] fc6 <- pool5
I0629 01:26:15.129835 32070 net.cpp:408] fc6 -> fc6
I0629 01:26:15.298898 32070 net.cpp:150] Setting up fc6
I0629 01:26:15.298938 32070 net.cpp:157] Top shape: 1 4096 (4096)
I0629 01:26:15.298939 32070 net.cpp:165] Memory required for data: 23549796
I0629 01:26:15.298949 32070 layer_factory.hpp:77] Creating layer relu6
I0629 01:26:15.298957 32070 net.cpp:100] Creating Layer relu6
I0629 01:26:15.298961 32070 net.cpp:434] relu6 <- fc6
I0629 01:26:15.298966 32070 net.cpp:395] relu6 -> fc6 (in-place)
I0629 01:26:15.298974 32070 net.cpp:150] Setting up relu6
I0629 01:26:15.298977 32070 net.cpp:157] Top shape: 1 4096 (4096)
I0629 01:26:15.298979 32070 net.cpp:165] Memory required for data: 23566180
I0629 01:26:15.298980 32070 layer_factory.hpp:77] Creating layer drop6
I0629 01:26:15.298985 32070 net.cpp:100] Creating Layer drop6
I0629 01:26:15.298988 32070 net.cpp:434] drop6 <- fc6
I0629 01:26:15.298991 32070 net.cpp:395] drop6 -> fc6 (in-place)
I0629 01:26:15.299006 32070 net.cpp:150] Setting up drop6
I0629 01:26:15.299010 32070 net.cpp:157] Top shape: 1 4096 (4096)
I0629 01:26:15.299011 32070 net.cpp:165] Memory required for data: 23582564
I0629 01:26:15.299013 32070 layer_factory.hpp:77] Creating layer fc7
I0629 01:26:15.299018 32070 net.cpp:100] Creating Layer fc7
I0629 01:26:15.299021 32070 net.cpp:434] fc7 <- fc6
I0629 01:26:15.299026 32070 net.cpp:408] fc7 -> fc7
I0629 01:26:15.326851 32070 net.cpp:150] Setting up fc7
I0629 01:26:15.326874 32070 net.cpp:157] Top shape: 1 4096 (4096)
I0629 01:26:15.326875 32070 net.cpp:165] Memory required for data: 23598948
I0629 01:26:15.326884 32070 layer_factory.hpp:77] Creating layer relu7
I0629 01:26:15.326891 32070 net.cpp:100] Creating Layer relu7
I0629 01:26:15.326895 32070 net.cpp:434] relu7 <- fc7
I0629 01:26:15.326901 32070 net.cpp:395] relu7 -> fc7 (in-place)
I0629 01:26:15.326910 32070 net.cpp:150] Setting up relu7
I0629 01:26:15.326912 32070 net.cpp:157] Top shape: 1 4096 (4096)
I0629 01:26:15.326915 32070 net.cpp:165] Memory required for data: 23615332
I0629 01:26:15.326916 32070 layer_factory.hpp:77] Creating layer drop7
I0629 01:26:15.326921 32070 net.cpp:100] Creating Layer drop7
I0629 01:26:15.326923 32070 net.cpp:434] drop7 <- fc7
I0629 01:26:15.326926 32070 net.cpp:395] drop7 -> fc7 (in-place)
I0629 01:26:15.326941 32070 net.cpp:150] Setting up drop7
I0629 01:26:15.326944 32070 net.cpp:157] Top shape: 1 4096 (4096)
I0629 01:26:15.326946 32070 net.cpp:165] Memory required for data: 23631716
I0629 01:26:15.326948 32070 layer_factory.hpp:77] Creating layer roi_pool5_context
I0629 01:26:15.326952 32070 net.cpp:100] Creating Layer roi_pool5_context
I0629 01:26:15.326956 32070 net.cpp:434] roi_pool5_context <- conv5_3_relu5_3_0_split_1
I0629 01:26:15.326958 32070 net.cpp:434] roi_pool5_context <- context
I0629 01:26:15.326962 32070 net.cpp:408] roi_pool5_context -> pool5_context
I0629 01:26:15.326973 32070 roi_pooling_layer.cpp:30] Spatial scale: 0.0625
I0629 01:26:15.327010 32070 net.cpp:150] Setting up roi_pool5_context
I0629 01:26:15.327014 32070 net.cpp:157] Top shape: 1 512 7 7 (25088)
I0629 01:26:15.327016 32070 net.cpp:165] Memory required for data: 23732068
I0629 01:26:15.327018 32070 layer_factory.hpp:77] Creating layer fc6_context
I0629 01:26:15.327023 32070 net.cpp:100] Creating Layer fc6_context
I0629 01:26:15.327026 32070 net.cpp:434] fc6_context <- pool5_context
I0629 01:26:15.327030 32070 net.cpp:408] fc6_context -> fc6_context
I0629 01:26:15.489346 32070 net.cpp:150] Setting up fc6_context
I0629 01:26:15.489369 32070 net.cpp:157] Top shape: 1 4096 (4096)
I0629 01:26:15.489372 32070 net.cpp:165] Memory required for data: 23748452
I0629 01:26:15.489379 32070 layer_factory.hpp:77] Creating layer relu6_context
I0629 01:26:15.489387 32070 net.cpp:100] Creating Layer relu6_context
I0629 01:26:15.489392 32070 net.cpp:434] relu6_context <- fc6_context
I0629 01:26:15.489397 32070 net.cpp:395] relu6_context -> fc6_context (in-place)
I0629 01:26:15.489404 32070 net.cpp:150] Setting up relu6_context
I0629 01:26:15.489408 32070 net.cpp:157] Top shape: 1 4096 (4096)
I0629 01:26:15.489409 32070 net.cpp:165] Memory required for data: 23764836
I0629 01:26:15.489411 32070 layer_factory.hpp:77] Creating layer drop6_context
I0629 01:26:15.489416 32070 net.cpp:100] Creating Layer drop6_context
I0629 01:26:15.489418 32070 net.cpp:434] drop6_context <- fc6_context
I0629 01:26:15.489421 32070 net.cpp:395] drop6_context -> fc6_context (in-place)
I0629 01:26:15.489437 32070 net.cpp:150] Setting up drop6_context
I0629 01:26:15.489439 32070 net.cpp:157] Top shape: 1 4096 (4096)
I0629 01:26:15.489441 32070 net.cpp:165] Memory required for data: 23781220
I0629 01:26:15.489444 32070 layer_factory.hpp:77] Creating layer fc7_context
I0629 01:26:15.489449 32070 net.cpp:100] Creating Layer fc7_context
I0629 01:26:15.489450 32070 net.cpp:434] fc7_context <- fc6_context
I0629 01:26:15.489454 32070 net.cpp:408] fc7_context -> fc7_context
I0629 01:26:15.516331 32070 net.cpp:150] Setting up fc7_context
I0629 01:26:15.516355 32070 net.cpp:157] Top shape: 1 4096 (4096)
I0629 01:26:15.516357 32070 net.cpp:165] Memory required for data: 23797604
I0629 01:26:15.516371 32070 layer_factory.hpp:77] Creating layer relu7_context
I0629 01:26:15.516378 32070 net.cpp:100] Creating Layer relu7_context
I0629 01:26:15.516382 32070 net.cpp:434] relu7_context <- fc7_context
I0629 01:26:15.516387 32070 net.cpp:395] relu7_context -> fc7_context (in-place)
I0629 01:26:15.516409 32070 net.cpp:150] Setting up relu7_context
I0629 01:26:15.516412 32070 net.cpp:157] Top shape: 1 4096 (4096)
I0629 01:26:15.516413 32070 net.cpp:165] Memory required for data: 23813988
I0629 01:26:15.516415 32070 layer_factory.hpp:77] Creating layer drop7_context
I0629 01:26:15.516420 32070 net.cpp:100] Creating Layer drop7_context
I0629 01:26:15.516422 32070 net.cpp:434] drop7_context <- fc7_context
I0629 01:26:15.516425 32070 net.cpp:395] drop7_context -> fc7_context (in-place)
I0629 01:26:15.516441 32070 net.cpp:150] Setting up drop7_context
I0629 01:26:15.516444 32070 net.cpp:157] Top shape: 1 4096 (4096)
I0629 01:26:15.516446 32070 net.cpp:165] Memory required for data: 23830372
I0629 01:26:15.516448 32070 layer_factory.hpp:77] Creating layer fc7_output
I0629 01:26:15.516453 32070 net.cpp:100] Creating Layer fc7_output
I0629 01:26:15.516454 32070 net.cpp:434] fc7_output <- fc7
I0629 01:26:15.516458 32070 net.cpp:434] fc7_output <- fc7_context
I0629 01:26:15.516461 32070 net.cpp:408] fc7_output -> fc7_output
I0629 01:26:15.516476 32070 net.cpp:150] Setting up fc7_output
I0629 01:26:15.516479 32070 net.cpp:157] Top shape: 1 8192 (8192)
I0629 01:26:15.516481 32070 net.cpp:165] Memory required for data: 23863140
I0629 01:26:15.516484 32070 layer_factory.hpp:77] Creating layer fc7_output_fc7_output_0_split
I0629 01:26:15.516487 32070 net.cpp:100] Creating Layer fc7_output_fc7_output_0_split
I0629 01:26:15.516489 32070 net.cpp:434] fc7_output_fc7_output_0_split <- fc7_output
I0629 01:26:15.516494 32070 net.cpp:408] fc7_output_fc7_output_0_split -> fc7_output_fc7_output_0_split_0
I0629 01:26:15.516499 32070 net.cpp:408] fc7_output_fc7_output_0_split -> fc7_output_fc7_output_0_split_1
I0629 01:26:15.516502 32070 net.cpp:408] fc7_output_fc7_output_0_split -> fc7_output_fc7_output_0_split_2
I0629 01:26:15.516530 32070 net.cpp:150] Setting up fc7_output_fc7_output_0_split
I0629 01:26:15.516532 32070 net.cpp:157] Top shape: 1 8192 (8192)
I0629 01:26:15.516535 32070 net.cpp:157] Top shape: 1 8192 (8192)
I0629 01:26:15.516537 32070 net.cpp:157] Top shape: 1 8192 (8192)
I0629 01:26:15.516538 32070 net.cpp:165] Memory required for data: 23961444
I0629 01:26:15.516541 32070 layer_factory.hpp:77] Creating layer cls_score
I0629 01:26:15.516546 32070 net.cpp:100] Creating Layer cls_score
I0629 01:26:15.516548 32070 net.cpp:434] cls_score <- fc7_output_fc7_output_0_split_0
I0629 01:26:15.516553 32070 net.cpp:408] cls_score -> cls_score
I0629 01:26:15.516752 32070 net.cpp:150] Setting up cls_score
I0629 01:26:15.516757 32070 net.cpp:157] Top shape: 1 2 (2)
I0629 01:26:15.516759 32070 net.cpp:165] Memory required for data: 23961452
I0629 01:26:15.516762 32070 layer_factory.hpp:77] Creating layer bbox_pred
I0629 01:26:15.516767 32070 net.cpp:100] Creating Layer bbox_pred
I0629 01:26:15.516769 32070 net.cpp:434] bbox_pred <- fc7_output_fc7_output_0_split_1
I0629 01:26:15.516773 32070 net.cpp:408] bbox_pred -> bbox_pred
I0629 01:26:15.517352 32070 net.cpp:150] Setting up bbox_pred
I0629 01:26:15.517357 32070 net.cpp:157] Top shape: 1 8 (8)
I0629 01:26:15.517359 32070 net.cpp:165] Memory required for data: 23961484
I0629 01:26:15.517362 32070 layer_factory.hpp:77] Creating layer ort_pred
I0629 01:26:15.517366 32070 net.cpp:100] Creating Layer ort_pred
I0629 01:26:15.517369 32070 net.cpp:434] ort_pred <- fc7_output_fc7_output_0_split_2
I0629 01:26:15.517374 32070 net.cpp:408] ort_pred -> ort_pred
I0629 01:26:15.517562 32070 net.cpp:150] Setting up ort_pred
I0629 01:26:15.517567 32070 net.cpp:157] Top shape: 1 2 (2)
I0629 01:26:15.517570 32070 net.cpp:165] Memory required for data: 23961492
I0629 01:26:15.517572 32070 layer_factory.hpp:77] Creating layer loss_cls
I0629 01:26:15.517577 32070 net.cpp:100] Creating Layer loss_cls
I0629 01:26:15.517580 32070 net.cpp:434] loss_cls <- cls_score
I0629 01:26:15.517583 32070 net.cpp:434] loss_cls <- labels
I0629 01:26:15.517586 32070 net.cpp:408] loss_cls -> loss_cls
…
