…
I0511 17:21:36.878527 16061 upgrade_proto.cpp:69] Successfully upgraded file specified using deprecated input fields.
W0511 17:21:36.878540 16061 upgrade_proto.cpp:71] Note that future Caffe releases will only support input layers and not input fields.
I0511 17:21:36.879223 16061 net.cpp:58] Initializing net from parameters: 
name: "VGG_ILSVRC_16_layers"
state {
  phase: TEST
  level: 0
}
layer {
  name: "input"
  type: "Input"
  top: "data"
  top: "rois"
  input_param {
    shape {
      dim: 1
      dim: 3
      dim: 224
      dim: 224
    }
    shape {
      dim: 1
      dim: 5
    }
  }
}
layer {
  name: "multi_rois"
  type: "Python"
  bottom: "rois"
  top: "context"
  python_param {
    module: "roi_data_layer.layer"
    layer: "MultiRoIDataLayer"
    param_str: "\'context\': 1.5"
  }
}
layer {
  name: "conv1_1"
  type: "Convolution"
  bottom: "data"
  top: "conv1_1"
  param {
    lr_mult: 0
    decay_mult: 0
  }
  param {
    lr_mult: 0
    decay_mult: 0
  }
  convolution_param {
    num_output: 64
    pad: 1
    kernel_size: 3
  }
}
layer {
  name: "relu1_1"
  type: "ReLU"
  bottom: "conv1_1"
  top: "conv1_1"
}
layer {
  name: "conv1_2"
  type: "Convolution"
  bottom: "conv1_1"
  top: "conv1_2"
  param {
    lr_mult: 0
    decay_mult: 0
  }
  param {
    lr_mult: 0
    decay_mult: 0
  }
  convolution_param {
    num_output: 64
    pad: 1
    kernel_size: 3
  }
}
layer {
  name: "relu1_2"
  type: "ReLU"
  bottom: "conv1_2"
  top: "conv1_2"
}
layer {
  name: "pool1"
  type: "Pooling"
  bottom: "conv1_2"
  top: "pool1"
  pooling_param {
    pool: MAX
    kernel_size: 2
    stride: 2
  }
}
layer {
  name: "conv2_1"
  type: "Convolution"
  bottom: "pool1"
  top: "conv2_1"
  param {
    lr_mult: 0
    decay_mult: 0
  }
  param {
    lr_mult: 0
    decay_mult: 0
  }
  convolution_param {
    num_output: 128
    pad: 1
    kernel_size: 3
  }
}
layer {
  name: "relu2_1"
  type: "ReLU"
  bottom: "conv2_1"
  top: "conv2_1"
}
layer {
  name: "conv2_2"
  type: "Convolution"
  bottom: "conv2_1"
  top: "conv2_2"
  param {
    lr_mult: 0
    decay_mult: 0
  }
  param {
    lr_mult: 0
    decay_mult: 0
  }
  convolution_param {
    num_output: 128
    pad: 1
    kernel_size: 3
  }
}
layer {
  name: "relu2_2"
  type: "ReLU"
  bottom: "conv2_2"
  top: "conv2_2"
}
layer {
  name: "pool2"
  type: "Pooling"
  bottom: "conv2_2"
  top: "pool2"
  pooling_param {
    pool: MAX
    kernel_size: 2
    stride: 2
  }
}
layer {
  name: "conv3_1"
  type: "Convolution"
  bottom: "pool2"
  top: "conv3_1"
  param {
    lr_mult: 1
    decay_mult: 1
  }
  param {
    lr_mult: 2
    decay_mult: 0
  }
  convolution_param {
    num_output: 256
    pad: 1
    kernel_size: 3
  }
}
layer {
  name: "relu3_1"
  type: "ReLU"
  bottom: "conv3_1"
  top: "conv3_1"
}
layer {
  name: "conv3_2"
  type: "Convolution"
  bottom: "conv3_1"
  top: "conv3_2"
  param {
    lr_mult: 1
    decay_mult: 1
  }
  param {
    lr_mult: 2
    decay_mult: 0
  }
  convolution_param {
    num_output: 256
    pad: 1
    kernel_size: 3
  }
}
layer {
  name: "relu3_2"
  type: "ReLU"
  bottom: "conv3_2"
  top: "conv3_2"
}
layer {
  name: "conv3_3"
  type: "Convolution"
  bottom: "conv3_2"
  top: "conv3_3"
  param {
    lr_mult: 1
    decay_mult: 1
  }
  param {
    lr_mult: 2
    decay_mult: 0
  }
  convolution_param {
    num_output: 256
    pad: 1
    kernel_size: 3
  }
}
layer {
  name: "relu3_3"
  type: "ReLU"
  bottom: "conv3_3"
  top: "conv3_3"
}
layer {
  name: "pool3"
  type: "Pooling"
  bottom: "conv3_3"
  top: "pool3"
  pooling_param {
    pool: MAX
    kernel_size: 2
    stride: 2
  }
}
layer {
  name: "conv4_1"
  type: "Convolution"
  bottom: "pool3"
  top: "conv4_1"
  param {
    lr_mult: 1
    decay_mult: 1
  }
  param {
    lr_mult: 2
    decay_mult: 0
  }
  convolution_param {
    num_output: 512
    pad: 1
    kernel_size: 3
  }
}
layer {
  name: "relu4_1"
  type: "ReLU"
  bottom: "conv4_1"
  top: "conv4_1"
}
layer {
  name: "conv4_2"
  type: "Convolution"
  bottom: "conv4_1"
  top: "conv4_2"
  param {
    lr_mult: 1
    decay_mult: 1
  }
  param {
    lr_mult: 2
    decay_mult: 0
  }
  convolution_param {
    num_output: 512
    pad: 1
    kernel_size: 3
  }
}
layer {
  name: "relu4_2"
  type: "ReLU"
  bottom: "conv4_2"
  top: "conv4_2"
}
layer {
  name: "conv4_3"
  type: "Convolution"
  bottom: "conv4_2"
  top: "conv4_3"
  param {
    lr_mult: 1
    decay_mult: 1
  }
  param {
    lr_mult: 2
    decay_mult: 0
  }
  convolution_param {
    num_output: 512
    pad: 1
    kernel_size: 3
  }
}
layer {
  name: "relu4_3"
  type: "ReLU"
  bottom: "conv4_3"
  top: "conv4_3"
}
layer {
  name: "pool4"
  type: "Pooling"
  bottom: "conv4_3"
  top: "pool4"
  pooling_param {
    pool: MAX
    kernel_size: 2
    stride: 2
  }
}
layer {
  name: "conv5_1"
  type: "Convolution"
  bottom: "pool4"
  top: "conv5_1"
  param {
    lr_mult: 1
    decay_mult: 1
  }
  param {
    lr_mult: 2
    decay_mult: 0
  }
  convolution_param {
    num_output: 512
    pad: 1
    kernel_size: 3
  }
}
layer {
  name: "relu5_1"
  type: "ReLU"
  bottom: "conv5_1"
  top: "conv5_1"
}
layer {
  name: "conv5_2"
  type: "Convolution"
  bottom: "conv5_1"
  top: "conv5_2"
  param {
    lr_mult: 1
    decay_mult: 1
  }
  param {
    lr_mult: 2
    decay_mult: 0
  }
  convolution_param {
    num_output: 512
    pad: 1
    kernel_size: 3
  }
}
layer {
  name: "relu5_2"
  type: "ReLU"
  bottom: "conv5_2"
  top: "conv5_2"
}
layer {
  name: "conv5_3"
  type: "Convolution"
  bottom: "conv5_2"
  top: "conv5_3"
  param {
    lr_mult: 1
    decay_mult: 1
  }
  param {
    lr_mult: 2
    decay_mult: 0
  }
  convolution_param {
    num_output: 512
    pad: 1
    kernel_size: 3
  }
}
layer {
  name: "relu5_3"
  type: "ReLU"
  bottom: "conv5_3"
  top: "conv5_3"
}
layer {
  name: "roi_pool5"
  type: "ROIPooling"
  bottom: "conv5_3"
  bottom: "rois"
  top: "pool5"
  roi_pooling_param {
    pooled_h: 7
    pooled_w: 7
    spatial_scale: 0.0625
  }
}
layer {
  name: "fc6"
  type: "InnerProduct"
  bottom: "pool5"
  top: "fc6"
  param {
    lr_mult: 1
    decay_mult: 1
  }
  param {
    lr_mult: 2
    decay_mult: 0
  }
  inner_product_param {
    num_output: 4096
  }
}
layer {
  name: "relu6"
  type: "ReLU"
  bottom: "fc6"
  top: "fc6"
}
layer {
  name: "drop6"
  type: "Dropout"
  bottom: "fc6"
  top: "fc6"
  dropout_param {
    dropout_ratio: 0.5
  }
}
layer {
  name: "fc7"
  type: "InnerProduct"
  bottom: "fc6"
  top: "fc7"
  param {
    lr_mult: 1
    decay_mult: 1
  }
  param {
    lr_mult: 2
    decay_mult: 0
  }
  inner_product_param {
    num_output: 4096
  }
}
layer {
  name: "relu7"
  type: "ReLU"
  bottom: "fc7"
  top: "fc7"
}
layer {
  name: "drop7"
  type: "Dropout"
  bottom: "fc7"
  top: "fc7"
  dropout_param {
    dropout_ratio: 0.5
  }
}
layer {
  name: "roi_pool5_context"
  type: "ROIPooling"
  bottom: "conv5_3"
  bottom: "context"
  top: "pool5_context"
  roi_pooling_param {
    pooled_h: 7
    pooled_w: 7
    spatial_scale: 0.0625
  }
}
layer {
  name: "fc6_context"
  type: "InnerProduct"
  bottom: "pool5_context"
  top: "fc6_context"
  param {
    lr_mult: 1
    decay_mult: 1
  }
  param {
    lr_mult: 2
    decay_mult: 0
  }
  inner_product_param {
    num_output: 4096
  }
}
layer {
  name: "relu6_context"
  type: "ReLU"
  bottom: "fc6_context"
  top: "fc6_context"
}
layer {
  name: "drop6_context"
  type: "Dropout"
  bottom: "fc6_context"
  top: "fc6_context"
  dropout_param {
    dropout_ratio: 0.5
  }
}
layer {
  name: "fc7_context"
  type: "InnerProduct"
  bottom: "fc6_context"
  top: "fc7_context"
  param {
    lr_mult: 1
    decay_mult: 1
  }
  param {
    lr_mult: 2
    decay_mult: 0
  }
  inner_product_param {
    num_output: 4096
  }
}
layer {
  name: "relu7_context"
  type: "ReLU"
  bottom: "fc7_context"
  top: "fc7_context"
}
layer {
  name: "drop7_context"
  type: "Dropout"
  bottom: "fc7_context"
  top: "fc7_context"
  dropout_param {
    dropout_ratio: 0.5
  }
}
layer {
  name: "fc7_output"
  type: "Concat"
  bottom: "fc7"
  bottom: "fc7_context"
  top: "fc7_output"
}
layer {
  name: "cls_score"
  type: "InnerProduct"
  bottom: "fc7_output"
  top: "cls_score"
  param {
    lr_mult: 1
    decay_mult: 1
  }
  param {
    lr_mult: 2
    decay_mult: 0
  }
  inner_product_param {
    num_output: 2
    weight_filler {
      type: "gaussian"
      std: 0.01
    }
    bias_filler {
      type: "constant"
      value: 0
    }
  }
}
layer {
  name: "bbox_pred"
  type: "InnerProduct"
  bottom: "fc7_output"
  top: "bbox_pred"
  param {
    lr_mult: 1
    decay_mult: 1
  }
  param {
    lr_mult: 2
    decay_mult: 0
  }
  inner_product_param {
    num_output: 8
    weight_filler {
      type: "gaussian"
      std: 0.001
    }
    bias_filler {
      type: "constant"
      value: 0
    }
  }
}
layer {
  name: "ort_pred"
  type: "InnerProduct"
  bottom: "fc7_output"
  top: "ort_pred"
  param {
    lr_mult: 1
    decay_mult: 1
  }
  param {
    lr_mult: 2
    decay_mult: 0
  }
  inner_product_param {
    num_output: 2
    weight_filler {
      type: "gaussian"
      std: 0.001
    }
    bias_filler {
      type: "constant"
      value: 0
    }
  }
}
layer {
  name: "cls_prob"
  type: "Softmax"
  bottom: "cls_score"
  top: "cls_prob"
}
I0511 17:21:36.879757 16061 layer_factory.hpp:77] Creating layer input
I0511 17:21:36.879781 16061 net.cpp:100] Creating Layer input
I0511 17:21:36.879804 16061 net.cpp:408] input -> data
I0511 17:21:36.879830 16061 net.cpp:408] input -> rois
I0511 17:21:38.448070 16061 net.cpp:150] Setting up input
I0511 17:21:38.448092 16061 net.cpp:157] Top shape: 1 3 224 224 (150528)
I0511 17:21:38.448096 16061 net.cpp:157] Top shape: 1 5 (5)
I0511 17:21:38.448098 16061 net.cpp:165] Memory required for data: 602132
I0511 17:21:38.448105 16061 layer_factory.hpp:77] Creating layer rois_input_1_split
I0511 17:21:38.448115 16061 net.cpp:100] Creating Layer rois_input_1_split
I0511 17:21:38.448119 16061 net.cpp:434] rois_input_1_split <- rois
I0511 17:21:38.448124 16061 net.cpp:408] rois_input_1_split -> rois_input_1_split_0
I0511 17:21:38.448132 16061 net.cpp:408] rois_input_1_split -> rois_input_1_split_1
I0511 17:21:38.448158 16061 net.cpp:150] Setting up rois_input_1_split
I0511 17:21:38.448163 16061 net.cpp:157] Top shape: 1 5 (5)
I0511 17:21:38.448164 16061 net.cpp:157] Top shape: 1 5 (5)
I0511 17:21:38.448166 16061 net.cpp:165] Memory required for data: 602172
I0511 17:21:38.448169 16061 layer_factory.hpp:77] Creating layer multi_rois
I0511 17:21:38.470908 16061 net.cpp:100] Creating Layer multi_rois
I0511 17:21:38.470930 16061 net.cpp:434] multi_rois <- rois_input_1_split_0
I0511 17:21:38.470947 16061 net.cpp:408] multi_rois -> context
'context': 1.5
I0511 17:21:38.471628 16061 net.cpp:150] Setting up multi_rois
I0511 17:21:38.471652 16061 net.cpp:157] Top shape: 1 5 (5)
I0511 17:21:38.471660 16061 net.cpp:165] Memory required for data: 602192
I0511 17:21:38.471668 16061 layer_factory.hpp:77] Creating layer conv1_1
I0511 17:21:38.471690 16061 net.cpp:100] Creating Layer conv1_1
I0511 17:21:38.471702 16061 net.cpp:434] conv1_1 <- data
I0511 17:21:38.471719 16061 net.cpp:408] conv1_1 -> conv1_1
I0511 17:21:38.475090 16061 net.cpp:150] Setting up conv1_1
I0511 17:21:38.475129 16061 net.cpp:157] Top shape: 1 64 224 224 (3211264)
I0511 17:21:38.475141 16061 net.cpp:165] Memory required for data: 13447248
I0511 17:21:38.475167 16061 layer_factory.hpp:77] Creating layer relu1_1
I0511 17:21:38.475188 16061 net.cpp:100] Creating Layer relu1_1
I0511 17:21:38.475196 16061 net.cpp:434] relu1_1 <- conv1_1
I0511 17:21:38.475210 16061 net.cpp:395] relu1_1 -> conv1_1 (in-place)
I0511 17:21:38.475226 16061 net.cpp:150] Setting up relu1_1
I0511 17:21:38.475241 16061 net.cpp:157] Top shape: 1 64 224 224 (3211264)
I0511 17:21:38.475248 16061 net.cpp:165] Memory required for data: 26292304
I0511 17:21:38.475257 16061 layer_factory.hpp:77] Creating layer conv1_2
I0511 17:21:38.475284 16061 net.cpp:100] Creating Layer conv1_2
I0511 17:21:38.475294 16061 net.cpp:434] conv1_2 <- conv1_1
I0511 17:21:38.475309 16061 net.cpp:408] conv1_2 -> conv1_2
I0511 17:21:38.475731 16061 net.cpp:150] Setting up conv1_2
I0511 17:21:38.475749 16061 net.cpp:157] Top shape: 1 64 224 224 (3211264)
I0511 17:21:38.475756 16061 net.cpp:165] Memory required for data: 39137360
I0511 17:21:38.475775 16061 layer_factory.hpp:77] Creating layer relu1_2
I0511 17:21:38.475792 16061 net.cpp:100] Creating Layer relu1_2
I0511 17:21:38.475800 16061 net.cpp:434] relu1_2 <- conv1_2
I0511 17:21:38.475811 16061 net.cpp:395] relu1_2 -> conv1_2 (in-place)
I0511 17:21:38.475826 16061 net.cpp:150] Setting up relu1_2
I0511 17:21:38.475837 16061 net.cpp:157] Top shape: 1 64 224 224 (3211264)
I0511 17:21:38.475844 16061 net.cpp:165] Memory required for data: 51982416
I0511 17:21:38.475852 16061 layer_factory.hpp:77] Creating layer pool1
I0511 17:21:38.475864 16061 net.cpp:100] Creating Layer pool1
I0511 17:21:38.475872 16061 net.cpp:434] pool1 <- conv1_2
I0511 17:21:38.475883 16061 net.cpp:408] pool1 -> pool1
I0511 17:21:38.475949 16061 net.cpp:150] Setting up pool1
I0511 17:21:38.475962 16061 net.cpp:157] Top shape: 1 64 112 112 (802816)
I0511 17:21:38.475970 16061 net.cpp:165] Memory required for data: 55193680
I0511 17:21:38.475978 16061 layer_factory.hpp:77] Creating layer conv2_1
I0511 17:21:38.475996 16061 net.cpp:100] Creating Layer conv2_1
I0511 17:21:38.476004 16061 net.cpp:434] conv2_1 <- pool1
I0511 17:21:38.476018 16061 net.cpp:408] conv2_1 -> conv2_1
I0511 17:21:38.479420 16061 net.cpp:150] Setting up conv2_1
I0511 17:21:38.479446 16061 net.cpp:157] Top shape: 1 128 112 112 (1605632)
I0511 17:21:38.479454 16061 net.cpp:165] Memory required for data: 61616208
I0511 17:21:38.479477 16061 layer_factory.hpp:77] Creating layer relu2_1
I0511 17:21:38.479492 16061 net.cpp:100] Creating Layer relu2_1
I0511 17:21:38.479501 16061 net.cpp:434] relu2_1 <- conv2_1
I0511 17:21:38.479513 16061 net.cpp:395] relu2_1 -> conv2_1 (in-place)
I0511 17:21:38.479528 16061 net.cpp:150] Setting up relu2_1
I0511 17:21:38.479540 16061 net.cpp:157] Top shape: 1 128 112 112 (1605632)
I0511 17:21:38.479547 16061 net.cpp:165] Memory required for data: 68038736
I0511 17:21:38.479554 16061 layer_factory.hpp:77] Creating layer conv2_2
I0511 17:21:38.479570 16061 net.cpp:100] Creating Layer conv2_2
I0511 17:21:38.479578 16061 net.cpp:434] conv2_2 <- conv2_1
I0511 17:21:38.479599 16061 net.cpp:408] conv2_2 -> conv2_2
I0511 17:21:38.479864 16061 net.cpp:150] Setting up conv2_2
I0511 17:21:38.479876 16061 net.cpp:157] Top shape: 1 128 112 112 (1605632)
I0511 17:21:38.479879 16061 net.cpp:165] Memory required for data: 74461264
I0511 17:21:38.479887 16061 layer_factory.hpp:77] Creating layer relu2_2
I0511 17:21:38.479893 16061 net.cpp:100] Creating Layer relu2_2
I0511 17:21:38.479898 16061 net.cpp:434] relu2_2 <- conv2_2
I0511 17:21:38.479905 16061 net.cpp:395] relu2_2 -> conv2_2 (in-place)
I0511 17:21:38.479912 16061 net.cpp:150] Setting up relu2_2
I0511 17:21:38.479918 16061 net.cpp:157] Top shape: 1 128 112 112 (1605632)
I0511 17:21:38.479921 16061 net.cpp:165] Memory required for data: 80883792
I0511 17:21:38.479925 16061 layer_factory.hpp:77] Creating layer pool2
I0511 17:21:38.479933 16061 net.cpp:100] Creating Layer pool2
I0511 17:21:38.479935 16061 net.cpp:434] pool2 <- conv2_2
I0511 17:21:38.479941 16061 net.cpp:408] pool2 -> pool2
I0511 17:21:38.479976 16061 net.cpp:150] Setting up pool2
I0511 17:21:38.479984 16061 net.cpp:157] Top shape: 1 128 56 56 (401408)
I0511 17:21:38.479988 16061 net.cpp:165] Memory required for data: 82489424
I0511 17:21:38.479992 16061 layer_factory.hpp:77] Creating layer conv3_1
I0511 17:21:38.480001 16061 net.cpp:100] Creating Layer conv3_1
I0511 17:21:38.480005 16061 net.cpp:434] conv3_1 <- pool2
I0511 17:21:38.480012 16061 net.cpp:408] conv3_1 -> conv3_1
I0511 17:21:38.480372 16061 net.cpp:150] Setting up conv3_1
I0511 17:21:38.480382 16061 net.cpp:157] Top shape: 1 256 56 56 (802816)
I0511 17:21:38.480386 16061 net.cpp:165] Memory required for data: 85700688
I0511 17:21:38.480396 16061 layer_factory.hpp:77] Creating layer relu3_1
I0511 17:21:38.480404 16061 net.cpp:100] Creating Layer relu3_1
I0511 17:21:38.480408 16061 net.cpp:434] relu3_1 <- conv3_1
I0511 17:21:38.480414 16061 net.cpp:395] relu3_1 -> conv3_1 (in-place)
I0511 17:21:38.480422 16061 net.cpp:150] Setting up relu3_1
I0511 17:21:38.480427 16061 net.cpp:157] Top shape: 1 256 56 56 (802816)
I0511 17:21:38.480430 16061 net.cpp:165] Memory required for data: 88911952
I0511 17:21:38.480434 16061 layer_factory.hpp:77] Creating layer conv3_2
I0511 17:21:38.480443 16061 net.cpp:100] Creating Layer conv3_2
I0511 17:21:38.480449 16061 net.cpp:434] conv3_2 <- conv3_1
I0511 17:21:38.480456 16061 net.cpp:408] conv3_2 -> conv3_2
I0511 17:21:38.481951 16061 net.cpp:150] Setting up conv3_2
I0511 17:21:38.481966 16061 net.cpp:157] Top shape: 1 256 56 56 (802816)
I0511 17:21:38.481971 16061 net.cpp:165] Memory required for data: 92123216
I0511 17:21:38.481979 16061 layer_factory.hpp:77] Creating layer relu3_2
I0511 17:21:38.481989 16061 net.cpp:100] Creating Layer relu3_2
I0511 17:21:38.481995 16061 net.cpp:434] relu3_2 <- conv3_2
I0511 17:21:38.482003 16061 net.cpp:395] relu3_2 -> conv3_2 (in-place)
I0511 17:21:38.482012 16061 net.cpp:150] Setting up relu3_2
I0511 17:21:38.482017 16061 net.cpp:157] Top shape: 1 256 56 56 (802816)
I0511 17:21:38.482022 16061 net.cpp:165] Memory required for data: 95334480
I0511 17:21:38.482025 16061 layer_factory.hpp:77] Creating layer conv3_3
I0511 17:21:38.482034 16061 net.cpp:100] Creating Layer conv3_3
I0511 17:21:38.482038 16061 net.cpp:434] conv3_3 <- conv3_2
I0511 17:21:38.482045 16061 net.cpp:408] conv3_3 -> conv3_3
I0511 17:21:38.483758 16061 net.cpp:150] Setting up conv3_3
I0511 17:21:38.483774 16061 net.cpp:157] Top shape: 1 256 56 56 (802816)
I0511 17:21:38.483778 16061 net.cpp:165] Memory required for data: 98545744
I0511 17:21:38.483786 16061 layer_factory.hpp:77] Creating layer relu3_3
I0511 17:21:38.483795 16061 net.cpp:100] Creating Layer relu3_3
I0511 17:21:38.483800 16061 net.cpp:434] relu3_3 <- conv3_3
I0511 17:21:38.483806 16061 net.cpp:395] relu3_3 -> conv3_3 (in-place)
I0511 17:21:38.483814 16061 net.cpp:150] Setting up relu3_3
I0511 17:21:38.483821 16061 net.cpp:157] Top shape: 1 256 56 56 (802816)
I0511 17:21:38.483825 16061 net.cpp:165] Memory required for data: 101757008
I0511 17:21:38.483829 16061 layer_factory.hpp:77] Creating layer pool3
I0511 17:21:38.483835 16061 net.cpp:100] Creating Layer pool3
I0511 17:21:38.483840 16061 net.cpp:434] pool3 <- conv3_3
I0511 17:21:38.483846 16061 net.cpp:408] pool3 -> pool3
I0511 17:21:38.483887 16061 net.cpp:150] Setting up pool3
I0511 17:21:38.483896 16061 net.cpp:157] Top shape: 1 256 28 28 (200704)
I0511 17:21:38.483899 16061 net.cpp:165] Memory required for data: 102559824
I0511 17:21:38.483903 16061 layer_factory.hpp:77] Creating layer conv4_1
I0511 17:21:38.483912 16061 net.cpp:100] Creating Layer conv4_1
I0511 17:21:38.483916 16061 net.cpp:434] conv4_1 <- pool3
I0511 17:21:38.483924 16061 net.cpp:408] conv4_1 -> conv4_1
I0511 17:21:38.487303 16061 net.cpp:150] Setting up conv4_1
I0511 17:21:38.487318 16061 net.cpp:157] Top shape: 1 512 28 28 (401408)
I0511 17:21:38.487321 16061 net.cpp:165] Memory required for data: 104165456
I0511 17:21:38.487327 16061 layer_factory.hpp:77] Creating layer relu4_1
I0511 17:21:38.487334 16061 net.cpp:100] Creating Layer relu4_1
I0511 17:21:38.487336 16061 net.cpp:434] relu4_1 <- conv4_1
I0511 17:21:38.487341 16061 net.cpp:395] relu4_1 -> conv4_1 (in-place)
I0511 17:21:38.487346 16061 net.cpp:150] Setting up relu4_1
I0511 17:21:38.487350 16061 net.cpp:157] Top shape: 1 512 28 28 (401408)
I0511 17:21:38.487352 16061 net.cpp:165] Memory required for data: 105771088
I0511 17:21:38.487354 16061 layer_factory.hpp:77] Creating layer conv4_2
I0511 17:21:38.487361 16061 net.cpp:100] Creating Layer conv4_2
I0511 17:21:38.487365 16061 net.cpp:434] conv4_2 <- conv4_1
I0511 17:21:38.487368 16061 net.cpp:408] conv4_2 -> conv4_2
I0511 17:21:38.491869 16061 net.cpp:150] Setting up conv4_2
I0511 17:21:38.491888 16061 net.cpp:157] Top shape: 1 512 28 28 (401408)
I0511 17:21:38.491891 16061 net.cpp:165] Memory required for data: 107376720
I0511 17:21:38.491902 16061 layer_factory.hpp:77] Creating layer relu4_2
I0511 17:21:38.491909 16061 net.cpp:100] Creating Layer relu4_2
I0511 17:21:38.491914 16061 net.cpp:434] relu4_2 <- conv4_2
I0511 17:21:38.491920 16061 net.cpp:395] relu4_2 -> conv4_2 (in-place)
I0511 17:21:38.491926 16061 net.cpp:150] Setting up relu4_2
I0511 17:21:38.491930 16061 net.cpp:157] Top shape: 1 512 28 28 (401408)
I0511 17:21:38.491933 16061 net.cpp:165] Memory required for data: 108982352
I0511 17:21:38.491935 16061 layer_factory.hpp:77] Creating layer conv4_3
I0511 17:21:38.491942 16061 net.cpp:100] Creating Layer conv4_3
I0511 17:21:38.491945 16061 net.cpp:434] conv4_3 <- conv4_2
I0511 17:21:38.491950 16061 net.cpp:408] conv4_3 -> conv4_3
I0511 17:21:38.496446 16061 net.cpp:150] Setting up conv4_3
I0511 17:21:38.496466 16061 net.cpp:157] Top shape: 1 512 28 28 (401408)
I0511 17:21:38.496469 16061 net.cpp:165] Memory required for data: 110587984
I0511 17:21:38.496476 16061 layer_factory.hpp:77] Creating layer relu4_3
I0511 17:21:38.496484 16061 net.cpp:100] Creating Layer relu4_3
I0511 17:21:38.496486 16061 net.cpp:434] relu4_3 <- conv4_3
I0511 17:21:38.496491 16061 net.cpp:395] relu4_3 -> conv4_3 (in-place)
I0511 17:21:38.496500 16061 net.cpp:150] Setting up relu4_3
I0511 17:21:38.496503 16061 net.cpp:157] Top shape: 1 512 28 28 (401408)
I0511 17:21:38.496505 16061 net.cpp:165] Memory required for data: 112193616
I0511 17:21:38.496508 16061 layer_factory.hpp:77] Creating layer pool4
I0511 17:21:38.496513 16061 net.cpp:100] Creating Layer pool4
I0511 17:21:38.496515 16061 net.cpp:434] pool4 <- conv4_3
I0511 17:21:38.496518 16061 net.cpp:408] pool4 -> pool4
I0511 17:21:38.496548 16061 net.cpp:150] Setting up pool4
I0511 17:21:38.496553 16061 net.cpp:157] Top shape: 1 512 14 14 (100352)
I0511 17:21:38.496556 16061 net.cpp:165] Memory required for data: 112595024
I0511 17:21:38.496558 16061 layer_factory.hpp:77] Creating layer conv5_1
I0511 17:21:38.496564 16061 net.cpp:100] Creating Layer conv5_1
I0511 17:21:38.496567 16061 net.cpp:434] conv5_1 <- pool4
I0511 17:21:38.496572 16061 net.cpp:408] conv5_1 -> conv5_1
I0511 17:21:38.501106 16061 net.cpp:150] Setting up conv5_1
I0511 17:21:38.501125 16061 net.cpp:157] Top shape: 1 512 14 14 (100352)
I0511 17:21:38.501128 16061 net.cpp:165] Memory required for data: 112996432
I0511 17:21:38.501135 16061 layer_factory.hpp:77] Creating layer relu5_1
I0511 17:21:38.501143 16061 net.cpp:100] Creating Layer relu5_1
I0511 17:21:38.501145 16061 net.cpp:434] relu5_1 <- conv5_1
I0511 17:21:38.501152 16061 net.cpp:395] relu5_1 -> conv5_1 (in-place)
I0511 17:21:38.501158 16061 net.cpp:150] Setting up relu5_1
I0511 17:21:38.501163 16061 net.cpp:157] Top shape: 1 512 14 14 (100352)
I0511 17:21:38.501164 16061 net.cpp:165] Memory required for data: 113397840
I0511 17:21:38.501168 16061 layer_factory.hpp:77] Creating layer conv5_2
I0511 17:21:38.501174 16061 net.cpp:100] Creating Layer conv5_2
I0511 17:21:38.501176 16061 net.cpp:434] conv5_2 <- conv5_1
I0511 17:21:38.501180 16061 net.cpp:408] conv5_2 -> conv5_2
I0511 17:21:38.505167 16061 net.cpp:150] Setting up conv5_2
I0511 17:21:38.505182 16061 net.cpp:157] Top shape: 1 512 14 14 (100352)
I0511 17:21:38.505184 16061 net.cpp:165] Memory required for data: 113799248
I0511 17:21:38.505190 16061 layer_factory.hpp:77] Creating layer relu5_2
I0511 17:21:38.505197 16061 net.cpp:100] Creating Layer relu5_2
I0511 17:21:38.505199 16061 net.cpp:434] relu5_2 <- conv5_2
I0511 17:21:38.505203 16061 net.cpp:395] relu5_2 -> conv5_2 (in-place)
I0511 17:21:38.505209 16061 net.cpp:150] Setting up relu5_2
I0511 17:21:38.505213 16061 net.cpp:157] Top shape: 1 512 14 14 (100352)
I0511 17:21:38.505215 16061 net.cpp:165] Memory required for data: 114200656
I0511 17:21:38.505218 16061 layer_factory.hpp:77] Creating layer conv5_3
I0511 17:21:38.505223 16061 net.cpp:100] Creating Layer conv5_3
I0511 17:21:38.505225 16061 net.cpp:434] conv5_3 <- conv5_2
I0511 17:21:38.505228 16061 net.cpp:408] conv5_3 -> conv5_3
I0511 17:21:38.508941 16061 net.cpp:150] Setting up conv5_3
I0511 17:21:38.508971 16061 net.cpp:157] Top shape: 1 512 14 14 (100352)
I0511 17:21:38.508975 16061 net.cpp:165] Memory required for data: 114602064
I0511 17:21:38.508981 16061 layer_factory.hpp:77] Creating layer relu5_3
I0511 17:21:38.508991 16061 net.cpp:100] Creating Layer relu5_3
I0511 17:21:38.508994 16061 net.cpp:434] relu5_3 <- conv5_3
I0511 17:21:38.508999 16061 net.cpp:395] relu5_3 -> conv5_3 (in-place)
I0511 17:21:38.509006 16061 net.cpp:150] Setting up relu5_3
I0511 17:21:38.509008 16061 net.cpp:157] Top shape: 1 512 14 14 (100352)
I0511 17:21:38.509009 16061 net.cpp:165] Memory required for data: 115003472
I0511 17:21:38.509012 16061 layer_factory.hpp:77] Creating layer conv5_3_relu5_3_0_split
I0511 17:21:38.509016 16061 net.cpp:100] Creating Layer conv5_3_relu5_3_0_split
I0511 17:21:38.509018 16061 net.cpp:434] conv5_3_relu5_3_0_split <- conv5_3
I0511 17:21:38.509021 16061 net.cpp:408] conv5_3_relu5_3_0_split -> conv5_3_relu5_3_0_split_0
I0511 17:21:38.509027 16061 net.cpp:408] conv5_3_relu5_3_0_split -> conv5_3_relu5_3_0_split_1
I0511 17:21:38.509055 16061 net.cpp:150] Setting up conv5_3_relu5_3_0_split
I0511 17:21:38.509059 16061 net.cpp:157] Top shape: 1 512 14 14 (100352)
I0511 17:21:38.509063 16061 net.cpp:157] Top shape: 1 512 14 14 (100352)
I0511 17:21:38.509064 16061 net.cpp:165] Memory required for data: 115806288
I0511 17:21:38.509066 16061 layer_factory.hpp:77] Creating layer roi_pool5
I0511 17:21:38.509071 16061 net.cpp:100] Creating Layer roi_pool5
I0511 17:21:38.509073 16061 net.cpp:434] roi_pool5 <- conv5_3_relu5_3_0_split_0
I0511 17:21:38.509078 16061 net.cpp:434] roi_pool5 <- rois_input_1_split_1
I0511 17:21:38.509081 16061 net.cpp:408] roi_pool5 -> pool5
I0511 17:21:38.509085 16061 roi_pooling_layer.cpp:30] Spatial scale: 0.0625
I0511 17:21:38.509115 16061 net.cpp:150] Setting up roi_pool5
I0511 17:21:38.509122 16061 net.cpp:157] Top shape: 1 512 7 7 (25088)
I0511 17:21:38.509124 16061 net.cpp:165] Memory required for data: 115906640
I0511 17:21:38.509127 16061 layer_factory.hpp:77] Creating layer fc6
I0511 17:21:38.509132 16061 net.cpp:100] Creating Layer fc6
I0511 17:21:38.509135 16061 net.cpp:434] fc6 <- pool5
I0511 17:21:38.509140 16061 net.cpp:408] fc6 -> fc6
I0511 17:21:38.671051 16061 net.cpp:150] Setting up fc6
I0511 17:21:38.671074 16061 net.cpp:157] Top shape: 1 4096 (4096)
I0511 17:21:38.671077 16061 net.cpp:165] Memory required for data: 115923024
I0511 17:21:38.671087 16061 layer_factory.hpp:77] Creating layer relu6
I0511 17:21:38.671093 16061 net.cpp:100] Creating Layer relu6
I0511 17:21:38.671097 16061 net.cpp:434] relu6 <- fc6
I0511 17:21:38.671103 16061 net.cpp:395] relu6 -> fc6 (in-place)
I0511 17:21:38.671118 16061 net.cpp:150] Setting up relu6
I0511 17:21:38.671121 16061 net.cpp:157] Top shape: 1 4096 (4096)
I0511 17:21:38.671123 16061 net.cpp:165] Memory required for data: 115939408
I0511 17:21:38.671125 16061 layer_factory.hpp:77] Creating layer drop6
I0511 17:21:38.671130 16061 net.cpp:100] Creating Layer drop6
I0511 17:21:38.671133 16061 net.cpp:434] drop6 <- fc6
I0511 17:21:38.671135 16061 net.cpp:395] drop6 -> fc6 (in-place)
I0511 17:21:38.671150 16061 net.cpp:150] Setting up drop6
I0511 17:21:38.671154 16061 net.cpp:157] Top shape: 1 4096 (4096)
I0511 17:21:38.671155 16061 net.cpp:165] Memory required for data: 115955792
I0511 17:21:38.671157 16061 layer_factory.hpp:77] Creating layer fc7
I0511 17:21:38.671162 16061 net.cpp:100] Creating Layer fc7
I0511 17:21:38.671164 16061 net.cpp:434] fc7 <- fc6
I0511 17:21:38.671169 16061 net.cpp:408] fc7 -> fc7
I0511 17:21:38.697700 16061 net.cpp:150] Setting up fc7
I0511 17:21:38.697741 16061 net.cpp:157] Top shape: 1 4096 (4096)
I0511 17:21:38.697743 16061 net.cpp:165] Memory required for data: 115972176
I0511 17:21:38.697752 16061 layer_factory.hpp:77] Creating layer relu7
I0511 17:21:38.697760 16061 net.cpp:100] Creating Layer relu7
I0511 17:21:38.697763 16061 net.cpp:434] relu7 <- fc7
I0511 17:21:38.697769 16061 net.cpp:395] relu7 -> fc7 (in-place)
I0511 17:21:38.697777 16061 net.cpp:150] Setting up relu7
I0511 17:21:38.697779 16061 net.cpp:157] Top shape: 1 4096 (4096)
I0511 17:21:38.697782 16061 net.cpp:165] Memory required for data: 115988560
I0511 17:21:38.697783 16061 layer_factory.hpp:77] Creating layer drop7
I0511 17:21:38.697788 16061 net.cpp:100] Creating Layer drop7
I0511 17:21:38.697790 16061 net.cpp:434] drop7 <- fc7
I0511 17:21:38.697793 16061 net.cpp:395] drop7 -> fc7 (in-place)
I0511 17:21:38.697808 16061 net.cpp:150] Setting up drop7
I0511 17:21:38.697813 16061 net.cpp:157] Top shape: 1 4096 (4096)
I0511 17:21:38.697814 16061 net.cpp:165] Memory required for data: 116004944
I0511 17:21:38.697816 16061 layer_factory.hpp:77] Creating layer roi_pool5_context
I0511 17:21:38.697820 16061 net.cpp:100] Creating Layer roi_pool5_context
I0511 17:21:38.697824 16061 net.cpp:434] roi_pool5_context <- conv5_3_relu5_3_0_split_1
I0511 17:21:38.697826 16061 net.cpp:434] roi_pool5_context <- context
I0511 17:21:38.697830 16061 net.cpp:408] roi_pool5_context -> pool5_context
I0511 17:21:38.697835 16061 roi_pooling_layer.cpp:30] Spatial scale: 0.0625
I0511 17:21:38.697871 16061 net.cpp:150] Setting up roi_pool5_context
I0511 17:21:38.697880 16061 net.cpp:157] Top shape: 1 512 7 7 (25088)
I0511 17:21:38.697882 16061 net.cpp:165] Memory required for data: 116105296
I0511 17:21:38.697885 16061 layer_factory.hpp:77] Creating layer fc6_context
I0511 17:21:38.697890 16061 net.cpp:100] Creating Layer fc6_context
I0511 17:21:38.697891 16061 net.cpp:434] fc6_context <- pool5_context
I0511 17:21:38.697896 16061 net.cpp:408] fc6_context -> fc6_context
I0511 17:21:38.856482 16061 net.cpp:150] Setting up fc6_context
I0511 17:21:38.856504 16061 net.cpp:157] Top shape: 1 4096 (4096)
I0511 17:21:38.856506 16061 net.cpp:165] Memory required for data: 116121680
I0511 17:21:38.856515 16061 layer_factory.hpp:77] Creating layer relu6_context
I0511 17:21:38.856523 16061 net.cpp:100] Creating Layer relu6_context
I0511 17:21:38.856526 16061 net.cpp:434] relu6_context <- fc6_context
I0511 17:21:38.856531 16061 net.cpp:395] relu6_context -> fc6_context (in-place)
I0511 17:21:38.856539 16061 net.cpp:150] Setting up relu6_context
I0511 17:21:38.856541 16061 net.cpp:157] Top shape: 1 4096 (4096)
I0511 17:21:38.856544 16061 net.cpp:165] Memory required for data: 116138064
I0511 17:21:38.856545 16061 layer_factory.hpp:77] Creating layer drop6_context
I0511 17:21:38.856551 16061 net.cpp:100] Creating Layer drop6_context
I0511 17:21:38.856554 16061 net.cpp:434] drop6_context <- fc6_context
I0511 17:21:38.856555 16061 net.cpp:395] drop6_context -> fc6_context (in-place)
I0511 17:21:38.856570 16061 net.cpp:150] Setting up drop6_context
I0511 17:21:38.856575 16061 net.cpp:157] Top shape: 1 4096 (4096)
I0511 17:21:38.856576 16061 net.cpp:165] Memory required for data: 116154448
I0511 17:21:38.856578 16061 layer_factory.hpp:77] Creating layer fc7_context
I0511 17:21:38.856583 16061 net.cpp:100] Creating Layer fc7_context
I0511 17:21:38.856585 16061 net.cpp:434] fc7_context <- fc6_context
I0511 17:21:38.856590 16061 net.cpp:408] fc7_context -> fc7_context
I0511 17:21:38.883066 16061 net.cpp:150] Setting up fc7_context
I0511 17:21:38.883090 16061 net.cpp:157] Top shape: 1 4096 (4096)
I0511 17:21:38.883093 16061 net.cpp:165] Memory required for data: 116170832
I0511 17:21:38.883116 16061 layer_factory.hpp:77] Creating layer relu7_context
I0511 17:21:38.883126 16061 net.cpp:100] Creating Layer relu7_context
I0511 17:21:38.883129 16061 net.cpp:434] relu7_context <- fc7_context
I0511 17:21:38.883136 16061 net.cpp:395] relu7_context -> fc7_context (in-place)
I0511 17:21:38.883142 16061 net.cpp:150] Setting up relu7_context
I0511 17:21:38.883146 16061 net.cpp:157] Top shape: 1 4096 (4096)
I0511 17:21:38.883147 16061 net.cpp:165] Memory required for data: 116187216
I0511 17:21:38.883149 16061 layer_factory.hpp:77] Creating layer drop7_context
I0511 17:21:38.883154 16061 net.cpp:100] Creating Layer drop7_context
I0511 17:21:38.883157 16061 net.cpp:434] drop7_context <- fc7_context
I0511 17:21:38.883159 16061 net.cpp:395] drop7_context -> fc7_context (in-place)
I0511 17:21:38.883175 16061 net.cpp:150] Setting up drop7_context
I0511 17:21:38.883179 16061 net.cpp:157] Top shape: 1 4096 (4096)
I0511 17:21:38.883180 16061 net.cpp:165] Memory required for data: 116203600
I0511 17:21:38.883183 16061 layer_factory.hpp:77] Creating layer fc7_output
I0511 17:21:38.883188 16061 net.cpp:100] Creating Layer fc7_output
I0511 17:21:38.883189 16061 net.cpp:434] fc7_output <- fc7
I0511 17:21:38.883193 16061 net.cpp:434] fc7_output <- fc7_context
I0511 17:21:38.883195 16061 net.cpp:408] fc7_output -> fc7_output
I0511 17:21:38.883211 16061 net.cpp:150] Setting up fc7_output
I0511 17:21:38.883214 16061 net.cpp:157] Top shape: 1 8192 (8192)
I0511 17:21:38.883216 16061 net.cpp:165] Memory required for data: 116236368
I0511 17:21:38.883219 16061 layer_factory.hpp:77] Creating layer fc7_output_fc7_output_0_split
I0511 17:21:38.883222 16061 net.cpp:100] Creating Layer fc7_output_fc7_output_0_split
I0511 17:21:38.883224 16061 net.cpp:434] fc7_output_fc7_output_0_split <- fc7_output
I0511 17:21:38.883229 16061 net.cpp:408] fc7_output_fc7_output_0_split -> fc7_output_fc7_output_0_split_0
I0511 17:21:38.883232 16061 net.cpp:408] fc7_output_fc7_output_0_split -> fc7_output_fc7_output_0_split_1
I0511 17:21:38.883239 16061 net.cpp:408] fc7_output_fc7_output_0_split -> fc7_output_fc7_output_0_split_2
I0511 17:21:38.883267 16061 net.cpp:150] Setting up fc7_output_fc7_output_0_split
I0511 17:21:38.883272 16061 net.cpp:157] Top shape: 1 8192 (8192)
I0511 17:21:38.883276 16061 net.cpp:157] Top shape: 1 8192 (8192)
I0511 17:21:38.883278 16061 net.cpp:157] Top shape: 1 8192 (8192)
I0511 17:21:38.883280 16061 net.cpp:165] Memory required for data: 116334672
I0511 17:21:38.883282 16061 layer_factory.hpp:77] Creating layer cls_score
I0511 17:21:38.883288 16061 net.cpp:100] Creating Layer cls_score
I0511 17:21:38.883291 16061 net.cpp:434] cls_score <- fc7_output_fc7_output_0_split_0
I0511 17:21:38.883294 16061 net.cpp:408] cls_score -> cls_score
I0511 17:21:38.883533 16061 net.cpp:150] Setting up cls_score
I0511 17:21:38.883538 16061 net.cpp:157] Top shape: 1 2 (2)
I0511 17:21:38.883540 16061 net.cpp:165] Memory required for data: 116334680
I0511 17:21:38.883544 16061 layer_factory.hpp:77] Creating layer bbox_pred
I0511 17:21:38.883549 16061 net.cpp:100] Creating Layer bbox_pred
I0511 17:21:38.883551 16061 net.cpp:434] bbox_pred <- fc7_output_fc7_output_0_split_1
I0511 17:21:38.883555 16061 net.cpp:408] bbox_pred -> bbox_pred
I0511 17:21:38.884153 16061 net.cpp:150] Setting up bbox_pred
I0511 17:21:38.884160 16061 net.cpp:157] Top shape: 1 8 (8)
I0511 17:21:38.884161 16061 net.cpp:165] Memory required for data: 116334712
I0511 17:21:38.884166 16061 layer_factory.hpp:77] Creating layer ort_pred
I0511 17:21:38.884169 16061 net.cpp:100] Creating Layer ort_pred
I0511 17:21:38.884171 16061 net.cpp:434] ort_pred <- fc7_output_fc7_output_0_split_2
I0511 17:21:38.884176 16061 net.cpp:408] ort_pred -> ort_pred
I0511 17:21:38.884361 16061 net.cpp:150] Setting up ort_pred
I0511 17:21:38.884366 16061 net.cpp:157] Top shape: 1 2 (2)
I0511 17:21:38.884369 16061 net.cpp:165] Memory required for data: 116334720
I0511 17:21:38.884372 16061 layer_factory.hpp:77] Creating layer cls_prob
I0511 17:21:38.884377 16061 net.cpp:100] Creating Layer cls_prob
I0511 17:21:38.884379 16061 net.cpp:434] cls_prob <- cls_score
I0511 17:21:38.884382 16061 net.cpp:408] cls_prob -> cls_prob
I0511 17:21:38.884418 16061 net.cpp:150] Setting up cls_prob
I0511 17:21:38.884423 16061 net.cpp:157] Top shape: 1 2 (2)
I0511 17:21:38.884426 16061 net.cpp:165] Memory required for data: 116334728
I0511 17:21:38.884428 16061 net.cpp:228] cls_prob does not need backward computation.
I0511 17:21:38.884430 16061 net.cpp:228] ort_pred does not need backward computation.
I0511 17:21:38.884433 16061 net.cpp:228] bbox_pred does not need backward computation.
I0511 17:21:38.884435 16061 net.cpp:228] cls_score does not need backward computation.
…
